saved_model/NEW_ENV2_20250530_01-58-38.pth (torch, 623220 bytes, 111 tensors)

technical_norm.min_val f4 [4]
-0.99999976 -0.99999976 -24.028984 -364.7394
00000000: fcff 7fbf fcff 7fbf 5c3b c0c1 a55e b6c3

technical_norm.max_val f4 [4]
-0.7811934 0.99999976 45.50547 -8.6012945
00000000: 4afc 47bf fcff 7f3f 9a05 3642 e79e 09c1

feature_extraction.0.weight f4 [128, 8]
0.26934054 0.19343632 -0.16680734 -0.37213534 -0.044823572 0.05838009 -0.04477135 0.1628528
0.3053622 -0.20978038 -0.104162864 -0.07897239 -0.01919717 0.37713006 0.07858518 -0.18933816
-0.3750887 0.054520693 -0.094796136 0.034035698 0.35439306 0.26178962 -0.010103453 0.31038457
-0.4960294 -0.058084533 0.07375335 -0.22886007 -0.33150485 -0.19150186 0.07133558 0.07701254
-0.31935596 0.24850728 0.3407254 -0.15733992 -0.024974056 0.41596243 -0.03940772 0.02567206
0.07447935 0.39046457 -0.08529793 -0.19914536 0.33520448 -0.07911557 0.040388875 0.07311029
-0.44389334 -0.11759736 0.13714144 0.41220996 0.4007407 -0.25277698 0.0025152245 0.3026629
-0.2661373 0.2139682 0.217643 0.5167968 0.08829187 -0.2073419 0.15821633 0.3364491
-0.015420709 0.12572111 -0.062475413 0.23901656 0.14390567 -0.19815314 -0.48150903 0.070188336
0.14499228 0.06829236 -0.3844441 -0.19543006 0.0782177 0.21832845 -0.5026258 0.16630185
-0.14043212 0.20418885 -0.09786727 -0.33857414 -0.008162062 -0.18152262 0.21272078 0.0623867
0.17566264 0.07282433 0.2753285 -0.46739888 -0.14765093 0.26763883 -0.31288627 0.14911297
0.21481116 0.11018184 0.14968565 0.6061451 0.08342366 0.056409273 0.21781945 -0.32763466
-0.33548927 -0.05445711 -0.11339016 -0.0041482667 0.3101312 0.026094373 0.017323386 -0.53896
0.15426901 -0.12093004 -0.04714338 0.3764193 -0.04640651 -0.01672075 -0.22825603 -0.46523005
0.24923028 -0.07371805 0.27033022 0.3757605 0.16131178 0.25992465 -0.26354212 0.32059458
-0.045550603 0.09923976 0.011912628 0.11724564 -0.14653637 0.24683526 0.19567864 0.19219495
-0.50566834 -0.06980612 -0.30683017 0.102104604 -0.12165197 -0.17713964 0.32991007 0.15817453
-0.1615934 0.26407743 0.16784842 0.3454498 0.13076213 -0.25575092 -0.14511564 -0.23369217
-0.3627753 -0.054024264 0.016526593 0.4075651 -0.10380682 -0.21835972 0.36482885 -0.5864395
0.38525 0.045161083 0.088989526 0.13882582 0.22261061 0.09286706 0.10790409 -0.4544113
0.5048592 0.09954352 -0.119124465 0.21697001 -0.36703512 0.41234216 0.28840473 -0.00021289318
0.2006797 0.0011388035 0.069328815 0.0011659323 0.18369083 0.34298727 -0.014405331 -0.11362607
-0.3577639 -0.2554318 -0.17931473 -0.2643804 -0.16879098 0.36137518 0.09557886 0.06382892
0.00989429 0.392683 0.16405448 -0.13944167 -0.13579985 0.20120429 -0.14529963 0.2378794
-0.213997 0.10405019 -0.5059473 0.2887905 -0.24076885 -0.29577813 0.07479592 -0.04662613
0.64565784 0.30968508 -0.0674649 0.33723336 -0.12516457 0.21696939 -0.07164056 0.09577323
0.08089163 0.1233605 0.066792555 -0.31244722 0.050141778 0.3059596 0.017909935 0.0092581315
-0.29167086 -0.049473025 -0.13443768 -0.044962656 0.042113345 0.38908443 0.0031522443 -0.6632601
-0.35164976 -0.48068285 -0.058449235 -0.17734188 0.08942832 0.14696251 0.018816527 0.26965535
0.35489157 0.18008855 -0.04328858 0.26006037 0.07713293 0.0007798313 0.049103018 -0.3045453
0.095027916 0.5507233 0.3721694 -0.0572069 -0.21461159 0.18507569 0.1582214 -0.21065846
00000000: 01e7 893e 2c14 463e 8bcf 2abe 8688 bebe
00000010: ec98 37bd f61f 6f3d 2a62 37bd e2c2 263e
00000020: 6f58 9c3e abd0 56be 5753 d5bd 47bc a1bd
00000030: 6243 9dbc 3117 c13e 44f1 a03d dde1 41be
00000040: a00b c0be 1751 5f3d 7a24 c2bd 0469 0b3d
00000050: 0273 b53e 4a09 863e f488 25bc baea 9e3e
00000060: 91f7 fdbe 0cea 6dbd ff0b 973d 4b5a 6abe
00000070: 01bb a9be 1019 44be 6318 923d c0b8 9d3d
00000080: a082 a3be b178 7e3e 8f73 ae3e b71d 21be
00000090: 6496 ccbc 07f9 d43e fd69 21bd 364e d23c
000000a0: a188 983d f9ea c73e aeb0 aebd c3ec 4bbe
000000b0: ec9f ab3e 5807 a2bd ce6e 253d d9ba 953d
000000c0: fd45 e3be e2d6 f0bd ce6e 0c3e 2f0d d33e
000000d0: e32d cd3e fc6b 81be 77d6 243b a2f6 9a3e
000000e0: 2643 88be 7b1a 5b3e cedd 5e3e cc4c 043f
000000f0: 5ed2 b43d 6f51 54be 7603 223e 0e43 ac3e
00000100: 24a7 7cbc 09bd 003e 38e6 7fbd c2c0 743e
00000110: 025c 133e a8e8 4abe 5a88 f6be e7be 8f3d
00000120: db78 143e dddc 8b3d dbd5 c4be d11e 48be
00000130: 9a30 a03d 7e91 5f3e 16ac 00bf 084b 2a3e
00000140: 70cd 0fbe e216 513e a36e c8bd 9759 adbe
00000150: 2bba 05bc 11e1 39be 7ad3 593e 3289 7f3d
00000160: e8e0 333e ec24 953d dbf7 8c3e e84e efbe
00000170: ce31 17be f507 893e a132 a0be 12b1 183e
00000180: 75f7 5b3e 04a7 e13d 3247 193e 532c 1b3f
00000190: 06da aa3d 690d 673d 100c 5f3e bbbf a7be
000001a0: 40c5 abbe 6b0e 5fbd 1a39 e8bd 2fee 87bb
000001b0: 84c9 9e3e dec3 d53c c6e9 8d3c 48f9 09bf
000001c0: b2f8 1d3e 2baa f7bd 6b19 41bd 08ba c03e
000001d0: c114 3ebd f4f9 88bc f3bb 69be a232 eebe
000001e0: 3936 7f3e 7df9 96bd b968 8a3e ae63 c03e
000001f0: ea2e 253e d814 853e feee 86be f924 a43e
00000200: 4593 3abd 373e cb3d 2f2d 433c 7b1e f03d
00000210: a10d 16be 62c2 7c3e fb5f 483e c1ce 443e
00000220: 7b73 01bf 83f6 8ebd d818 9dbe 381c d13d
00000230: ab24 f9bd 1864 35be f9e9 a83e 81f8 213e
00000240: be78 25be 2835 873e 75e0 2b3e ccde b03e
00000250: 82e6 053e c9f1 82be 3299 14be 004d 6fbe
00000260: afbd b9be 8c48 5dbd c762 873c 5fac d03e
00000270: ac98 d4bd b199 5fbe d9ca ba3e e620 16bf
00000280: 7d3f c53e d4fa 383d 2440 b63d 5b28 0e3e
00000290: 09f4 633e 1631 be3d d2fc dc3d 99a8 e8be
000002a0: 743e 013f 79dd cb3d 87f7 f3bd 632d 5e3e
000002b0: 07ec bbbe 831e d33e c9a9 933e 143c 5fb9
000002c0: fb7e 4d3e e843 953a 44fc 8d3d 32d2 983a
000002d0: 7319 3c3e 079c af3e 5604 6cbc c9b4 e8bd
000002e0: d42c b7be f5c7 82be 489e 37be de5c 87be
000002f0: 8bd7 2cbe 2b06 b93e d9be c33d bdb8 823d
00000300: a91b 223c bf0d c93e e6fd 273e ccc9 0ebe
00000310: 1e0f 0bbe 7f08 4e3e 6dc9 14be a896 733e
00000320: 0822 5bbe 4418 d53d c385 01bf 59dc 933e
00000330: 1c8c 76be 3b70 97be 9a2e 993d 0afb 3ebd
00000340: d549 253f 0b8f 9e3e 0a2b 8abd daa9 ac3e
00000350: 242b 00be 392d 5e3e 49b8 92bd c124 c43d
00000360: 83aa a53d 6ea4 fc3d 89ca 883d 15f9 9fbe
00000370: 7761 4d3d bda6 9c3e dbb7 923c 6baf 173c
00000380: e255 95be 3aa4 4abd 08aa 09be c32a 38bd
00000390: 0b7f 2c3d 1336 c73e e295 4e3b 6acb 29bf
000003a0: 700b b4be 101c f6be 7768 6fbd 1c99 35be
000003b0: 3226 b73d 577d 163e 1e25 9a3c 4410 8a3e
000003c0: 59b4 b53e 2269 383e 5e4f 31bd a226 853e
000003d0: dff7 9d3d 986d 4c3a 3f20 493d 5ded 9bbe
000003e0: ff9d c23d 34fc 0c3f fd8c be3e c851 6abd
000003f0: 24c3 5bbe 7b84 3d3e ca04 223e dab6 57be

feature_extraction.0.bias f4 [128]
-0.4037177 -0.056464717 -0.011406272 -0.25801417 0.027747875 -0.2224114 -0.20899685 0.1379451
0.029685471 0.25398517 0.27288994 -0.19401631 0.022257743 0.4223792 -0.33656758 -0.23377326
0.08433402 -0.09687438 -0.24683131 0.34116554 0.3215781 -0.1529294 0.282226 0.34730858
0.15747376 0.08595529 0.014748837 0.19523497 -0.046390243 0.033606734 0.12953767 -0.04142188
-0.19061416 -0.23529257 -0.12514485 0.31829196 0.030354269 0.5236657 -0.07768717 -0.29458138
-0.16454603 0.026362754 -0.31095666 0.2462509 0.36261383 0.25953144 -0.0847798 0.26258546
-0.18370268 0.1192864 -0.010636043 -0.07256085 -0.2470362 -0.17969434 -0.21231662 0.06889427
0.11918106 0.008698843 0.3953009 -0.06769291 -0.32265094 -0.14876321 -0.14539428 0.21125712
0.28825656 -0.034394495 0.12919185 0.13407451 -0.20501556 0.09178358 0.29620045 0.294018
0.0945804 -0.50683826 0.16095005 0.30941445 0.2641394 -0.3057163 -0.07844509 -0.22159842
-0.2646796 -0.12657022 -0.12464794 0.13017195 0.2253409 -0.011519999 -0.006670587 -0.04091523
0.07296305 -0.29171166 0.07824632 -0.21158999 0.105698146 0.039802343 0.1919377 -0.15464123
-0.12865904 -0.15848282 -0.2450571 -0.04195724 -0.0653315 -0.3313083 -0.2162927 0.14409219
-0.19764018 0.07841267 -0.2533335 0.035528377 -0.1685865 0.21938111 -0.18821202 0.4967979
-0.09088561 -0.3450853 0.08611673 0.28162208 -0.097155385 -0.34845543 0.18404423 0.076772
0.2902603 0.18060052 -0.21795234 -0.0661163 0.07253682 0.3491808 -0.4441403 -0.3161752
00000000: 16b4 cebe 8c47 67bd 5fe1 3abc 6f1a 84be
00000010: 834f e33c d0bf 63be 4503 56be 7b41 0d3e
00000020: f22e f33c 580a 823e 3bb8 8b3e 36ac 46be
00000030: df55 b63c 1642 d83e 9652 acbe 4262 6fbe
00000040: 51b7 ac3d 1366 c6bd 59c1 7cbe 40ad ae3e
00000050: e2a5 a43e 8699 1cbe ed7f 903e 6ed2 b13e
00000060: cd40 213e 5409 b03d 1ba5 713c adeb 473e
00000070: b203 3ebd 37a7 093d 86a5 043e fda9 29bd
00000080: 5c30 43be 89f0 70be f925 00be 2af7 a23e
00000090: 84a9 f83c f50e 063f 731a 9fbd 5fd3 96be
000000a0: c17e 28be b4f6 d73c b635 9fbe 3229 7c3e
000000b0: 85a8 b93e 4ee1 843e 08a1 adbd 9a71 863e
000000c0: 8e1c 3cbe 6e4c f43d cc42 2ebc c89a 94bd
000000d0: 0ff7 7cbe cb01 38be 8769 59be 7018 8d3d
000000e0: 3315 f43d 9885 0e3c e164 ca3e 95a2 8abd
000000f0: 8132 a5be 6255 18be 3de2 14be c953 583e
00000100: 5d96 933e 3ee1 0cbd de4a 043e d44a 093e
00000110: 99ef 51be 08f9 bb3d 96a7 973e 8789 963e
00000120: 5eb3 c13d 27c0 01bf 17d0 243e 926b 9e3e
00000130: 483d 873e d986 9cbe d2a7 a0bd b2ea 62be
00000140: 1684 87be a09b 01be 6b47 ffbd cc4b 053e
00000150: c4bf 663e 61be 3cbc f194 dabb ba96 27bd
00000160: a76d 953d 3b5b 95be 9b3f a03d 0cab 58be
00000170: 4578 d83d c807 233d 518b 443e 455a 1ebe
00000180: 32bf 03be 5249 22be 40f0 7abe 5bdb 2bbd
00000190: 85cc 85bd 3ea1 a9be d57b 5dbe e78c 133e
000001a0: 3062 4abe d296 a03d eeb4 81be 3486 113d
000001b0: f1a1 2cbe 71a5 603e a7ba 40be 4b5c fe3e
000001c0: 3c22 babd 05af b0be f85d b03d c530 903e
000001d0: 67f9 c6bd c068 b2be 1776 3c3e a33a 9d3d
000001e0: ff9c 943e 58ef 383e e62e 5fbe fc67 87bd
000001f0: 2f8e 943d d3c7 b23e 5b66 e3be b7e1 a1be

feature_extraction.2.weight f4 [64, 128]
0.08682706 -0.10740001 -0.12537274 -0.04846001 0.12298493 0.16101715 -0.13534889 0.1117768
0.047124397 -0.06023734 0.081613265 -0.0019448414 0.06359542 -0.21756496 -0.16390422 -0.019444568
-0.052051507 -0.18723701 0.03745415 0.09749332 -0.4383738 -0.16864018 -0.13155393 0.10282933
-0.039592013 -0.31731468 -0.1731098 0.124397025 -0.27948865 0.17875998 -0.05361104 0.010432396
-0.11767176 -0.20729448 0.005805413 0.30490687 0.2500621 -0.32080626 0.29309183 -0.012631593
-0.006181665 -0.331279 0.19990261 -0.023312876 -0.18768376 -0.07850327 0.011620222 -0.034267202
0.08179303 -0.1283031 -0.06801638 -0.11885081 0.16507891 -0.018858235 -0.34015423 -0.07802299
0.24838324 0.2503762 -0.025224462 -0.21631458 0.16682078 -0.09636306 0.052097082 -0.061311178
-0.08528967 -0.07070113 -0.072590396 0.00560801 -0.2578192 -0.0017822799 0.10107475 0.18739611
0.20408013 0.14007351 -0.20770945 -0.106385805 -0.05654755 -0.1815238 0.3852051 -0.008823654
-0.1712957 -0.13208938 0.07713523 0.21535654 0.08788877 -0.13466021 -0.043050043 -0.047932465
0.05779476 -0.06864936 0.2653131 0.0012825441 0.15369344 0.034036342 0.005034278 0.011840425
-0.10718347 -0.1512532 -0.14116488 -0.02771415 -0.06805501 -0.06336427 -0.09689625 -0.16869411
0.15146728 -0.21168876 0.10891385 0.03482425 0.043891292 0.007883201 -0.024922058 -0.22561581
0.22215141 0.022019355 0.13375412 0.115487814 0.11118327 0.38176784 0.03438939 -0.15361713
-0.24571243 -0.11052022 -0.37150952 0.16116326 0.022751164 -0.08967872 0.11444155 0.10738471
-0.229269 -0.24464554 0.012119313 0.22621448 -0.3090509 0.01894013 -0.12200375 -0.48476967
-0.37421235 -0.36298993 -0.52464116 0.053177528 -0.39848492 -0.03144518 -0.052206486 -0.36279568
-0.42531693 -0.09243364 0.14643647 -0.45587638 0.457442 -0.30255955 -0.29143256 -0.41247422
-0.07387832 -0.34918013 -0.5956736 -0.47743872 0.15465702 -0.25758052 -0.4440733 0.040090505
0.024773335 -0.22912809 -0.4177539 -0.038253803 -0.25977173 -0.049964625 -0.16208579 -0.16545095
-0.28442934 0.33077157 -0.19367357 -0.3888038 -0.24784638 -0.19647804 -0.17705962 -0.06986148
-0.3095035 -0.084432825 -0.4431142 0.5512515 -0.27999312 -0.21254256 0.11850247 -0.188172
-0.49138996 -0.18101548 -0.13665162 0.6255456 -0.38764626 0.16841935 -0.40977073 0.07814209
-0.22892167 -0.4293514 -0.081060335 0.3404379 0.46044487 -0.23798929 -0.5104413 -0.44812164
-0.52668554 -0.19770339 -0.15225847 -0.44376796 -0.16752271 0.42519125 -0.24159162 -0.11465841
0.047526143 0.5782563 -0.2090482 -0.21768446 -0.34326044 -0.31409138 -0.3527136 -0.1486317
-0.4780086 -0.24443364 -0.4228207 -0.4453341 -0.39363647 -0.26906028 -0.15109882 -0.26103097
-0.11703217 -0.37580928 0.63456184 -0.35068953 -0.3896096 -0.04922166 -0.2972159 -0.19169049
-0.3865043 -0.4799206 -0.24873522 -0.23225789 -0.41236174 0.15515904 -0.47972664 0.26672637
-0.25469416 -0.682343 -0.31177616 -0.5248867 -0.4773304 -0.43180302 -0.27874613 -0.4867999
0.006538544 -0.1860791 0.1416501 -0.51841426 -0.25385773 -0.554979 -0.46236572 0.114574775
00000000: 63d2 b13d 89f4 dbbd b661 00be 017e 46bd
00000010: 86df fb3d aee1 243e e698 0abe 3ceb e43d
00000020: 8305 413d 6ebb 76bd db24 a73d 0cea feba
00000030: 513e 823d 59c9 5ebe 82d6 27be 374a 9fbc
00000040: f633 55bd 0fbb 3fbe 8669 193d 94aa c73d
00000050: 8872 e0be 03b0 2cbe 13b6 06be 2f98 d23d
00000060: 3c2b 22bd 1277 a2be b243 31be dec3 fe3d
00000070: 2319 8fbe db0c 373e 4097 5bbd a4ec 2a3c
00000080: e4fd f0bd 0145 54be 553b be3b c11c 9c3e
00000090: 2408 803e b840 a4be 2210 963e bef4 4ebc
000000a0: 918f cabb 679d a9be 45b3 4c3e a5fa bebc
000000b0: 2c30 40be 53c6 a0bd be62 3e3c c45b 0cbd
000000c0: 1b83 a73d e361 03be 2c4c 8bbd 0e68 f3bd
000000d0: 720a 293e 967c 9abc b228 aebe 84ca 9fbd
000000e0: 2d58 7e3e 4f31 803e 88a3 cebc 9281 5dbe
000000f0: 11d3 2a3e ff59 c5bd c063 553d 6e21 7bbd
00000100: 5aac aebd c1cb 90bd 46aa 94bd 66c3 b73b
00000110: e100 84be 649b e9ba 4700 cf3d c4e4 3f3e
00000120: 62fa 503e 6e6f 0f3e c9b1 54be cde0 d9bd
00000130: 679e 67bd 60e1 39be 9a39 c53e 1691 10bc
00000140: 2468 2fbe 7042 07be 13f9 9d3d 6d86 5c3e
00000150: 07ff b33d 5ee4 09be 3e55 30bd d554 44bd
00000160: 33ba 6c3d 0998 8cbd 1ed7 873e 0a1b a83a
00000170: d061 1d3e b169 0b3d 96f6 a43b 58fe 413c
00000180: 0283 dbbd 1ee2 1abe 878d 10be c908 e3bc
00000190: 6d60 8bbd 20c5 81bd 8b71 c6bd 26be 2cbe
000001a0: 3d1a 1b3e f0c4 58be 390e df3d dfa3 0e3d
000001b0: 5bc7 333d 8b28 013c 5829 ccbc d507 67be
000001c0: a97b 633e ef61 b43c d7f6 083e e084 ec3d
000001d0: 0eb4 e33d 1377 c33e e4db 0c3d cf4d 1dbe
000001e0: 0a9c 7bbe 6d58 e2bd 7f36 bebe fb07 253e
000001f0: a660 ba3c 7aa9 b7bd 5560 ea3d 84ec db3d
00000200: 7ec5 6abe 5c84 7abe 1590 463c c5a4 673e
00000210: eb3b 9ebe 5528 9b3c 1add f9bd bb33 f8be
00000220: c398 bfbe d1d9 b9be e24e 06bf aed0 593d
00000230: 3706 ccbe a9cc 00bd 78d6 55bd 5bc0 b9be
00000240: 24c3 d9be d94d bdbd 71f3 153e a168 e9be
00000250: d635 ea3e 16e9 9abe a636 95be d22f d3be
00000260: 844d 97bd bdc7 b2be 117e 18bf d972 f4be
00000270: 695e 1e3e 98e1 83be 935d e3be f135 243d
00000280: 73f1 ca3c 8ea0 6abe d7e3 d5be 05b0 1cbd
00000290: cd00 85be b5a7 4cbd d1f9 25be f96b 29be
000002a0: b9a0 91be e45a a93e 5d52 46be 4b11 c7be
000002b0: 71cb 7dbe 8a31 49be 1e4f 35be 8913 8fbd
000002c0: 3e77 9ebe 1eeb acbd dddf e2be d11e 0d3f
000002d0: 425b 8fbe c2a4 59be 6cb1 f23d 29b0 40be
000002e0: 7797 fbbe 1f5c 39be 67ee 0bbe c223 203f
000002f0: 9279 c6be 1f76 2c3e 78cd d1be f608 a03d
00000300: 716a 6abe f2d3 dbbe f602 a6bd e04d ae3e
00000310: 6ebf eb3e 77b3 73be 48ac 02bf 3370 e5be
00000320: ddd4 06bf c272 4abe a5e9 1bbe 8e35 e3be
00000330: 138b 2bbe abb2 d93e cb63 77be 07d2 eabd
00000340: c6aa 423d 9b08 143f bb10 56be ade8 5ebe
00000350: d5bf afbe 96d0 a0be e196 b4be e932 18be
00000360: 8bbd f4be d04c 7abe f47b d8be d502 e4be
00000370: b88a c9be 45c2 89be a6b9 1abe daa5 85be
00000380: 90ae efbd 136a c0be a572 223f 948d b3be
00000390: e97a c7be a79c 49bd af2c 98be 834a 44be
000003a0: e4e3 c5be 27b8 f5be 72b4 7ebe 03d5 6dbe
000003b0: 1421 d3be 03e2 1e3e bb9e f5be 5c90 883e
000003c0: 4667 82be 08ae 2ebf 20a1 9fbe fa5e 06bf
000003d0: a664 f4be 4915 ddbe d0b7 8ebe d63d f9be
000003e0: 4841 d63b 858b 3ebe b90c 113e ccb6 04bf
000003f0: a4f9 81be 1b13 0ebf 33bb ecbe 2ea6 ea3d

feature_extraction.2.bias f4 [64]
-0.07394088 -0.5331027 0.06662642 -0.060203593 -0.81636477 0.05828643 0.13386093 0.22533265
-0.05086275 0.105256885 0.023859808 -0.16883554 -0.076394916 0.22102204 -0.68944263 0.11636881
0.05646978 0.26603228 0.093900345 0.13987662 0.14705823 0.16453232 0.11702019 -0.11980258
0.1174005 0.1242741 0.13405842 -0.086545676 0.093924284 0.0737712 0.10078221 0.13621679
-0.032411326 -0.04695847 0.08741266 0.017598009 -0.05943788 0.26174095 0.19836017 0.18750834
-0.07846629 -0.1239775 0.031577725 0.043448646 -0.042759802 0.10238382 -0.022235649 0.026504386
-0.023883864 0.11072482 0.13102688 0.06963239 0.031822458 0.080234736 0.12303204 -0.07134261
0.039396103 0.096643925 0.093802035 0.015984735 0.13255522 0.18621778 0.085060716 -0.060851
00000000: 516e 97bd 6b79 08bf 6f73 883d 0b98 76bd
00000010: 48fd 50bf c0bd 6e3d d712 093e 9abd 663e
00000020: 7555 50bd ec90 d73d a575 c33c 39e3 2cbe
00000030: f074 9cbd 9a53 623e 507f 30bf c552 ee3d
00000040: db4c 673d 6235 883e d34e c03d d13b 0f3e
00000050: 6f96 163e 297b 283e 48a8 ef3d 0e5b f5bd
00000060: ac6f f03d 6b83 fe3d 9c46 093e dc3e b1bd
00000070: 605b c03d 5b15 973d e766 ce3d 6a7c 0b3e
00000080: bdc1 04bd 8657 40bd 6905 b33d b329 903c
00000090: 2275 73bd e902 863e ee1e 4b3e 3002 403e
000000a0: efb2 a0bd eae7 fdbd a557 013d 35f7 313d
000000b0: e724 2fbd 9cae d13d 8927 b6bc ba1f d93c
000000c0: 18a8 c3bc b2c3 e23d e92b 063e 6d9b 8e3d
000000d0: 4458 023d 1c52 a43d 39f8 fb3d 131c 92bd
000000e0: cf5d 213d 40ed c53d 481b c03d 6bf2 823c
000000f0: 8ebc 073e e0af 3e3e 5034 ae3d e63e 79bd

actor_direction.0.weight f4 [128, 64]
0.2821811 -0.108820595 0.10452615 -0.008434348 -0.29757604 -0.045983583 0.08239865 0.09805327
0.37457153 0.013140872 0.2546596 0.21089438 0.14972138 -0.051561147 -0.026340948 0.059068844
0.38913053 0.39182484 0.3039286 0.15394177 -0.053793184 0.31069928 0.21559241 -0.071711205
-0.03744072 0.197106 0.39617622 0.20919956 0.1793484 0.09939918 0.15168397 0.0687192
0.27455968 0.29877123 0.035495855 -0.15709957 0.19900164 0.1628038 0.15618776 0.2525136
0.073091656 0.31334218 0.14606553 0.31106317 0.029143536 0.24235705 0.20147146 -0.055335484
-0.11500445 0.25139636 0.029415492 0.3665438 0.17694588 -0.15073049 -0.04310254 -0.005592186
-0.030273473 0.29144782 -0.07964495 -0.083896756 0.24454664 0.06439643 0.14858323 0.059328206
0.19552732 -0.0105409445 0.087276846 0.14484243 -0.12568635 0.26672179 0.07306592 0.061225034
0.1501795 0.21491441 -0.051283274 0.092499904 0.056975603 0.04576703 0.13285448 0.12119884
0.04013207 0.12184273 0.09657165 0.08281447 0.31508866 0.112944275 0.04936198 -0.0015982897
0.00018683249 0.06551669 0.08896887 0.008168625 0.08948692 0.013648715 0.17136253 0.09759504
0.004290485 0.038324226 0.18778759 -0.09385755 0.04636764 0.17555058 0.13297273 0.11000337
0.07837666 0.00042233802 0.22581933 0.23162743 0.05660454 0.12473134 -0.006761923 0.11412113
0.25288334 0.108448535 0.03841572 -0.04292983 0.13972116 0.06265617 0.20811208 0.34399745
0.24189197 0.18016398 0.19816628 0.06908869 0.13140026 0.026944026 0.13533477 0.24735072
-0.0038296147 -0.0685533 0.19403264 -0.20195489 -0.28839314 0.12373823 0.220785 0.2457403
0.15306747 0.19080713 0.22717673 -0.086799905 0.009330744 0.14435488 -0.29986316 0.15778886
0.23469646 0.36123922 0.3927423 0.0011553162 0.12197106 0.18761979 0.30523714 0.022111688
0.005868766 0.18400978 -0.04001864 0.09123911 0.20298345 0.38430297 -0.07645538 0.35203826
0.14988475 0.085947014 -0.0056200977 0.012282077 -0.015644995 0.109814845 0.08851685 0.25787646
0.04237996 -0.091909 0.2775871 0.19959031 0.26136488 -0.087687895 0.14931777 0.011303035
0.040976424 -0.018463438 0.2017313 0.04868711 -0.02936421 0.08752611 0.004123254 0.17409013
0.06580637 0.30145586 -0.17610942 -0.049805567 0.096803226 0.11571967 -0.019656584 0.11596706
0.06573699 -0.07588056 0.26214826 0.19783168 -0.05373085 0.038041342 0.11615169 0.19014405
-0.15717182 0.22713216 0.023098525 0.04940987 0.20547491 0.16302991 -0.05536778 0.099705085
-0.055676322 0.16650108 -0.154076 -0.017666975 0.16285008 0.2320083 -0.039011385 0.1855563
0.2101012 0.2662395 0.18954107 -0.14798206 0.16245726 0.21079119 0.12962583 0.17039835
0.115675695 0.15452498 0.13518089 0.07087089 0.11212735 0.09406906 0.17928368 0.2609426
0.06979401 0.050864685 0.22457525 0.034632396 -0.06643631 0.008721211 0.06549512 0.083051026
0.18276176 0.19010848 0.05723165 0.14085904 0.2758368 0.0031019873 0.11337107 0.17678997
0.1159181 0.14467944 0.0962092 0.29640418 0.05686528 -0.011069077 0.20234136 0.25675482
00000000: 0b7a 903e 55dd debd ce11 d63d 3830 0abc
00000010: e35b 98be 4859 3cbd a0c0 a83d 27d0 c83d
00000020: d7c7 bf3e d04c 573c be62 823e b2f4 573e
00000030: 9050 193e c831 53bd f9c8 d7bc 2cf2 713d
00000040: 1e3c c73e 449d c83e 889c 9b3e e9a2 1d3e
00000050: 3e56 5cbd fa13 9f3e 42c4 5c3e 53dd 92bd
00000060: 715b 19bd 28d6 493e 9cd7 ca3e 6938 563e
00000070: 1ba7 373e cc91 cb3d 0b53 1b3e a7bc 8c3d
00000080: 1693 8c3e 8bf8 983e 1a64 113d b6de 20be
00000090: 16c7 4b3e 0ab6 263e afef 1f3e 7649 813e
000000a0: 14b1 953d 636e a03e 3492 153e ac43 9f3e
000000b0: 6dbe ee3c 722c 783e 894e 4e3e 76a7 62bd
000000c0: 7487 ebbd 06b7 803e c2f8 f03c a1ab bb3e
000000d0: 4d31 353e 1859 1abe 4a8c 30bd a83e b7bb
000000e0: 1300 f8bc a638 953e e41c a3bd 10d2 abbd
000000f0: 6f6a 7a3e 47e2 833d 3426 183e 2202 733d
00000100: 5038 483e edb3 2cbc 34be b23d 9351 143e
00000110: ecb3 00be c28f 883e 96a3 953d 1ac7 7a3d
00000120: a8c8 193e 8612 5c3e 690e 52bd 9770 bd3d
00000130: 405f 693d 3676 3b3d 010b 083e 1937 f83d
00000140: 8761 243d ae88 f93d 5bc7 c53d a29a a93d
00000150: 4d53 a13e 544f e73d ca2f 4a3d b47d d1ba
00000160: 77e8 4339 9d2d 863d 5035 b63d b2d5 053c
00000170: eb44 b73d dc9e 5f3c a979 2f3e e9df c73d
00000180: 3297 8c3b ddf9 1c3d 644b 403e 6338 c0bd
00000190: ffeb 3d3d 88c3 333e 012a 083e 7249 e13d
000001a0: f183 a03d 406d dd39 2f3d 673e be2f 6d3e
000001b0: 2ada 673d 2573 ff3d 1f93 ddbb 57b8 e93d
000001c0: ed79 813e 441a de3d cd59 1d3d 30d7 2fbd
000001d0: 1013 0f3e e151 803d 551b 553e 6f20 b03e
000001e0: 87b2 773e e87c 383e 1aec 4a3e 5f7e 8d3d
000001f0: ca8d 063e b8b9 dc3c 3395 0a3e 8249 7d3e
00000200: 46fa 7abb ac65 8cbd 7eb0 463e 43cd 4ebe
00000210: 44a8 93be 786a fd3d 7715 623e 58a3 7b3e
00000220: b8bd 1c3e f262 433e 04a1 683e 26c4 b1bd
00000230: fadf 183c c4d1 133e aa87 99be 6793 213e
00000240: 4554 703e 59f4 b83e 8515 c93e fb6d 973a
00000250: f7cb f93d 671f 403e 0b48 9c3e 9223 b53c
00000260: c74e c03b 0f6d 3c3e 96ea 23bd 92db ba3d
00000270: e5da 4f3e 5cc3 c43e a394 9cbd 5c3e b43e
00000280: 637b 193e fd04 b03d cc28 b8bb c43a 493c
00000290: ef29 80bc 9be6 e03d 5248 b53d 6208 843e
000002a0: 9c96 2d3d c93a bcbd e51f 8e3e 6761 4c3e
000002b0: 9ed1 853e b695 b3bd c2e6 183e 5d30 393c
000002c0: e5d6 273d a340 97bc a692 4e3e 236c 473d
000002d0: 368d f0bc e440 b33d 5d1c 873b af44 323e
000002e0: 7dc5 863d 6c58 9a3e 0756 34be ec00 4cbd
000002f0: c540 c63d 6ffe ec3d d806 a1bc 2380 ed3d
00000300: 1da1 863d 4467 9bbd 4c38 863e 6394 4a3e
00000310: e114 5cbd 3dd1 1b3d f0e0 ed3d 1fb5 423e
00000320: a6f1 20be 5595 683e 1e39 bd3c 0162 4a3d
00000330: 0468 523e 50f1 263e 53c9 62bd 2e32 cc3d
00000340: db0c 64bd 427f 2a3e 19c6 1dbe 55ba 90bc
00000350: 2cc2 263e 9593 6d3e 67ca 1fbd 7902 3e3e
00000360: c524 573e 8b50 883e 0e17 423e 9c88 17be
00000370: 325b 263e a5d9 573e a2bc 043e e87c 2e3e
00000380: 61e7 ec3d cc3b 1e3e dc6c 0a3e c224 913d
00000390: 06a3 e53d 48a7 c03d 2496 373e 459a 853e
000003a0: 29f0 8e3d 7d57 503d 0ef7 653e b3da 0d3d
000003b0: c30f 88bd 69e3 0e3c 4e22 863d a816 aa3d
000003c0: e625 3b3e ccab 423e bc6b 6a3d 5a3d 103e
000003d0: 7b3a 8d3e b64a 4b3b 172f e83d 6e08 353e
000003e0: 7866 ed3d d926 143e 5409 c53d 4ac2 973e
000003f0: 91eb 683d 135b 35bc 9332 4f3e 5e75 833e

actor_direction.0.bias f4 [128]
0.072651535 0.06425421 0.1693744 0.1848833 0.0770155 0.051595505 0.21183527 0.1462358
0.06483149 0.086260095 0.1660981 0.32754785 0.25878102 -0.013288691 0.19038497 0.23451217
0.11482542 0.0855463 0.16888252 0.11806336 0.20644008 0.17711017 0.18036826 0.23472998
0.3036653 0.21215609 0.090204634 0.048254028 0.04480248 0.079779625 0.14240307 0.22168495
0.1311874 0.14601614 0.19584389 0.21849199 0.07776531 0.11746494 0.2776977 0.22049306
0.049427845 0.08191066 0.13381189 0.15939754 0.10773834 0.17941524 0.21461393 0.2025061
0.042534288 0.24528772 0.18354033 0.18303151 0.20195948 0.25188416 0.076032765 0.17424162
0.109623656 0.1450123 0.13604854 0.010554697 0.1360488 0.072470896 0.20853935 0.12407603
0.2809596 0.23403902 0.19402331 0.12851359 0.22953369 0.18304875 -0.014468156 0.22076873
0.12318418 0.14255843 0.2554487 0.0077665495 0.21054518 0.21242175 0.04037602 0.18180777
0.032028932 0.094110936 0.17561214 0.20291722 0.24579704 0.20857361 0.26000658 0.04608164
0.16078645 0.0689543 0.30296323 0.21777576 0.101502806 0.22808863 0.106888376 0.33887923
0.27206054 0.11864784 0.21139462 0.31699222 0.23821002 0.028416988 0.22431873 0.010369937
0.14073156 0.24258946 0.27725872 0.11620374 0.16252789 0.15611658 0.15155697 0.15153688
0.059481297 0.12529409 0.1277782 0.20318666 0.02939559 0.17950253 0.08654773 0.17631379
0.24800134 -0.0021940859 0.23199376 0.15357079 0.17005093 0.18236317 0.1989333 0.19973789
00000000: 54ca 943d b697 833d 7c70 2d3e 0c52 3d3e
00000010: 4dba 9d3d cf55 533d 58eb 583e d6be 153e
00000020: 5fc6 843d 22a9 b03d 9f15 2a3e 5ab4 a73e
00000030: f27e 843e cfb8 59bc 47f4 423e f523 703e
00000040: 9729 eb3d e632 af3d 8aef 2c3e 34cb f13d
00000050: 0765 533e 5e5c 353e 75b2 383e 0e5d 703e
00000060: 057a 9b3e 723f 593e 35bd b83d 04a6 453d
00000070: ce82 373d 8063 a33d 1cd2 113e 6101 633e
00000080: fd55 063e 4185 153e 4d8b 483e 5dbc 5f3e
00000090: 6b43 9f3d 7591 f03d 652e 8e3e efc8 613e
000000a0: da74 4a3d c7c0 a73d fc05 093e 1c39 233e
000000b0: eba5 dc3d a1b8 373e c1c3 5b3e c25d 4f3e
000000c0: 6f38 2e3d b42c 7b3e fff1 3b3e 9d6c 3b3e
000000d0: 77ce 4e3e f6f6 803e 11b7 9b3d 656c 323e
000000e0: 5e82 e03d 1b7e 143e 4f50 0b3e 9ced 2c3c
000000f0: 6050 0b3e 9f6b 943d 578b 553e 931b fe3d
00000100: f0d9 8f3e eda7 6f3e 0cae 463e 1199 033e
00000110: e10a 6b3e 2271 3b3e d80b 6dbc 3311 623e
00000120: fd47 fc3d d6fa 113e 2cca 823e 8a7e fe3b
00000130: 2899 573e 1685 593e 5361 253d d12b 3a3e
00000140: c530 033d 3cbd c03d abd3 333e 88c9 4f3e
00000150: 38b2 7b3e 5294 553e 951f 853e 1ac0 3c3d
00000160: 34a5 243e e937 8d3d ff1d 9b3e 9c00 5f3e
00000170: b4e0 cf3d 1190 693e 4be8 da3d 9481 ad3e
00000180: 854b 8b3e a4fd f23d d577 583e ce4c a23e
00000190: 54ed 733e beca e83c cfb3 653e abe6 293c
000001a0: ef1b 103e 5f69 783e dbf4 8d3e 3afc ed3d
000001b0: b66d 263e 06dd 1f3e c031 1b3e 7c2c 1b3e
000001c0: a9a2 733d 184d 003e 4ad8 023e 2a10 503e
000001d0: 05cf f03c 83cf 373e f03f b13d 9a8b 343e
000001e0: 10f4 7d3e a7ca 0fbb c68f 6d3e a941 1d3e
000001f0: d521 2e3e 69bd 3a3e 2cb5 4b3e 1788 4c3e

actor_direction.1.weight f4 [128]
1.2998904 1.0175178 1.2026094 0.97380066 1.1564242 1.234122 1.1759614 1.101084
1.1661274 1.2207962 1.1168532 1.0838712 1.2111816 1.1957523 1.0995275 1.2186803
1.2638643 1.083279 1.1612797 1.1275867 1.1356168 1.1497122 1.1253113 1.2913045
1.1204902 1.2542405 1.2783104 1.2246982 1.1951324 1.1461453 1.1457828 1.2012041
1.241565 1.2059566 1.4122223 1.1127938 1.0492753 1.1779653 1.0190614 1.0766082
1.2544917 1.0376409 1.1458453 1.2324328 1.1076112 1.074876 1.166238 1.1591483
1.054774 1.2416496 1.2143537 1.244586 1.213142 1.2405802 1.0873924 1.2466615
0.96093386 1.2189718 1.3266314 1.1425018 0.97336656 1.1351503 1.129351 1.1909118
1.1256868 1.2031529 1.1543354 1.1058811 1.5571202 1.0671183 1.2006161 1.136652
1.1173826 1.2541729 1.0976374 1.2484694 1.2315427 1.1004499 1.4174323 1.1535506
1.2586482 0.9985268 1.0096753 1.1970357 1.1382002 1.0690498 1.1939198 1.4636289
1.1071115 1.1519815 1.2253397 1.142053 1.2370038 0.9305332 1.2446084 1.1619775
1.0462273 1.1206348 1.2340713 1.0799478 1.1345199 1.2926962 1.2307065 1.1218306
1.052992 1.0724461 1.1547488 1.075833 1.028426 1.3327196 1.2696227 1.0492842
0.92125666 1.1505325 1.2234381 1.1214318 1.0323634 1.0358014 1.143801 1.2911054
1.279725 1.3829533 1.2162039 1.2410007 1.2181412 1.2200383 1.3678045 1.1566226
00000000: cf62 a63f 063e 823f 1bef 993f 004b 793f
00000010: b505 943f b6f7 9d3f e785 963f 52f0 8c3f
00000020: aa43 953f 0d43 9c3f 0cf5 8e3f 4bbc 8a3f
00000030: 0008 9b3f 690e 993f 51bd 8c3f b7fd 9b3f
00000040: 4ec6 a13f e3a8 8a3f d0a4 943f c354 903f
00000050: e45b 913f c529 933f 330a 903f 7749 a53f
00000060: 396c 8f3f f48a a03f ad9f a33f e9c2 9c3f
00000070: 19fa 983f e4b4 923f 03a9 923f 0ec1 993f
00000080: 9aeb 9e3f c95c 9a3f b3c3 b43f 0770 8e3f
00000090: a74e 863f 91c7 963f 9b70 823f 4cce 893f
000000a0: 2f93 a03f 6bd1 843f 0fab 923f 5cc0 9d3f
000000b0: 34c6 8d3f 8995 893f 4947 953f f95e 943f
000000c0: d602 873f 60ee 9e3f f16f 9b3f 984e 9f3f
000000d0: 3d48 9b3f 55cb 9e3f ad2f 8b3f 9b92 9f3f
000000e0: c3ff 753f 4507 9c3f 0fcf a93f 803d 923f
000000f0: 8d2e 793f 9b4c 913f 938e 903f cc6f 983f
00000100: 8116 903f ea00 9a3f 43c1 933f 838d 8d3f
00000110: b74f c73f 5597 883f caad 993f d07d 913f
00000120: 6506 8f3f bd88 a03f 627f 8c3f d8cd 9f3f
00000130: 31a3 9d3f 8bdb 8c3f 6c6e b53f 8ca7 933f
00000140: 621b a13f 749f 7f3f 0a3d 813f 7738 993f
00000150: 8bb0 913f a0d6 883f 5dd2 983f 3158 bb3f
00000160: d4b5 8d3f 2174 933f eed7 9c3f cb2e 923f
00000170: 2456 9e3f 6c37 6e3f 544f 9f3f aebb 943f
00000180: c7ea 853f f670 8f3f 0cf6 9d3f bb3b 8a3f
00000190: f337 913f 1277 a53f ca87 9d3f 2598 8f3f
000001a0: 71c8 863f ea45 893f cfce 933f e5b4 893f
000001b0: 77a3 833f 8e96 aa3f ff82 a23f f24e 863f
000001c0: 7ad7 6b3f a644 933f 9f99 9c3f 148b 8f3f
000001d0: 7c24 843f 2495 843f 1268 923f f142 a53f
000001e0: 07ce a33f 9d04 b13f 92ac 9b3f 1cd9 9e3f
000001f0: 0dec 9b3f 372a 9c3f 3814 af3f 360c 943f

actor_direction.1.bias f4 [128]
0.18953216 -0.03384958 0.12262594 0.015811913 0.05121024 0.085782275 0.032578263 0.010378292
0.06219662 0.047798492 -0.013528153 0.025649764 -0.05247253 0.09360034 0.020799905 0.050864477
0.10489348 0.02380285 -0.0029362272 0.07728929 -0.057681926 -0.018300593 0.028497335 0.037643384
0.119089745 0.019815225 0.115499355 0.12459002 0.056048576 0.03399004 0.02740865 0.086562134
0.026675452 0.010699754 0.13795775 -0.10236805 0.080688685 -0.010986543 0.031556163 0.1357482
-0.00023563145 0.017147902 -0.001097765 -0.015600257 0.059100293 0.06328425 -0.055213843 0.19437274
0.02698974 0.017871905 0.020525265 -0.037328422 0.08391075 0.10013069 -0.024487447 0.08857308
-0.054345667 0.13042761 0.09586022 0.022832075 -0.07370415 0.043765012 0.096177034 0.17329323
-0.008360064 0.08693909 0.06092706 0.024748767 0.19132446 -0.052898806 0.0003347135 0.012293275
0.07839724 0.043515854 0.12326681 -0.016264193 0.077600084 0.0384639 0.14359573 0.19964643
0.028260829 0.14221531 0.032453805 0.06517241 0.08099847 0.048213076 0.099139065 0.13447498
0.09080852 0.100458525 0.0128802005 0.062351625 0.17939585 0.049607337 0.19283381 0.052035574
-0.03774366 0.009081637 0.1431965 0.018543132 0.012914368 0.12723973 0.11001801 0.03606695
0.12438479 0.030874638 0.056052767 0.1262254 -0.083513334 0.07756486 0.05439866 0.044766802
-0.0998172 -0.012478663 0.021938533 0.16662383 -0.017950162 -0.008958782 0.07587429 0.052001145
0.09996681 0.1259618 0.08285185 0.013621732 0.039796468 0.08111429 0.19033419 0.06967197
00000000: b814 423e dba5 0abd 4f23 fb3d fc87 813c
00000010: d4c1 513d 9eae af3d c970 053d b609 2a3c
00000020: e2c1 7e3d 5ac8 433d 30a5 5dbc 741f d23c
00000030: 70ed 56bd 89b1 bf3d 9064 aa3c 4557 503d
00000040: 65d2 d63d 32fe c23c b86d 40bb d949 9e3d
00000050: e243 6cbd 20eb 95bc 3e73 e93c f32f 1a3d
00000060: 53e5 f33d 8a53 a23c ed8a ec3d 0d29 ff3d
00000070: 3193 653d 2439 0b3d 1b88 e03c 7d47 b13d
00000080: 7a86 da3c 054e 2f3c cc44 0d3e 57a6 d1bd
00000090: 1c40 a53d e700 34bc 0941 013d 9301 0b3e
000000a0: d613 77b9 c279 8c3c e2e2 8fba 3898 7fbc
000000b0: 2613 723d 2c9b 813d e927 62bd a609 473e
000000c0: 9619 dd3c 1a68 923c 9a24 a83c b0e5 18bd
000000d0: 66d9 ab3d 5211 cd3d e699 c8bc ce65 b53d
000000e0: 9099 5ebd d18e 053e 5d52 c43d 550a bb3c
000000f0: 34f2 96bd f142 333d 77f8 c43d c873 313e
00000100: a6f8 08bc 1f0d b23d a78e 793d edbd ca3c
00000110: 8fea 433e 6bac 58bd 7c7c af39 bc69 493c
00000120: bb8e a03d ae3d 323d 4f73 fc3d 7c3c 85bc
00000130: cbec 9e3d 538c 1d3d c20a 133e 1d70 4c3e
00000140: 4183 e73c e4a0 113e 48ee 043d 1d79 853d
00000150: 87e2 a53d 137b 453d 6c09 cb3d cfb3 093e
00000160: d1f9 b93d 33bd cd3d 7a07 533c 6b64 7f3d
00000170: 8cb3 373e 1031 4b3d 3a76 453e 4123 553d
00000180: 1999 1abd 25cb 143c 1aa2 123e c4e7 973c
00000190: c996 533c 224b 023e 1f51 e13d f0ba 133d
000001a0: 74bd fe3d cfec fc3c 9697 653d 3b41 013e
000001b0: 0a09 abbd 53da 9e3d 21d1 5e3d 655d 373d
000001c0: f66c ccbd 4e73 4cbc 70b8 b33c 709f 2a3e
000001d0: 380c 93bc dbc7 12bc fb63 9b3d 27ff 543d
000001e0: 66bb cc3d 21fc 003e 3bae a93d af2d 5f3c
000001f0: 9f01 233d 401f a63d f7e6 423e 2eb0 8e3d

actor_direction.4.weight f4 [64, 128]
-0.20215967 0.06323794 -0.01690159 0.12183094 -0.12285273 0.027963158 0.06282772 0.180349
0.012262607 -0.0970298 -0.13319924 0.11844978 0.056583486 0.12312566 0.22957782 -0.02356712
0.13098502 0.12079607 0.07314911 0.0910545 0.14762656 -0.077618524 0.25194395 -0.16715364
-0.14655904 0.028531859 -0.21748978 -0.083173364 -0.21235275 -0.17475182 0.03613501 0.20592366
0.032986987 -0.0796375 0.08733356 0.11190251 -0.04211452 0.014552239 0.06731707 -0.19910277
-0.28479964 -0.11377141 0.06497886 0.36506593 -0.0018943886 -0.16502205 -0.010860032 -0.23382635
-0.10616189 0.045907244 0.09576938 -0.11548348 0.3610688 -0.14741848 0.035613816 0.21193112
-0.16427545 -0.15768337 0.056664787 0.062398233 0.107271776 -0.12947169 -0.17318605 0.08517543
0.22951487 -0.17672981 0.34339803 0.26094165 -0.223225 0.24238427 0.14823131 0.2022545
-0.21136717 0.051190592 -0.08021078 0.018704617 0.20913848 -0.07189667 -0.1937184 -0.044043552
-0.03122742 0.028336126 -0.058089036 0.0039647343 -0.22045693 0.029468093 0.35085654 -0.075779065
0.052447133 0.043104365 0.39328423 0.11858573 0.045256928 0.10600411 -0.09152941 0.014316879
-0.03381093 0.016352925 0.111515306 -0.03253302 0.20211576 0.08919694 -0.15924253 0.17221254
0.11800487 0.064348236 -0.09455919 -0.11184859 0.08755643 -0.20494656 0.37627086 -0.05585018
-0.061154015 -0.09615314 -0.19520941 -0.05291519 -0.030997496 -0.27749154 0.043925535 -0.08326664
0.23231082 -0.08526471 -0.11259637 -0.1716856 0.062763974 0.066235244 0.00488996 0.07034081
-0.034702178 0.110355124 -0.2880115 0.06587646 0.023424136 0.06806047 0.07599365 0.07908473
0.17773259 -0.10164084 0.03669024 0.059354763 -0.041890975 0.21459314 0.05303638 0.13507317
0.23559554 0.12807034 -0.15532316 0.14212947 0.06651869 0.16691954 0.09946208 -0.24220362
0.12608948 0.10053182 0.12929317 0.2754194 -0.34398332 -0.08493193 0.21552294 0.1438123
0.01168371 0.1689366 0.29166216 -0.1631449 -0.13161187 0.19362149 0.022013253 0.15521324
-0.11218994 0.06985355 -0.18226132 0.021306712 -0.015215149 -0.045633867 0.09623643 -0.023316838
0.074449256 0.22797412 -0.02571424 -0.15624753 0.21616633 -0.0822886 0.10805743 -0.10490594
-0.25683084 0.19283612 0.187203 0.23096132 0.22168323 0.05589787 0.0118620945 -0.04615474
0.039886538 -0.10254463 0.09712391 0.19388564 0.41361168 -0.06752493 0.16789427 0.2526812
-0.020894397 0.112271085 -0.29704666 0.21015999 0.19013299 -0.19196022 -0.2738874 -0.2782365
0.15549472 -0.048357498 -0.15718551 0.1929572 0.20922615 0.07100632 0.05317865 0.20363335
-0.16475596 0.13782156 -0.10703049 0.2957346 0.117073156 -0.029201042 0.0856701 0.051529747
0.057254344 -0.09510215 0.22321549 -0.07912829 0.08605078 0.24815504 0.015539893 0.065541044
0.20178741 -0.23597355 -0.04172067 -0.31760448 -0.014318582 -0.28187957 0.04237255 -0.049650352
0.05697766 -0.21204488 0.07233569 -0.05498656 -0.091390856 -0.22118509 0.10428875 0.1955019
0.19597305 -0.067160234 0.067835964 0.2236265 0.11463675 0.20809886 -0.081541225 -0.060795218
00000000: f202 4fbe e582 813d 3475 8abc 8082 f93d
00000010: 369a fbbd fe12 e53c d2ab 803d 69ad 383e
00000020: 1ae9 483c 8fb7 c6bd 6265 08be cc95 f23d
00000030: 16c4 673d 4e29 fc3d 7316 6b3e d50f c1bc
00000040: f020 063e ee63 f73d 33cf 953d c87a ba3d
00000050: 6b2b 173e 76f6 9ebd ccfe 803e 532a 2bbe
00000060: 9313 16be a5bb e93c a4b5 5ebe cc56 aabd
00000070: 0073 59be 24f2 32be 4e02 143d a7dd 523e
00000080: 5d1d 073d fc18 a3bd f0db b23d 252d e53d
00000090: 4680 2cbd 846c 6e3c 88dd 893d 99e1 4bbe
000000a0: 42d1 91be fc00 e9bd a313 853d ece9 ba3e
000000b0: 224d f8ba 8afb 28be 47ee 31bc 2d70 6fbe
000000c0: 686b d9bd 3c09 3c3d bd22 c43d 9a82 ecbd
000000d0: 02de b83e dff4 16be cbdf 113d 7904 593e
000000e0: d337 28be c077 21be 5619 683d 4a95 7f3d
000000f0: 4eb1 db3d 3a94 04be af57 31be 7570 ae3d
00000100: f205 6b3e a9f8 34be ded1 af3e 259a 853e
00000110: 1895 64be 9533 783e f3c9 173e ce1b 4f3e
00000120: a370 58be 3aad 513d 8d45 a4bd 6d3a 993c
00000130: 6628 563e 903e 93bd 1e5e 46be 0367 34bd
00000140: a5d0 ffbc 2a21 e83c c5ee 6dbd 9aea 813b
00000150: 76bf 61be 1267 f13c 78a3 b33e 0e32 9bbd
00000160: ced2 563d 348e 303d 8d5c c93e 13dd f23d
00000170: 545f 393d af18 d93d c573 bbbd 5891 6a3c
00000180: 547d 0abd 92f6 853c 2362 e43d 5841 05bd
00000190: 6ff7 4e3e e3ac b63d 7910 23be 7c58 303e
000001a0: 8aac f13d 02c9 833d 40a8 c1bd e010 e5bd
000001b0: c950 b33d 83dd 51be 93a6 c03e 29c3 64bd
000001c0: a27c 7abd f0eb c4bd fae4 47be 99bd 58bd
000001d0: 76ee fdbc 5f13 8ebe 43eb 333d b387 aabd
000001e0: e3e2 6d3e 449f aebd ed98 e6bd 5ace 2fbe
000001f0: 668a 803d 58a6 873d f53b a03b d80e 903d
00000200: df23 0ebd de01 e23d 3e76 93be 3dea 863d
00000210: f9e3 bf3c 4a63 8b3d 8fa2 9b3d 2df7 a13d
00000220: 88ff 353e 1329 d0bd 8148 163d fb1d 733d
00000230: df95 2bbd 4ebe 5b3e ad3c 593d 9f50 0a3e
00000240: f53f 713e df24 033e 090d 1fbe 638a 113e
00000250: f33a 883d f5ec 2a3e c6b2 cb3d 3a04 78be
00000260: 9a1d 013e a0e3 cd3d 6e65 043e c603 8d3e
00000270: 951e b0be cbf0 adbd 0cb2 5c3e 8843 133e
00000280: 086d 3f3c b7fd 2c3e be54 953e 750f 27be
00000290: 43c5 06be b644 463e 2355 b43c 38f0 1e3e
000002a0: d7c3 e5bd 610f 8f3d b6a2 3abe 6a8b ae3c
000002b0: f648 79bc 94ea 3abd 9b17 c53d f402 bfbc
000002c0: da78 983d 0c72 693e aba6 d2bc 5aff 1fbe
000002d0: b55a 5d3e ed86 a8bd 374d dd3d edd8 d6bd
000002e0: 557f 83be d576 453e 25b2 3f3e 2081 6c3e
000002f0: ee00 633e 2af5 643d 3b59 423c c10c 3dbd
00000300: 1160 233d eb02 d2bd e7e8 c63d f589 463e
00000310: e9c4 d33e 834a 8abd 7aec 2b3e 6e5f 813e
00000320: ba2a abbc 62ee e53d 8016 98be 2e34 573e
00000330: 39b2 423e 3891 44be f83a 8cbe 0475 8ebe
00000340: 023a 1f3e 8312 46bd 3df5 20be 9296 453e
00000350: 613f 563e c36b 913d dbd1 593d 4385 503e
00000360: c9b5 28be 1821 0d3e cd32 dbbd 876a 973e
00000370: 0dc4 ef3d 0637 efbc ce73 af3d db10 533d
00000380: 8883 6a3d ebc4 c2bd 9a92 643e 030e a2bd
00000390: 643b b03d 5b1c 7e3e 099b 7e3c 623a 863d
000003a0: 5ca1 4e3e 0da3 71be 4be3 2abd 0e9d a2be
000003b0: 7c98 6abc 8552 90be d78e 2d3d 2b5e 4bbd
000003c0: 6861 693d 4b22 59be bc24 943d 9639 61bd
000003d0: 212b bbbd 587e 62be 5795 d53d a631 483e
000003e0: 29ad 483e 4e8b 89bd 95ed 8a3d 58fe 643e
000003f0: acc6 ea3d de17 553e 16ff a6bd 6804 79bd

actor_direction.4.bias f4 [64]
0.1858316 0.10580525 0.14294352 0.15692437 0.089655645 0.10546771 0.07760551 0.038732987
0.23727523 0.1366055 0.08601069 0.055484615 0.10828527 0.16590433 0.11767597 0.11247201
0.08874745 0.15908512 0.16678628 0.048809968 0.31285232 0.059617836 0.13116191 0.0963511
0.077186435 0.007377482 0.15179408 0.09152806 0.00033796424 0.15846986 0.10458949 0.1027223
0.07697979 0.11564399 0.2506297 -0.0012176685 -0.016112968 0.041640606 0.107681364 0.03955653
0.038815193 0.17994466 0.21075691 0.013530647 0.11776227 0.21617746 0.10139204 0.09776437
0.18001892 0.06735178 0.1776108 0.19633302 0.12900911 0.22548528 0.07224331 0.15218617
0.106537506 0.103395656 0.12311508 0.113282844 0.17036298 0.054902397 0.16586466 0.2361258
00000000: a44a 3e3e 6cb0 d83d c95f 123e c8b0 203e
00000010: 619d b73d 74ff d73d a3ef 9e3d 7ba6 1e3d
00000020: 47f8 723e 50e2 0b3e 5f26 b03d d643 633d
00000030: abc4 dd3d d3e2 293e 1900 f13d ba57 e63d
00000040: 39c1 b53d 36e7 223e 06ca 2a3e f6ec 473d
00000050: 2e2e a03e d531 743d 4f4f 063e ba53 c53d
00000060: ec13 9e3d cebe f13b e86f 1b3e 1073 bb3d
00000070: cb30 b139 ec45 223e 0433 d63d 1260 d23d
00000080: 95a7 9d3d c2d6 ec3d 8952 803e 2d9a 9fba
00000090: 58ff 83bc 578f 2a3d 0c88 dc3d 0706 223d
000000a0: aefc 1e3d 6a43 383e a9d0 573e a6af 5d3c
000000b0: 582d f13d a05d 5d3e a1a6 cf3d b038 c83d
000000c0: e156 383e bbef 893d 9bdf 353e 860b 493e
000000d0: f71a 043e 9de5 663e 4df4 933d b1d6 1b3e
000000e0: 5630 da3d 1ac1 d33d c223 fc3d d600 e83d
000000f0: a273 2e3e 56e1 603d 6dd8 293e f6ca 713e

actor_direction.5.weight f4 [64]
1.1436226 1.0333669 1.2536228 1.1574281 1.0860677 1.0634599 1.0471294 0.97468555
1.0925305 1.0941525 0.8793418 1.0677494 1.0577767 1.2113934 1.1962126 1.0664666
1.1497172 1.1608611 1.0679704 1.1718191 1.1044905 1.2100956 0.9127832 1.1647193
1.1909117 0.9333768 1.0240122 1.1219909 0.96593225 1.0269866 1.1962901 1.2329863
0.96208334 1.0490313 1.1735487 1.0503521 0.8572427 0.93506503 0.9917914 1.0102702
0.91695714 1.0399361 1.1911536 1.1006202 1.0843813 1.1732615 1.1986741 0.9941638
1.0500946 1.0797098 1.0124055 1.2420536 1.0573745 1.0197874 1.1192173 1.2902209
1.0583249 1.0467292 1.2264142 1.0512172 1.1009179 1.063098 1.3174405 0.9859179
00000000: 3a62 923f 5e45 843f b676 a03f 9b26 943f
00000010: 4404 8b3f 741f 883f 5608 863f fe84 793f
00000020: 0ad8 8b3f 300d 8c3f 8b1c 613f 03ac 883f
00000030: 3a65 873f f00e 9b3f 7f1d 993f fa81 883f
00000040: ef29 933f 1997 943f 41b3 883f 2bfe 953f
00000050: f25f 8d3f 6ae4 9a3f 29ac 693f 8615 953f
00000060: cb6f 983f c8f1 6e3f d512 833f 669d 8f3f
00000070: 5647 773f 4c74 833f 0920 993f 7fd2 9d3f
00000080: 184b 763f a846 863f d836 963f f071 863f
00000090: 4274 5b3f 6c60 6f3f 0be6 7d3f 8950 813f
000000a0: b4bd 6a3f a01c 853f b977 983f 1fe1 8c3f
000000b0: 02cd 8a3f 6f2d 963f 276e 993f 8581 7e3f
000000c0: 8069 863f ee33 8a3f 8196 813f 9dfb 9e3f
000000d0: 0c58 873f 6588 823f 8342 8f3f f525 a53f
000000e0: 3177 873f 39fb 853f 24fb 9c3f 498e 863f
000000f0: e1ea 8c3f 9813 883f e4a1 a83f 1e65 7c3f

actor_direction.5.bias f4 [64]
0.13300797 0.14368746 0.17020041 0.016329212 0.06851098 -0.011555841 0.08279336 0.007803689
0.079525776 0.020599997 -0.122612216 -0.015358331 0.02727628 0.1938163 -0.008688791 0.06006756
0.06264732 0.13037013 0.037675366 0.052417178 0.06266885 0.1347662 -0.11152111 -0.018612273
0.12910022 -0.13319165 0.03461 0.052667405 -0.009692804 -0.07549559 -0.046290684 0.082898125
-0.15418842 0.037534036 0.18069045 0.0019061276 -0.082327664 0.07178879 -0.15777719 -0.07794459
-0.07134451 0.0627593 0.067789644 0.00012578443 -0.048435383 0.09407918 0.003398323 0.1365462
0.06491473 0.056374956 0.028132351 0.07682482 -0.049626328 0.07868989 0.08725723 0.07604053
0.03766824 0.014961311 0.010028634 0.15926388 0.04878615 0.00921897 0.13986158 0.08740071
00000000: 3e33 083e ce22 133e 0449 2e3e d7c4 853c
00000010: 7c4f 8c3d b654 3dbc 918f a93d 17b6 ff3b
00000020: 69de a23d 53c1 a83c 1d1c fbbd 82a1 7bbc
00000030: 8172 df3c c877 463e 6e5b 0ebc 6709 763d
00000040: 3d4d 803d bf7f 053e 7c51 1a3d 65b3 563d
00000050: 8758 803d 2700 0a3e 2e65 e4bd c478 98bc
00000060: d932 043e 6463 08be 37c3 0d3d c7b9 573d
00000070: 91ce 1ebc 6f9d 9abd 4d9b 3dbd 7ec6 a93d
00000080: 92e3 1dbe 4abd 193d eb06 393e 07d7 f93a
00000090: 689b a8bd 0006 933d 5890 21be 6aa1 9fbd
000000a0: 121d 92bd f387 803d 4cd5 8a3d 00e5 0339
000000b0: 2e64 46bd 96ac c03d 66b6 5e3b c4d2 0b3e
000000c0: 04f2 843d 6de9 663d d175 e63c 5556 9d3d
000000d0: fa44 4bbd 2a28 a13d ebb3 b23d 23bb 9b3d
000000e0: 034a 1a3d 4920 753c 244f 243c 1216 233e
000000f0: fcd3 473d 2a0b 173c e037 0f3e 25ff b23d

actor_direction.8.weight f4 [32, 64]
-0.32711244 -0.1988521 -0.2226365 0.122413926 -0.3029444 0.195959 0.16299887 0.07574884
0.05138922 0.19357957 -0.15702131 0.23521242 0.013911106 -0.3007331 -0.16886948 0.042319227
0.04501591 -0.31698582 0.07718115 0.06760038 0.21957724 -0.13798735 -0.08740345 0.13337387
-0.36767048 0.10187045 -0.11656415 0.14215854 -0.0883278 -0.01072132 -0.22514169 0.013554815
-0.08808606 0.041255653 -0.36998013 0.19054958 0.07814412 0.058867987 0.14031929 0.2973937
-0.17166068 -0.023735708 -0.32881352 0.1485955 0.062338028 -0.19721623 5.8442027e-05 -0.27835086
-0.23130701 0.01579157 -0.12067305 0.099882625 -0.0054473183 -0.06223145 -0.163644 0.08780829
0.27542406 0.18462558 -0.077353284 0.26401332 0.066637084 -0.00899649 -0.28563467 0.13533626
0.05767218 -0.25005373 0.16390555 -0.009470418 0.090330265 -0.12375688 0.10116507 0.0908474
0.05141722 -0.17518967 0.00838499 -0.09344035 -0.047590114 0.09506664 -0.04492449 -0.031682603
-0.20851135 0.19979776 0.006107521 0.07269589 -0.015109426 0.08597499 0.089356035 0.0022106278
-0.029939799 0.12252655 0.09889471 0.083434656 -0.13904357 0.05902909 -0.07491203 0.08167936
-0.07697292 -0.07528808 0.115291744 -0.09323535 -0.114640646 -0.14048561 -0.043398466 0.15418336
0.08444422 0.1737906 0.07493722 0.08822292 0.00067069876 -0.086152054 0.1550216 -0.01474759
0.07139733 -0.16761857 0.08502125 -0.012074773 0.18177852 -0.15794237 -0.31783995 0.10842682
0.14808187 0.15262249 0.068196416 -0.043622263 -0.034305226 0.035223644 -0.15516269 -0.21174815
0.07859639 -0.013349217 0.015924558 0.12340648 0.024407066 0.12177043 0.19514437 -0.022239484
0.07791298 0.0036671036 -0.055443577 -0.037890844 0.07648954 0.09629036 -0.004624909 -0.057573132
0.116252325 0.08669893 -0.00204859 -0.01269737 -0.07720431 0.09163963 0.0053507653 -0.18412697
0.17426915 0.13460845 -0.06660813 -0.013408915 -0.14535126 0.07164443 -0.0134279905 -0.012817466
-0.28237414 -0.014019959 0.06909552 -0.009742284 -0.08596147 -0.06096497 -0.039442353 -0.08305124
0.088542074 -0.07873371 0.014991799 0.16602716 -0.13322733 -0.044087704 -0.09441375 -0.13484515
-0.05454077 0.028910922 0.091015324 0.05321842 -0.05340376 -0.06551162 0.038672287 0.0032947182
-0.026680963 0.01665405 -0.038999803 0.11630632 -0.08106417 0.18595617 0.020313503 -0.20650174
-0.0867742 0.18725927 -0.40620565 0.08489268 -0.22500376 -0.35238802 -0.46059418 0.080031574
-0.41322923 0.17823263 -0.31315905 0.09463079 -0.30771908 -0.48702207 -0.41273323 0.13067201
0.13707905 -0.4462972 -0.20049794 -0.2590793 0.25970858 -0.32615432 -0.0053907195 -0.33103156
-0.43829507 -0.14304368 0.0016777043 -0.6419122 -0.23366328 -0.051489253 -0.5769815 -0.13265046
0.13100728 0.008701149 -0.39634946 -0.25020236 0.28098765 -0.094624095 0.022397062 -0.2935039
-0.1920357 -0.2881244 -0.48862863 -0.24039158 -0.124897175 -0.014707245 -0.2376481 -0.36839715
-0.12986957 -0.20859918 -0.52473086 -0.11910012 -0.39393562 0.05913508 -0.21811348 -0.61540914
-0.30212274 -0.58257824 -0.67762303 -0.0031490966 0.23085508 -0.31774664 -0.22237931 0.3825591
00000000: 487b a7be e39f 4bbe d3fa 63be 27b4 fa3d
00000010: 871b 9bbe 7aa9 483e 2de9 263e 3522 9b3d
00000020: 817d 523d b939 463e 32ca 20be 86db 703e
00000030: 68eb 633c b0f9 99be 1fec 2cbe ed56 2d3d
00000040: 9a62 383d f74b a2be 2711 9e3d 1172 8a3d
00000050: dbd8 603e 8e4c 0dbe 9400 b3bd 2993 083e
00000060: 4e3f bcbe 74a1 d03d 2fb9 eebd 0292 113e
00000070: 35e5 b4bd 7aa8 2fbc 8b8b 66be 0415 5e3c
00000080: 7766 b4bd b0fb 283d 096e bdbe 6e1f 433e
00000090: 060a a03d 8f1f 713d dcaf 0f3e fd43 983e
000000a0: d1c7 2fbe 6371 c2bc 3f5a a8be 6b29 183e
000000b0: 2956 7f3d 0df3 49be a61f 7538 0184 8ebe
000000c0: bfdb 6cbe 535d 813c 6f23 f7bd 438f cc3d
000000d0: 6b7f b2bb 68e6 7ebd 4b92 27be d5d4 b33d
000000e0: 6204 8d3e 7d0e 3d3e 666b 9ebd c12c 873e
000000f0: 0679 883d 0466 13bc b53e 92be 9795 0a3e
00000100: aa39 6c3d 0b07 80be dbd6 273e d029 1bbc
00000110: 13ff b83d 3f74 fdbd a22f cf3d 340e ba3d
00000120: dd9a 523d ec64 33be 3261 093c a75d bfbd
00000130: daed 42bd 4cb2 c23d be02 38bd 9ec5 01bd
00000140: 0084 55be c997 4c3e 9921 c83b 95e1 943d
00000150: 878d 77bc a813 b03d 4c00 b73d 2ee0 103b
00000160: 4f44 f5bc 33ef fa3d 4f89 ca3d cadf aa3d
00000170: 7061 0ebe 7dc8 713d 7a6b 99bd 8247 a73d
00000180: faa3 9dbd a330 9abd 141e ec3d 2df2 bebd
00000190: b7c8 eabd 76db 0fbe 97c2 31bd 3ee2 1d3e
000001a0: 17f1 ac3d 2af6 313e af78 993d 38ae b43d
000001b0: d5d1 2f3a 7d70 b0bd fbbd 1e3e e09f 71bc
000001c0: c338 923d 34a4 2bbe 9f1f ae3d 45d5 45bc
000001d0: 2624 3a3e a5bb 21be ebbb a2be e10e de3d
000001e0: c6a2 173e 1249 1c3e 90aa 8b3d 42ad 32bd
000001f0: a383 0cbd ab46 103d f8e2 1ebe 82d4 58be
00000200: 25f7 a03d adb6 5abc 3874 823c 89bc fc3d
00000210: 54f1 c73c c662 f93d edd3 473e 942f b6bc
00000220: d790 9f3d ca53 703b ce18 63bd 6e33 1bbd
00000230: 8ca6 9c3d e133 c53d 8c8c 97bb ced1 6bbd
00000240: b315 ee3d 358f b13d a341 06bb a108 50bc
00000250: 4b1d 9ebd 8fad bb3d 7955 af3b c88b 3cbe
00000260: 9d73 323e ccd6 093e d869 88bd 11b1 5bbc
00000270: f6d6 14be 51ba 923d 1301 5cbc 5900 52bc
00000280: 5893 90be f8b3 65bc f481 8d3d 1a9e 1fbc
00000290: 910c b0bd 68b6 79bd 4e8e 21bd c516 aabd
000002a0: 8c55 b53d 243f a1bd 2aa0 753c 0603 2a3e
000002b0: bf6c 08be 4f95 34bd ff5b c1bd d914 0abe
000002c0: 2466 5fbd 99d6 ec3c 3e66 ba3d 8ffb 593d
000002d0: e7bd 5abd f52a 86bd d566 1e3d 33ec 573b
000002e0: 0992 dabc 136e 883c 42be 1fbd 0232 ee3d
000002f0: f904 a6bd 4b6b 3e3e 8168 a63c 3175 53be
00000300: acb6 b1bd e5c0 3f3e 30fa cfbe 37dc ad3d
00000310: 6367 66be 346c b4be 00d3 ebbe 98e7 a33d
00000320: c892 d3be 9d82 363e 6256 a0be cacd c13d
00000330: 5b8d 9dbe f55a f9be c551 d3be e2ce 053e
00000340: 735e 0c3e 1181 e4be 554f 4dbe 0ba6 84be
00000350: 86f8 843e b3fd a6be a2a4 b0bb f87c a9be
00000360: 3668 e0be 0b7a 12be 6ae6 db3a 5c54 24bf
00000370: 6d45 6fbe 65e6 52bd 0fb5 13bf 86d5 07be
00000380: c626 063e 448f 0e3c 51ee cabe 861a 80be
00000390: 9ddd 8f3e 47ca c1bd 0b7a b73c 2546 96be
000003a0: 02a5 44be 0b85 93be 882d fabe 3629 76be
000003b0: 17ca ffbd a8f6 70bc 065a 73be 8d9e bcbe
000003c0: 87fc 04be 069b 55be c354 06bf c4ea f3bd
000003d0: eeb1 c9be a037 723d 2459 5fbe 748b 1dbf
000003e0: d5af 9abe d923 15bf b478 2dbf 1361 4ebb
000003f0: 4665 6c3e b0af a2be 67b7 63be c9de c33e

actor_direction.8.bias f4 [32]
-0.15413968 0.03100652 0.13692378 -0.64141834 0.6143965 0.3225878 -0.0006639767 0.10453417
0.07366691 0.49866122 0.21833819 -0.010360821 -0.008360185 0.20686854 -0.38169277 0.099493384
0.12295111 0.11728904 0.0936101 -0.019821228 -0.614272 0.19294478 0.022688018 0.06940503
0.10670464 0.09728653 -0.04161627 0.09124609 0.17943974 0.19309431 0.14648634 0.290746
00000000: cbd6 1dbe 6301 fe3c bf35 0c3e fe33 24bf
00000010: 1749 1d3f 3a2a a53e b90e 2eba 0316 d63d
00000020: adde 963d 8650 ff3e 0c94 5f3e 6fc0 29bc
00000030: 28f9 08bc 59d5 533e 3c6d c3be 30c3 cb3d
00000040: cbcd fb3d 3c35 f03d a7b6 bf3d 2160 a2bc
00000050: ee40 1dbf 5193 453e 39dc b93c 3924 8e3d
00000060: f687 da3d 293e c73d d275 2abd 3bdf ba3d
00000070: 0dbf 373e 84ba 453e 8400 163e a9dc 943e
