saved_model/NEW_ENV2_20250530_02-09-17.pth (torch, 623220 bytes, 111 tensors)

technical_norm.min_val f4 [4]
000000 fc ff 7f bf fc ff 7f bf 5b 3b c0 c1 0b 5b b6 c3
       -0.99999976 -0.99999976 -24.028982 -364.71127

technical_norm.max_val f4 [4]
000000 4a fc 47 bf fc ff 7f 3f 95 aa 35 42 e7 81 31 c1
       -0.7811934 0.99999976 45.416584 -11.094214

feature_extraction.0.weight f4 [128, 8]
000000 8a a0 85 3e ac b0 64 3e 65 68 3c be ad d8 c2 be
       0.26099044 0.2233302 -0.18399198 -0.38055936
000010 72 7d 07 be 8c de 61 3d ec f1 05 bd 61 95 dd 3d
       -0.13231447 0.055143878 -0.032701418 0.108195074
000020 9a 1e c9 3e da b2 5a bd 0b bd c5 bd 93 f5 ed bd
       0.3928116 -0.053393222 -0.09655198 -0.11619105
000030 69 fe 42 be 6b 20 af 3e fb c3 2a 3e e8 40 28 be
       -0.19042362 0.3420442 0.16676323 -0.1643101
000040 51 7f bb be 6d 6e bf 3d e5 f7 16 be bc df 17 be
       -0.36620572 0.09347234 -0.14743002 -0.14831442
000050 86 aa 39 3e 29 b5 10 3e b9 3b 84 bc 2f 0b 4d 3e
       0.18131456 0.14131607 -0.01614176 0.20023797
000060 f2 2e 1e bf b1 40 1e be 06 ff ea 3d cc 6d 85 bd
       -0.6179038 -0.15454365 0.11474423 -0.06515083
000070 e4 37 04 be 96 d5 f9 bd 1d 15 87 3d dd c4 04 3e
       -0.12911946 -0.121989414 0.06595824 0.12965722
000080 6a 79 3b be ef e5 8e 3e da f9 5f 3e 98 cc 72 be
       -0.18308035 0.279098 0.21872655 -0.23710859
000090 aa 13 52 be a0 19 9a 3e 43 94 76 bd 43 87 90 3d
       -0.20515314 0.30097675 -0.060199987 0.07057049
0000a0 7d 37 a9 bc be 38 aa 3e 70 46 a4 bd c6 20 f7 bd
       -0.020656342 0.33246416 -0.080212474 -0.12066798
0000b0 68 e5 be 3e 02 2b 92 bd 97 d0 73 bb fc 76 85 3d
       0.37284398 -0.07137109 -0.0037203187 0.06516835
0000c0 57 93 09 bf 23 ba 8b be ea 17 11 3e 8b 46 e3 3e
       -0.5374045 -0.2729045 0.14169279 0.44389758
0000d0 b5 f2 01 3f a4 89 58 be 9a d2 d5 bd db 79 ba 3e
       0.50760967 -0.21146256 -0.1044056 0.36421093
0000e0 8d 18 1d be 44 7d 67 3e 3a e3 1b 3e c4 b7 cd 3e
       -0.15341397 0.22606379 0.15223399 0.40179265
0000f0 c3 ff 18 bd 72 11 8e be c4 db 10 3e be 33 d1 3e
       -0.03735329 -0.27747685 0.14146334 0.4085979
000100 ee 72 74 bd a6 de bb bd 81 45 a3 bc c7 23 85 3e
       -0.059679918 -0.09173326 -0.019930603 0.26003858
000110 44 32 af 3e 1e dd 1a be 6b 34 0b bf e2 3a da 3d
       0.34218037 -0.15123412 -0.5437686 0.10655762
000120 29 50 4a 3e 30 e8 e2 3c e4 63 ef be 6d d4 93 be
       0.19757141 0.027698606 -0.46755898 -0.28873006
000130 d6 63 8f 3c dd 31 f5 3d 69 c8 0e bf 7f f2 20 3e
       0.01750366 0.11972401 -0.5577455 0.15717505
000140 c5 4f 1a be 4f fb 4c 3e 4b b2 cb bd 9e 01 9a be
       -0.15069492 0.20017742 -0.09946116 -0.3007936
000150 48 19 be bd c6 de 20 be f8 69 4c 3e 93 c6 4f 3d
       -0.09282166 -0.15709981 0.19962299 0.050726485
000160 4c 10 bd 3d 7a 3f 8f 3b 9e d5 27 3e 71 76 0e bf
       0.09231624 0.0043715807 0.16390082 -0.5564948
000170 a8 a9 e5 bd f6 d7 25 3e 06 23 cb be 62 f9 00 3e
       -0.11214 0.16195664 -0.39675158 0.12595132
000180 90 d7 90 3e f9 38 05 3e 63 58 84 3d 42 b9 c4 3e
       0.2828946 0.13010015 0.06462171 0.3842259
000190 d0 56 ea bd 0a 08 8f bd 19 ea 40 3e b1 56 c1 be
       -0.114423394 -0.06983955 0.18839301 -0.37761453
0001a0 a1 22 af be 67 8a a7 bc b9 df f8 bd ca 86 f8 bd
       -0.34206107 -0.020451738 -0.12152047 -0.12135084
0001b0 75 c9 52 3e 04 04 89 bd af 9f f2 3c 86 40 e1 be
       0.20584662 -0.06690219 0.029617159 -0.4399454
0001c0 06 3e 06 3d c0 3a 1d be fe cf 9e bc 48 ee c0 3e
       0.032773994 -0.15354443 -0.019386288 0.37681794
0001d0 2a 49 05 be 5c 73 c1 bc 47 c9 82 be 65 b2 f7 be
       -0.13016191 -0.023614578 -0.25544187 -0.48378292
0001e0 81 2b 8c 3e 1b 97 f7 bd 79 08 52 3e 09 3a 5b 3e
       0.2737694 -0.12089368 0.20511045 0.21408857
0001f0 06 9d 3d 3d 35 a3 42 3e 26 ee a5 be 38 e3 be 3e
       0.046292327 0.19007571 -0.32408255 0.3728273
000200 56 00 45 3d 43 ca 37 3e f3 9f 90 3c 85 21 ae 3c
       0.048096023 0.1794825 0.017654395 0.021256218
000210 7e e9 87 be ac b3 52 3e 40 74 6a 3e 66 d8 42 3e
       -0.26545328 0.20576352 0.22895908 0.19027862
000220 c2 e9 01 bf 86 17 bf bd 00 a5 86 be 28 8b f4 3d
       -0.5074731 -0.093306586 -0.2629776 0.119406044
000230 ee 9c 66 bd 44 77 1c be 6d 5c a2 3e 6a cf 18 3e
       -0.056302004 -0.15279871 0.3171114 0.14922872
000240 ea 40 4f be 83 46 84 3e 0f d7 56 3e 14 0d e0 3e
       -0.20239606 0.25835046 0.20980476 0.43759978
000250 13 c8 7a 3e 81 c2 2e be 3b 49 de bd b3 bb 9d be
       0.24490385 -0.17066385 -0.10853811 -0.30807266
000260 ae bc 23 be ed ce 8b 3d a9 e7 e1 3c 33 46 89 3e
       -0.15989944 0.06826577 0.027576284 0.2681137
000270 fb 96 93 be 02 8e 7f be 3a 9d dd 3e a7 f0 1f bf
       -0.28826126 -0.24956515 0.43284017 -0.6247658
000280 c1 64 8f 3e 76 43 3c 3d 6c ac 99 3c 5e a0 02 3d
       0.28006557 0.045962773 0.018758975 0.03189122
000290 12 c5 06 3e a5 cf bb 3b a3 ef cd 3d 3d fd ee be
       0.13161114 0.0057315403 0.10055473 -0.4667758
0002a0 57 f7 1a 3f 0e 9d 7b 3e 1c 3b 0a bc 7b 28 28 3e
       0.6053366 0.2457163 -0.008436944 0.16421692
0002b0 ea 7e f3 be c2 46 dd 3e 91 04 c9 3e 18 87 52 bd
       -0.47557765 0.43218046 0.39261296 -0.051398367
0002c0 a1 f7 3f 3e 35 73 31 3d 14 08 36 bb 46 6a 0e be
       0.18746807 0.04332276 -0.002777581 -0.13907728
0002d0 0d 8b 24 3c 11 81 4e 3e 4f 88 1b bd 8b 73 c3 bd
       0.010042918 0.20166422 -0.03797179 -0.095435224
0002e0 51 5a 88 be 6a 0a 4e be 19 d2 7c be 42 57 93 be
       -0.26631406 -0.2012116 -0.24689521 -0.2877751
0002f0 bb 6d b0 be 60 e2 91 3e f9 6e df 3d 07 ab a2 3d
       -0.34458718 0.28493023 0.10909838 0.07942777
000300 db 48 cd 3d ad f2 e2 3e b5 87 df 3d ba af 28 be
       0.10023662 0.44325772 0.10914556 -0.16473284
000310 ef e8 6f be ca 48 17 3e 91 26 00 be a1 5e 79 3e
       -0.23428701 0.1477386 -0.12514712 0.24352504
000320 0e 17 7a be 50 7c df 3d cd b0 d4 be 62 d0 a2 3e
       -0.24422857 0.109123826 -0.41541138 0.31799608
000330 b9 54 94 be 47 18 8a be 85 79 77 3d f6 ff 38 be
       -0.28970888 -0.26971647 0.060418624 -0.18066391
000340 34 b4 2f 3f 83 00 c9 3e a6 c7 87 bd 76 0d 58 3e
       0.68634343 0.39258203 -0.06629877 0.21098885
000350 ac ad 83 be 45 a4 20 3e f0 05 0f bd 88 5c b6 3d
       -0.2571844 0.15687664 -0.03491777 0.08904368
000360 11 59 31 3e 26 20 13 3e ed f4 bf bc 80 20 aa be
       0.17319132 0.14367732 -0.02343222 -0.3322792
000370 c9 ff 09 be 78 20 59 3e 71 be 3a bc 80 a0 85 3c
       -0.1347648 0.21203792 -0.011397944 0.016311884
000380 6a 33 db be 66 1c 15 bd 86 e8 11 be 79 e8 35 be
       -0.42812663 -0.036404036 -0.14248857 -0.17764463
000390 57 89 96 3a db 8f 9d 3e e9 ca ad 3c 1d 9e 25 bf
       0.0011485022 0.30773816 0.02121492 -0.64694387
0003a0 ee 7b 92 be cb e7 19 bf 17 3e 98 bd 7d 4d 1b be
       -0.28610176 -0.60119313 -0.07433718 -0.15166278
0003b0 1b 5e 5a 3e 02 72 16 3e 69 d9 80 bd 37 b4 a4 3e
       0.21324961 0.14691928 -0.06291468 0.32168743
0003c0 7d 2e 23 3f ea be a8 3e 42 27 ed bc 54 42 da 3d
       0.6374281 0.32958156 -0.028949384 0.10657182
0003d0 f7 c3 07 be 01 7b 45 bd 67 8c 0b 3e a1 ef 91 be
       -0.13258348 -0.04821301 0.13627778 -0.28503135
0003e0 0d 85 18 3e 23 4a 1c 3f 1e 89 a8 3e 42 5d d7 bc
       0.14894505 0.61050624 0.32917112 -0.026289586
0003f0 10 f8 90 be 2f 0c 33 3e 19 35 49 3e e7 e1 5f be
       -0.28314257 0.17485116 0.19649161 -0.21863519

feature_extraction.0.bias f4 [128]
000000 49 5c d0 be 7d 80 bb bd 36 0b 07 be c0 06 41 be
       -0.40695408 -0.091553666 -0.1318787 -0.18850231
000010 16 a9 b2 bd cb d1 5b be 1d b5 2b be 09 e0 8a 3d
       -0.08723657 -0.21466748 -0.16768308 0.067810126
000020 22 e2 9c 3d 3c 1c 1f 3e bc 39 98 3e fa 71 99 be
       0.07660319 0.15538114 0.29731548 -0.2996977
000030 1a f9 d4 bd ac a4 a8 3e f7 d9 af be 77 74 9b be
       -0.10399075 0.32938135 -0.3434598 -0.30362293
000040 44 32 31 3d 07 8c 94 bd 3f a0 25 be 43 b3 9e 3e
       0.043260828 -0.072532706 -0.1617441 0.3099614
000050 0f 12 70 3e 7a 48 08 be 37 49 10 3e a4 ae 8a 3e
       0.23444389 -0.13308898 0.14090429 0.27086365
000060 12 02 d5 3d 96 68 e5 3d 82 ba 39 bd b9 7c cf 3d
       0.104007855 0.11201589 -0.045343883 0.10131211
000070 8a cd 02 be 40 79 09 3d 83 f4 a4 3d 60 8b 53 bd
       -0.1277372 0.0335629 0.080544494 -0.05164659
000080 23 7d 71 be de 05 88 be f4 c5 be bd 27 61 9b 3e
       -0.23582892 -0.26566976 -0.093151 0.3034756
000090 f2 e0 80 bc fc a0 d1 3e 7e 60 4e bd da e0 9a be
       -0.015732262 0.40943134 -0.05038499 -0.30249673
0000a0 95 6d 57 be db ce d9 bb c5 5a a7 be 67 fe 51 3e
       -0.21037896 -0.0066469735 -0.3268644 0.20507203
0000b0 31 a0 64 3e b9 92 e5 3d 5e e2 02 be 12 3c 98 3e
       0.22326733 0.11209626 -0.12781665 0.2973333
0000c0 4c 0d 0b be dd af 0d 3e 51 6b be 3c 91 2b 24 be
       -0.13579291 0.13836618 0.023244532 -0.16032244
0000d0 37 34 a3 be e7 5d cc bd a3 16 44 be d0 f7 72 bd
       -0.31875774 -0.09978848 -0.1914926 -0.059318364
0000e0 24 80 a4 3d 9e e8 73 bd 43 9e bf 3e 01 7c c9 bd
       0.080322534 -0.059548013 0.37425432 -0.09838105
0000f0 58 8a 94 be 3c ce 30 be b5 4d 8b be 42 7a 38 3e
       -0.29011798 -0.17266172 -0.27207723 0.18015388
000100 1c 80 61 3e 26 61 22 ba 11 4f c3 3d 2f 72 e1 3c
       0.22021526 -0.0006194286 0.09536565 0.027520267
000110 c5 ad ad be 59 34 10 3e da 6f 45 3e ee fa 29 3e
       -0.33921638 0.14082469 0.19280949 0.16599628
000120 11 af 51 3e c2 81 fa be 39 3f 5f 3c 0c dd a0 3e
       0.20476939 -0.48927122 0.013625913 0.31418645
000130 47 5d 1a 3e e7 e1 a9 be 5a 0a 4a be 46 ef 3d be
       0.15074645 -0.33180162 -0.19730511 -0.18548307
000140 aa 6a 6c be 25 e7 25 bd 56 fe 73 be 48 20 9c 3d
       -0.23087564 -0.04050364 -0.2382749 0.07623345
000150 19 be 67 3e 91 42 1a 3b 69 23 78 bd 08 9d 2b bd
       0.2263111 0.0023538212 -0.060580645 -0.041897804
000160 c4 8b 31 3c 4f 72 9c be ce 3c 10 bd 14 85 81 be
       0.010836545 -0.3055596 -0.035214238 -0.25296843
000170 e5 de 19 bd 92 b1 eb 3d c6 9e 3e 3e 83 d7 5b bd
       -0.037566084 0.11508478 0.18615255 -0.053672325
000180 4e da 2e be a8 d5 d8 bd a3 d7 70 be 65 9d 23 be
       -0.17075464 -0.10587627 -0.23519759 -0.1597801
000190 0c 6d 08 bd 18 25 8c be d4 22 af be fe 3f 63 bd
       -0.03330712 -0.2737205 -0.3420626 -0.05548095
0001a0 df 46 5d be 42 cc c5 3d 77 af 79 be 2e ff e5 bc
       -0.21609066 0.096581 -0.24383341 -0.02807578
0001b0 22 09 4c bd 82 d8 61 3e ab 9a 04 be 32 d4 df 3e
       -0.049813397 0.22055247 -0.12949626 0.4371658
0001c0 51 d0 f3 bd b6 be 9a be 8d a4 50 bd 7d f1 95 3e
       -0.119049676 -0.30223626 -0.050938178 0.29285803
0001d0 11 d3 17 be 04 2c a3 be 22 5b dc 3d b9 8d 00 3e
       -0.14826609 -0.3186952 0.1075957 0.12554063
0001e0 a2 dc 86 3e 74 21 9a 3d 57 e8 67 be fe e3 d4 bc
       0.26340204 0.07525912 -0.22647224 -0.025987621
0001f0 2f 28 0a 3e f1 d0 81 3e fe 41 ce be 07 2f b4 be
       0.13491891 0.25354722 -0.40284723 -0.3519213

feature_extraction.2.weight f4 [64, 128]
000000 02 71 8b 3d 95 ec ef 3c 8d cd 08 be 4e 07 d4 bd
       0.06808664 0.029287616 -0.13359661 -0.10352956
000010 1c d3 35 3e e7 ca 01 3e 19 6d 2b be 31 0f 1b 3e
       0.17756313 0.12675057 -0.16740836 0.15142514
000020 e4 87 d1 bc 30 76 21 3d 0c ad 0a 3e 3f f0 e4 bb
       -0.025577493 0.039419353 0.13542575 -0.0069866474
000030 4f 43 1d 3e 7a a9 5e be b3 e8 f2 bd f7 a1 25 3d
       0.15357707 -0.21744338 -0.1186079 0.040437665
000040 1d 85 73 3d 8b 4e 62 be a4 3e 81 3c 8c c9 2b 3e
       0.05945312 -0.22100274 0.01577694 0.16776103
000050 f6 cf bd be 34 a4 0f bb 5b f9 82 bd 00 9d 43 3e
       -0.37072724 -0.002191794 -0.06395217 0.1910286
000060 6d ce 8c 3d 2e 6c 79 be 65 fa 77 bc 06 82 61 3e
       0.0687531 -0.24357674 -0.015135382 0.22022256
000070 35 ac 47 be ad 99 06 3e 31 48 84 3d 1e df d8 3d
       -0.19499286 0.1314456 0.06459082 0.10589431
000080 4a bc f5 bd e6 b0 21 be d1 11 70 bd 12 d2 bd 3e
       -0.11998804 -0.15790138 -0.05861074 0.37074333
000090 c1 cf 8f 3e 96 e1 82 be 09 5a 72 3e 2e 20 d7 bc
       0.2808819 -0.25562733 0.23667158 -0.026260462
0000a0 2b 84 98 3c 78 2d 7f be 97 f8 32 3e e1 20 c4 bd
       0.01861771 -0.24919689 0.17477642 -0.09576584
0000b0 05 80 a9 bd b6 79 d3 bc 72 75 42 3e 55 90 24 3d
       -0.08276371 -0.025814872 0.18990114 0.04017671
0000c0 e0 7c 0f 3e 9b 71 60 3c 49 26 10 3d d2 4f 12 3d
       0.1401248 0.013698961 0.03519276 0.035720654
0000d0 01 ff 8c 3e d7 54 02 3e 0b c9 92 be 09 b2 e5 bd
       0.27538303 0.12727676 -0.2866901 -0.11215598
0000e0 6f 3d 9a 3e 63 47 80 3e 44 df c7 3d 13 10 e7 bd
       0.30124995 0.25054464 0.097593814 -0.11282363
0000f0 52 a2 54 3e 8c 53 d3 bc 13 7e e0 3d c0 86 76 3d
       0.20765045 -0.025796674 0.10961547 0.0601871
000100 cd f5 4a 3d bf ff f7 bc 8b d4 10 3d 37 4a fa 3d
       0.04955082 -0.030273316 0.035358947 0.122211866
000110 ab 2c 1f be f0 68 02 3d a1 21 cc 3d b0 9d 0f 3e
       -0.15544383 0.031838357 0.09967352 0.14024997
000120 ed 34 4e 3e 8b fe aa 3d d4 9d 74 be 55 46 f8 bd
       0.20137377 0.083493315 -0.23888332 -0.1212279
000130 86 c0 67 3d ac c7 56 be e2 e0 b4 3e ae 64 e7 3d
       0.05658009 -0.20974606 0.35327822 0.112985
000140 3e 85 00 be ff 11 0d be 7c 30 c4 3d 32 ab 76 3e
       -0.12550828 -0.13776396 0.0957956 0.24088743
000150 14 c0 2e 3e cd 9a 0d be 82 95 ad 3d ce 10 ab bc
       0.1706546 -0.13828583 0.08475782 -0.020882037
000160 78 6d 26 3b ca 36 32 3e 9f 54 8f 3e eb af a6 3d
       0.0025394838 0.17403713 0.27994248 0.081390224
000170 fe 98 74 3e d9 12 1f 3d 19 e9 68 3d 5c 74 72 bc
       0.23886487 0.038836334 0.056862924 -0.01479825
000180 a4 2d 90 3c 89 04 b3 bc 7c df 04 be b0 2f 81 3d
       0.017599888 -0.021852748 -0.12975878 0.06307924
000190 ec 3b 0a be f0 73 16 bd f2 d1 0f be 9a 0c 35 be
       -0.13499421 -0.03673166 -0.14044932 -0.17680588
0001a0 6a ec e2 3d 1a 43 43 be e5 aa 5b 3d 46 c6 4a 3c
       0.11080249 -0.19068566 0.053629775 0.012376374
0001b0 38 98 84 3e 5d 12 ef 3d 0d fa c8 bd 1a b9 8f bd
       0.25897384 0.116734244 -0.098133184 -0.07017727
0001c0 27 8d 8b 3e 32 2e 90 3d 14 28 4f 3e ff 9b 67 3e
       0.27256128 0.07040061 0.20230132 0.22618102
0001d0 5c 3c 4d 3e 35 46 a3 3e e8 5e 31 3e 9f e3 49 be
       0.20042557 0.318895 0.1732136 -0.19715737
0001e0 13 50 28 be 34 da c2 bd 5b c7 ad be 37 3f d7 3d
       -0.16436796 -0.09514275 -0.3394116 0.10510104
0001f0 93 fb 88 3d 66 07 1b 3d 57 d9 8d 3e 59 93 7c 3d
       0.06688609 0.037848853 0.2770488 0.06166396
000200 40 ef 83 be 08 cb a6 be aa 6f 09 bc e6 47 5b 3e
       -0.2576847 -0.32576776 -0.008388439 0.21414146
000210 64 4e c8 be 71 87 9f 3b 08 c2 2d be c7 9c ff be
       -0.39122307 0.004868441 -0.16968548 -0.499243
000220 86 aa d8 be c4 36 e8 be 59 fd 15 bf 97 88 ba 3b
       -0.423176 -0.45354283 -0.585897 0.0056925523
000230 71 de e2 be 7c 63 9c bc f5 f8 7c bd a2 cf c6 be
       -0.44310334 -0.019090407 -0.06176086 -0.38830286
000240 bc 4e 05 bf 40 fa cf bd 9c 44 85 3e 04 19 fa be
       -0.52073264 -0.10155153 0.26028907 -0.4884721
000250 db b0 e0 3e e2 4f d4 be c5 8e a4 be 1a 45 f6 be
       0.4388493 -0.41467196 -0.32140175 -0.48099595
000260 02 a2 31 be 44 4a bb be a5 9d 34 bf 70 ea 11 bf
       -0.17346957 -0.36580098 -0.70553046 -0.5699835
000270 74 3c 43 3e 56 72 a8 be 2a 60 0b bf 99 2f 5a bd
       0.1906603 -0.3289973 -0.5444361 -0.05326805
000280 6e b7 82 3c 78 32 6e be 90 b8 fe be 3b d3 c7 bc
       0.015956607 -0.2326144 -0.49750185 -0.024392715
000290 9a 3b 5b be 40 4f a0 bd f1 f9 1a be 54 24 44 be
       -0.21409455 -0.07827616 -0.15134408 -0.19154483
0002a0 55 e2 b4 be fd f4 82 3e af f9 5c be c0 b6 ea be
       -0.35328928 0.25577536 -0.21579622 -0.45842552
0002b0 8e 2e 94 be ca a1 69 be 39 38 95 be b6 52 3c be
       -0.28941768 -0.22815624 -0.29144457 -0.18390927
0002c0 ea 0f 98 be 9a 1a b3 bd 2f f2 e9 be 4e f7 e2 3e
       -0.2969964 -0.08745308 -0.45692584 0.44329304
0002d0 0e f0 c6 be 92 1a 88 be a1 f0 96 3d 98 20 8e be
       -0.38855022 -0.26582772 0.07370115 -0.27759242
0002e0 dd c6 08 bf e0 2b 64 be 3d 3d 61 be 2c 53 07 3f
       -0.5342844 -0.22282362 -0.21996017 0.52861285
0002f0 52 0f df be 02 9b 13 3e 5c 04 db be 1c 08 bd bc
       -0.43566376 0.144146 -0.42776763 -0.023075156
000300 18 f0 ab be 2f 16 ea be 8a f2 2e be 64 b5 97 3e
       -0.33581614 -0.4572005 -0.17084709 0.29630578
000310 0a 75 bd 3e ea 7d 78 be f6 6f 06 bf 97 b0 e5 be
       0.37003356 -0.24266782 -0.5251459 -0.4486129
000320 85 0a 12 bf 8c 9f 46 be cf 57 7a be 6b 48 dc be
       -0.570473 -0.193968 -0.24447559 -0.43024
000330 5b e2 6c be 22 5c ca 3e 03 16 8d be 55 81 7c be
       -0.23133223 0.39523417 -0.27555856 -0.24658711
000340 98 21 37 3e 6e ce 0d 3f b6 09 70 be 96 2f 92 be
       0.17883909 0.5539311 -0.23441204 -0.2855193
000350 f2 33 ce be 80 a9 a8 be f6 8e ec be 7f d7 16 be
       -0.40274006 -0.32941818 -0.4620282 -0.14730643
000360 8d 23 00 bf 02 ad 97 be 6d 19 f4 be 08 4f 00 bf
       -0.50054246 -0.29624182 -0.47675648 -0.5012059
000370 e0 5b ec be 7a 9d 81 be d2 44 56 be c9 2f 41 be
       -0.46163845 -0.25315458 -0.2092469 -0.18865885
000380 09 67 58 be 3d 0e f1 be 55 a6 1c 3f d7 8f e1 be
       -0.21133055 -0.47081175 0.611913 -0.44055054
000390 44 02 03 bf 0a 6b 37 bc b6 48 8f be fe dc 6b be
       -0.5117533 -0.011194954 -0.27985162 -0.2303352
0003a0 f2 3e cf be 57 e1 ec be c4 5a 8b be 0d 50 87 be
       -0.4047771 -0.4626567 -0.27217686 -0.2642826
0003b0 e0 4f 0c bf 09 1e 90 3d e8 23 0c bf 85 58 39 3e
       -0.5480938 0.07036979 -0.5474229 0.18100174
0003c0 4b 2d b0 be 1e 5e 35 bf f4 31 ab be 56 ef 1e bf
       -0.34409556 -0.70846736 -0.3343655 -0.6208395
0003d0 8b 58 09 bf 61 1b e2 be cf 6a c6 be 98 10 fd be
       -0.5365073 -0.44161513 -0.38753363 -0.49426723
0003e0 dc 91 6b bd d1 c8 68 be f3 f4 16 3e 6f eb 09 bf
       -0.05751215 -0.22732855 0.14741878 -0.5387487
0003f0 f7 94 78 be 6a f0 1c bf 99 83 0b bf 64 ea c9 3d
       -0.24275576 -0.6130434 -0.5449768 0.098591596

feature_extraction.2.bias f4 [64]
000000 b8 9d e7 bb 0b 32 0e bf 00 ed f5 3d c6 8f 90 bd
       -0.007068362 -0.5554511 0.12008095 -0.070586726
000010 c4 f1 43 bf 4a b6 94 3d 37 8a f7 3d ba f4 36 3e
       -0.7654078 0.072613314 0.12086909 0.17866793
000020 c0 25 fe 3c 39 b7 94 3d 83 01 d9 3a b1 d6 83 be
       0.03102386 0.072615094 0.0016556237 -0.25749734
000030 ce a3 7a bd fb b4 44 3e ce 84 51 bf 9a b1 a4 3d
       -0.061191373 0.19209664 -0.8184327 0.08041687
000040 b5 7c b9 3d 33 6f 35 3e 96 fa d4 3d 2c 54 00 3e
       0.09056989 0.177182 0.10399358 0.12532109
000050 79 c7 f0 3d 58 f1 5a 3d 04 c0 a4 3d a5 8b 47 bd
       0.117567964 0.05345282 0.080444366 -0.04871716
000060 72 f7 e7 3d 8e c6 8a 3c b8 1b 2c 3c 7d 45 87 bb
       0.11326493 0.016940381 0.010504656 -0.0041281567
000070 82 0c 21 3e 66 7d c4 3c a9 c8 29 3e 3b e4 00 3e
       0.15727428 0.023985576 0.16580452 0.12587063
000080 c8 79 41 3d ca 36 77 bd 99 cf 3f 3d 19 6d 44 3d
       0.04723528 -0.060354985 0.04682884 0.047955606
000090 e1 80 2f bd 7a 0c 3b 3e 4e 6d 42 3e df 82 06 3e
       -0.042847518 0.18266478 0.18987009 0.13135861
0000a0 8c 2f e5 bd 1b dd a2 be 7f 13 8a bc 09 6d 44 3d
       -0.111907095 -0.31809315 -0.016855 0.047955547
0000b0 04 4b 53 bd 8c 75 96 3d 18 61 69 bd e9 37 a7 3c
       -0.051585212 0.07346639 -0.05697736 0.020412402
0000c0 18 31 62 3c da a8 f2 3c 19 4a 11 3e 55 8e 35 3d
       0.01380565 0.02962153 0.14188422 0.04432519
0000d0 f9 b8 18 bd c8 aa 72 3b 3b c6 04 3e bb 8f db bd
       -0.03728578 0.0037028063 0.12966244 -0.10720774
0000e0 85 6a d7 3d 77 50 b1 3d 88 b6 a0 3d 3a f6 47 3b
       0.10518364 0.086579256 0.07847315 0.0030511753
0000f0 72 bb 16 3e c0 ec 2b 3e e9 8d 9f 3d 9c 0a 0a bd
       0.14719942 0.16789532 0.07790739 -0.033701524

actor_direction.0.weight f4 [128, 64]
000000 60 07 96 3e 88 50 d7 bd be cd 80 3d af 3d b1 bb
       0.29302502 -0.10513407 0.06289242 -0.0054089646
000010 23 7b 96 be 1f aa 2e bc d6 63 b7 3d 99 b9 b5 3d
       -0.2939082 -0.010660677 0.08954589 0.088732906
000020 33 93 c4 3e ea 03 80 3c cf 15 62 3e f0 e4 5c 3e
       0.38393554 0.015626866 0.22078632 0.21571708
000030 6d 15 20 3e 16 6a 23 bd cc 9e d1 bc f5 57 88 3d
       0.15633173 -0.039896093 -0.025588416 0.066574015
000040 f3 f6 d1 3e e5 7b cf 3e 00 b3 a1 3e c7 ec 17 3e
       0.4100872 0.40524212 0.3158188 0.14836417
000050 8b e1 2f bd e6 86 a4 3e f2 36 60 3e fc c8 98 bd
       -0.042939704 0.3213417 0.2189596 -0.0746021
000060 5e 55 e8 bc f5 b6 58 3e 7f b6 d1 3e 80 39 5e 3e
       -0.028361019 0.21163543 0.40959546 0.21701622
000070 55 9a 3f 3e bf 62 c6 3d 7a c1 28 3e 8f 0a 9e 3d
       0.18711217 0.09686803 0.16480055 0.07716858
000080 bd 98 92 3e 31 5f 9f 3e 62 cd 2a 3d 0e 3e 26 be
       0.28632155 0.31127313 0.041699775 -0.1623461
000090 a5 45 63 3e fd fb 36 3e 6e d8 24 3e 28 fd 87 3e
       0.22194536 0.17869563 0.16098186 0.2656033
0000a0 df dc 98 3d c3 2d a2 3e ca ea 1b 3e b1 b4 a0 3e
       0.07464003 0.31675538 0.15226284 0.31387857
0000b0 e9 45 fe 3c dc f9 80 3e de dd 5a 3e 5b fc 52 bd
       0.031039195 0.25190628 0.21373698 -0.051510196
0000c0 f6 6c bd bd 12 3b 81 3e bd 12 27 3d 0d ee bf 3e
       -0.09249298 0.2524038 0.040789355 0.37486306
0000d0 63 af 3a 3e 44 51 13 be 9c 1c 2d bd f0 8a ea 3a
       0.18230967 -0.14386469 -0.042263612 0.001789419
0000e0 fc dc db bc f3 0e 9b 3e 4b 26 9a bd dd 35 a4 bd
       -0.026838772 0.30284843 -0.07526835 -0.08018086
0000f0 13 f1 7f 3e 1e 2b 86 3d 60 bf 21 3e 43 63 85 3d
       0.24994306 0.06551193 0.1579566 0.06513073
000100 09 ca 38 3e 44 f3 27 bc b2 6d 1c 3d bf 26 13 3e
       0.1804582 -0.01025087 0.03819055 0.14370249
000110 b7 8f fd bd bc 9d 1f 3e c8 95 97 3d 48 d2 46 3d
       -0.12380927 0.15587515 0.074016154 0.048540384
000120 8c 14 15 3e 6f 13 51 3e 52 09 3c bd 88 b4 be 3d
       0.1455862 0.2041757 -0.045907326 0.09311777
000130 94 bf 66 3d aa 78 ee 3c 98 0b 0d 3e 79 a3 e1 3d
       0.056335047 0.029110271 0.13773954 0.11017508
000140 30 5b c7 bb 8d 40 d0 3d 92 77 9c 3d 8a 71 9e 3d
       -0.0060838684 0.10168562 0.07639994 0.077364996
000150 4e 05 99 3e 38 f0 c6 3d 28 46 0c 3d 51 14 d6 bb
       0.2988686 0.09713787 0.034246594 -0.0065331836
000160 c6 09 65 bc 3b fb 3c 3d 55 3c 8f 3d 43 9b 20 bc
       -0.013979381 0.04613803 0.06993929 -0.009802642
000170 fd e4 8c 3d 93 8c 6b 3c e0 76 23 3e 8a 55 a3 3d
       0.068796135 0.014376777 0.15963316 0.079753
000180 3a ed 4f bc 8d c3 a5 3c 2c 11 32 3e 18 70 c2 bd
       -0.012690837 0.020234847 0.17389363 -0.094940364
000190 30 b5 31 3b 75 c0 1e 3e ff f4 f6 3d 87 5f be 3d
       0.0027116053 0.15503104 0.12058448 0.09295564
0001a0 ea 79 a5 3d a2 44 02 3b fd c4 65 3e a8 15 63 3e
       0.08079894 0.0019877334 0.22438426 0.2217623
0001b0 8f d1 72 3d a0 d6 e1 3d 71 75 dc bc e0 a8 da 3d
       0.059281882 0.110272646 -0.02691147 0.106767416
0001c0 6b f6 4e 3e 3a 2e cf 3d c2 49 b8 3c d2 6f 69 bd
       0.20211188 0.10116239 0.022496108 -0.056991406
0001d0 96 4a 06 3e 5f f1 f3 3c 6e 23 4a 3e f6 dc b0 3e
       0.1311439 0.02977818 0.19740078 0.3454358
0001e0 35 0d 6f 3e ca 28 24 3e 99 82 3d 3e 45 86 8f 3d
       0.23344882 0.16031185 0.1850685 0.07008032
0001f0 e9 45 f4 3d c7 68 62 3c 43 36 f2 3d 40 66 70 3e
       0.11927397 0.013818926 0.11826756 0.23476505
000200 51 f6 8a bb b9 47 8e bd 9a db 8d 3e 14 03 52 be
       -0.004240789 -0.06947274 0.27706605 -0.20508987
000210 67 a9 93 be 4d d8 5e 3e 03 05 6b 3e 41 4f 84 3e
       -0.2884018 0.217622 0.2295113 0.25841716
000220 70 04 38 3e e1 24 48 3e 38 df 4b 3e 3f ce ab bd
       0.17970443 0.19545318 0.1990937 -0.08388948
000230 9d 3e 2f 3c a8 d8 1f 3e a3 a4 9b be 73 4e 28 3e
       0.0106960805 0.15609992 -0.30399045 0.16436176
000240 3a 32 93 3e ff fc c0 3e 73 f1 de 3e b3 60 92 bc
       0.28749257 0.3769302 0.43543586 -0.017868375
000250 b2 b3 08 3e 67 dc 4b 3e 5b 60 a1 3e fa 7d cc 3c
       0.13349798 0.19908296 0.31518826 0.024962414
000260 86 ad 7f 3c c4 96 4a 3e 2d fc c5 bc 40 fe f8 3d
       0.015605336 0.19784075 -0.024168098 0.12157869
000270 6a 30 73 3e 4f 85 cf 3e 7b e4 1f bd bf 1e bc 3e
       0.23748937 0.40531394 -0.039036255 0.36742207
000280 59 4a 45 3e 10 3b ce 3d 4b f0 57 3b 79 23 ac 3a
       0.19266643 0.10069859 0.0032949622 0.001313313
000290 15 f7 75 3d 8e 00 fe 3d 34 75 cc 3d b6 13 8a 3e
       0.06005009 0.124024495 0.09983292 0.26968163
0002a0 55 36 2f 3d fe 58 ba bd 86 fd 88 3e 56 fa 70 3e
       0.042776424 -0.09099005 0.26755923 0.23532996
0002b0 96 36 86 3e 19 39 93 bd d8 54 25 3e 6d 40 2f 3b
       0.2621352 -0.07188625 0.16145647 0.0026741282
0002c0 a1 85 5a 3d 4b 2c 00 bd 0d 4d 5a 3e c4 23 76 3d
       0.053350095 -0.03129224 0.21318455 0.060092703
0002d0 aa e8 ec bc 40 12 ae 3d 55 7e eb 3c 90 b5 31 3e
       -0.028919537 0.08499575 0.028746763 0.17354417
0002e0 01 30 8a 3d d1 6a a2 3e 3e 48 48 be f6 fa 44 bd
       0.06747437 0.3172212 -0.19558808 -0.048090898
0002f0 d5 27 de 3d 65 93 18 3e 80 30 da ba dc e7 02 3e
       0.10847441 0.14899977 -0.0016646534 0.1278376
000300 59 4f 24 3d 92 4f 80 bd 3a b1 69 3e 80 a5 55 3e
       0.040114734 -0.06265177 0.22821513 0.20863914
000310 57 63 1f bd 16 ac 66 bd b4 dd 00 3e 51 74 35 3e
       -0.038913097 -0.056316458 0.12584573 0.17720152
000320 95 f3 2a be f4 c8 51 3e 9e 6c 19 3d 7d 47 80 3d
       -0.16694482 0.20486814 0.0374571 0.06263635
000330 aa a2 5d 3e 46 44 0a 3e 3b 0d 1a bd e1 91 9e 3d
       0.21644083 0.13502607 -0.037610274 0.07742668
000340 37 41 c0 bd 70 b2 0a 3e b0 54 3f be ab 90 09 bd
       -0.09387439 0.13544631 -0.1868465 -0.03358523
000350 00 ef 0a 3e a1 94 51 3e ff fd 86 bd 26 7d 2f 3e
       0.13567734 0.20466854 -0.06591415 0.17137584
000360 a6 21 3c 3e a7 00 72 3e 91 af 23 3e 39 02 36 be
       0.18372211 0.23633061 0.15984942 -0.17774285
000370 73 61 01 3e 66 89 61 3e 13 e8 dd 3d e5 48 11 3e
       0.1263483 0.2202507 0.1083528 0.14187963
000380 04 26 a3 3d 91 31 00 3e e7 3d e1 3d a2 18 a7 3d
       0.07966235 0.12518908 0.10998135 0.08158995
000390 3a 58 ab 3d 74 b0 81 3d 68 22 1e 3e fe 58 6e 3e
       0.08366437 0.06332484 0.15442812 0.23276135
0003a0 6c d4 ad 3d 12 91 85 3d 1e f6 6d 3e 8a 49 bf 3c
       0.08487782 0.065218106 0.23238418 0.023350496
0003b0 7f 46 52 bd 56 64 8d bc c8 b1 0e 3d 07 65 87 3d
       -0.05133676 -0.017259758 0.034837514 0.06611066
0003c0 f5 f9 08 3e a4 92 31 3e 9c 35 f8 3c 76 25 ed 3d
       0.13376601 0.17341095 0.030299 0.11579411
0003d0 c8 5a 83 3e 87 c0 99 bc 6b a7 ad 3d 30 45 3f 3e
       0.25655198 -0.018768562 0.08479198 0.18678737
0003e0 ef cc c8 3d c9 96 e9 3d 69 ac 9c 3d b1 9d 9e 3e
       0.09804713 0.11405713 0.07650072 0.30979684
0003f0 da cf 01 3d eb de e1 bc 8e 28 32 3e e7 dd 6e 3e
       0.031692363 -0.027572116 0.17398283 0.23326837

actor_direction.0.bias f4 [128]
000000 16 be 95 3d 68 70 66 3d d8 da 38 3e 12 cb 28 3e
       0.07311647 0.056259543 0.18052232 0.16483715
000010 7c fa 9e 3d 48 33 8a 3d ba 90 35 3e 9f 71 00 3e
       0.0776262 0.06748062 0.1773099 0.12543343
000020 8e f6 42 3d 51 96 ed 3d b2 83 2f 3e 6a c7 96 3e
       0.047598414 0.11600936 0.17140082 0.29449016
000030 ad 5a 80 3e 3f 0c b8 bc 9d eb 39 3e 92 69 79 3e
       0.2506918 -0.022466777 0.18156286 0.24356678
000040 85 02 d7 3d 0f 3f c3 3d 49 24 18 3e 05 59 de 3d
       0.104985274 0.09533512 0.14857592 0.10856823
000050 7c c9 4a 3e d4 0d 2b 3e 6b 2c 30 3e 2d 37 92 3e
       0.19803423 0.16704494 0.17204444 0.2855772
000060 b0 35 91 3e 4b 9b 51 3e 60 de ef 3d 3d 36 21 3d
       0.28361273 0.20469396 0.117123365 0.039358366
000070 12 b6 16 3d 4f b6 d5 3d 12 b9 09 3e 9c 2f 5b 3e
       0.03679473 0.10435163 0.13449505 0.2140488
000080 b2 8d bf 3d 22 0c 14 3e 5e 4e 40 3e 6f c9 56 3e
       0.09353198 0.14457753 0.18779895 0.20975278
000090 db d1 d8 3d e4 76 e0 3d f0 ba 92 3e 3d d9 6e 3e
       0.10586902 0.109601766 0.28658247 0.23325057
0000a0 c3 e0 ab 3d 83 5a c9 3d 44 ad dc 3d c2 6e 0e 3e
       0.08392479 0.09831717 0.10775235 0.13909438
0000b0 8a 62 7e 3d 7b f8 45 3e 4c d4 8f 3e 8f b0 6d 3e
       0.062105693 0.19333069 0.28091657 0.23211883
0000c0 5f 97 55 3d 69 df 73 3e 12 6b 35 3e 16 84 31 3e
       0.05214631 0.23815693 0.17716625 0.17335543
0000d0 3a 71 44 3e 24 ab 84 3e 6c 4b 8b 3d 6c fd 16 3e
       0.19183818 0.2591182 0.06801495 0.1474511
0000e0 cf 51 d1 3d 9b 30 0c 3e a3 90 02 3e 72 c2 c5 3a
       0.10220682 0.13690417 0.12750487 0.0015087856
0000f0 6b 09 09 3e c0 c7 c8 3d 7e 94 6a 3e 06 b3 d2 3d
       0.13382499 0.09803724 0.22908208 0.10288052
000100 30 a4 88 3e 86 a9 85 3e 8b c7 2b 3e 10 46 d0 3d
       0.26687765 0.261059 0.16775338 0.10169613
000110 58 27 63 3e 13 4d 31 3e b4 ba c0 bc a2 86 58 3e
       0.22182977 0.17314558 -0.023526527 0.21145108
000120 0e 4f 0e 3e 2d a4 09 3e 3e da 81 3e ed d2 5a ba
       0.13897344 0.13441534 0.25361818 -0.00083474704
000130 1f 3f 4e 3e 67 39 66 3e ed 94 a0 3d 63 67 56 3e
       0.20141266 0.22482835 0.07840905 0.20937876
000140 10 40 bb 3c ad 6e 8a 3d ea d6 3d 3e a2 44 47 3e
       0.022857696 0.06759391 0.18539014 0.19459775
000150 81 11 8e 3e b0 7a 3f 3e a0 80 74 3e 0f 9b 19 3d
       0.2774773 0.18699145 0.23877192 0.03750139
000160 79 27 57 3e 23 25 87 3d 3e e3 89 3e be 5f 56 3e
       0.21011151 0.0659888 0.26931185 0.2093496
000170 2d ba 77 3d b8 58 5a 3e fe 74 e2 3d ba a8 a4 3e
       0.060480285 0.21322906 0.11057471 0.32159978
000180 fb 16 87 3e 8d a3 2e 3e ce f5 4f 3e 8b 15 c1 3e
       0.2638472 0.17054577 0.20308611 0.37711748
000190 f4 86 6b 3e 8c de 0a 3d cb ec 8a 3e 07 63 a4 3a
       0.230007 0.033903643 0.27133784 0.001254172
0001a0 a4 d7 07 3e de 05 70 3e 5f 4f 9b 3e d6 de 0f 3e
       0.13265854 0.23439738 0.30333993 0.14049849
0001b0 86 88 10 3e be cc 5e 3e 6d a4 ec 3d 10 b7 2e 3e
       0.1411458 0.2175779 0.11554799 0.1706202
0001c0 99 20 31 3d 4d 6f 9c 3d 71 62 f8 3d 6e 04 17 3e
       0.04324398 0.076384164 0.12128151 0.14747784
0001d0 77 f8 ac 3c 24 6e 59 3e 19 47 a3 3d e8 80 2c 3e
       0.021114571 0.21233422 0.07972545 0.16846049
0001e0 6a 55 77 3e 8d 1d 1a 3d 90 22 7c 3e e1 3b 16 3e
       0.24153677 0.037625838 0.2462256 0.1467128
0001f0 d5 29 25 3e f5 9e 31 3e 04 7e 3b 3e 19 5a 44 3e
       0.16129239 0.17345794 0.1830979 0.19174995

actor_direction.1.weight f4 [128]
000000 fa 6b a8 3f d5 4e 80 3f 79 e1 9c 3f e3 00 7a 3f
       1.3157952 1.0024058 1.2256309 0.97657603
000010 79 a1 96 3f 07 7d a1 3f 61 a5 90 3f c7 d8 89 3f
       1.1768028 1.261628 1.130047 1.076928
000020 7e d0 91 3f 62 28 a3 3f e3 30 8f 3f 22 28 86 3f
       1.1391752 1.2746699 1.1186794 1.0480998
000030 49 fe 9d 3f 2f 33 9a 3f 82 37 8d 3f 32 92 9d 3f
       1.2343227 1.204687 1.1032565 1.231024
000040 fc c1 a2 3f f1 db 8e 3f 0b a8 91 3f 91 20 8f 3f
       1.2715449 1.1160871 1.1379408 1.1181813
000050 09 4b 90 3f 7d 5e 93 3f 64 dc 8e 3f 3a 51 ae 3f
       1.1272899 1.151321 1.1161008 1.3618538
000060 2e e1 8d 3f 04 6f 9e 3f e2 c4 a7 3f 8a cb 99 3f
       1.1084344 1.2377629 1.3106959 1.201524
000070 f9 5b 9a 3f d6 4d 98 3f 6d b1 90 3f 9a 19 99 3f
       1.2059318 1.1898754 1.1304146 1.1960938
000080 49 05 98 3f 7a 94 9b 3f a8 73 b2 3f c0 01 8f 3f
       1.1876613 1.2154686 1.3941545 1.1172409
000090 1f fd 93 3f 0f 58 92 3f d0 6a 84 3f c4 45 8a 3f
       1.1561621 1.1433123 1.0345097 1.0802541
0000a0 a1 08 a7 3f 3d d9 88 3f 9a d9 8f 3f 8a 5f 9a 3f
       1.3049508 1.0691296 1.1238282 1.2060406
0000b0 2e a0 87 3f 30 31 8e 3f 95 1a a9 3f 27 e2 97 3f
       1.0595758 1.1108761 1.3211237 1.1865891
0000c0 34 0e 8c 3f 8d 1a 9d 3f 7f 3c a1 3f 73 b3 9d 3f
       1.0941834 1.2273728 1.2596587 1.2320389
0000d0 ca b6 9a 3f d4 1a a1 3f ff 5e 89 3f 5f c4 9a 3f
       1.2087033 1.2586312 1.0732116 1.2091178
0000e0 99 c2 72 3f 87 55 99 3f d4 d8 a3 3f 79 56 90 3f
       0.9482818 1.1979226 1.2800546 1.1276389
0000f0 e0 69 82 3f 8a 56 95 3f a9 70 94 3f 64 be 95 3f
       1.018856 1.1667035 1.1596881 1.1698728
000100 f9 4f 8e 3f 91 30 9f 3f 46 81 8f 3f c0 c3 89 3f
       1.1118156 1.2436696 1.1211326 1.0762863
000110 b8 75 c3 3f 13 07 85 3f e6 01 99 3f fa 94 91 3f
       1.52703 1.0392784 1.1953704 1.1373589
000120 ad ae 92 3f d0 f0 a0 3f 8d b5 8d 3f 28 c3 9f 3f
       1.1459557 1.257349 1.107103 1.2481432
000130 0f 2c 9e 3f 84 f5 8f 3f 26 f9 be 3f ee af 99 3f
       1.2357196 1.12468 1.4919784 1.2006814
000140 36 84 9d 3f 68 08 7e 3f f6 cb 82 3f cf db 96 3f
       1.2305973 0.99231577 1.0218494 1.178583
000150 ea 1d 98 3f a3 8b 85 3f ac 16 95 3f f5 23 ba 3f
       1.1884129 1.0433239 1.1647544 1.4542223
000160 ed 83 98 3f 2e a6 a1 3f 86 8b 98 3f 03 69 92 3f
       1.191526 1.2628839 1.1917579 1.1438297
000170 3a 11 9b 3f a4 69 69 3f 55 a0 a0 3f b8 15 94 3f
       1.2114632 0.9117682 1.254893 1.1569128
000180 e0 19 88 3f 5c b8 a2 3f 3e e1 9d 3f 57 75 9e 3f
       1.0632896 1.2712512 1.2334363 1.2379559
000190 59 d7 90 3f 1e 8e a9 3f e8 54 a9 3f 63 b2 8e 3f
       1.1315719 1.3246496 1.3229036 1.1148189
0001a0 3f df 84 3f df dc 89 3f 98 39 a1 3f f2 1a 8e 3f
       1.0380629 1.077053 1.2595701 1.1101973
0001b0 15 c8 80 3f 05 87 b9 3f 92 07 a1 3f e9 23 8a 3f
       1.006106 1.449433 1.2580435 1.0792209
0001c0 26 90 67 3f fa 3a 93 3f 49 69 9d 3f be a2 88 3f
       0.9045433 1.1502373 1.2297755 1.0674665
0001d0 88 b7 84 3f f2 fd 89 3f 96 69 91 3f 33 48 a2 3f
       1.0368509 1.0780623 1.1360347 1.2678283
0001e0 63 0f a4 3f 17 75 b7 3f 3b 70 9f 3f 75 aa 9a 3f
       1.2817196 1.4332608 1.2456125 1.2083269
0001f0 5a b7 9b 3f b9 2b 9b 3f a6 9d ae 3f 8d 6f 93 3f
       1.216533 1.2122718 1.364186 1.1518418

actor_direction.1.bias f4 [128]
000000 9e 0c 4f 3e ac cf 9d bc 9f 5c 0f 3e 34 3f 7b 3b
       0.20219657 -0.019264065 0.14000176 0.0038337233
000010 29 4d 85 3d b7 df e1 3d e7 fa 36 bc da 36 93 bc
       0.06508858 0.11028998 -0.011168218 -0.017970491
000020 9d a7 2f 3d 86 ad a5 3d 45 59 f6 ba c2 a8 85 bc
       0.042884458 0.080897376 -0.0018794915 -0.016315822
000030 59 53 8b bd 61 09 b7 3d 62 6e 31 3c ec 0c 8f 3d
       -0.06803007 0.08937336 0.01082954 0.069848865
000040 0d b4 c8 3d 73 12 31 3d 0f 25 f0 bc 4f 1c b1 3d
       0.09799967 0.043230485 -0.029314546 0.086479776
000050 3c 9b 4a bd f8 30 75 bc 52 0f 22 3d 82 4a b7 3d
       -0.04946445 -0.014965288 0.03956539 0.08949758
000060 46 64 cf 3d dd 7d 09 3d 68 45 1b 3e 5b ea 12 3e
       0.101265475 0.0335673 0.15163195 0.14347212
000070 7f f4 51 3d d2 b7 8c 3d 17 70 27 3d 8b 5f 9e 3d
       0.05125856 0.068709984 0.04087838 0.07733067
000080 ab e1 bb bc 79 15 bf 3c 05 90 1b 3e f9 ee d7 bd
       -0.022934755 0.023325669 0.15191658 -0.10543627
000090 1d 3f 16 3e bd b0 ae 3c 16 c6 40 3d 8b 8f 25 3e
       0.14672513 0.02132451 0.04706391 0.16168039
0000a0 b0 e2 19 3d 6b f9 24 3d 91 3c 09 bd 25 42 34 bd
       0.0375697 0.040276926 -0.033505026 -0.044008393
0000b0 a4 28 97 3b 38 54 af 3d d1 55 71 3d a3 3e 6f 3e
       0.004612999 0.08560985 0.05891973 0.23363738
0000c0 dc 23 33 3d 22 45 07 3d 21 cf 57 3c d4 2e a3 bd
       0.04373537 0.033024915 0.013171942 -0.07967916
0000d0 03 e5 8d 3d 62 7a f1 3d de a0 5b bc ec 65 4c 3d
       0.06928446 0.11790921 -0.013405053 0.049901888
0000e0 c7 64 24 bd 5f e4 16 3e c8 eb 08 3e a9 72 1a 3d
       -0.04013517 0.14735554 0.13371193 0.037707005
0000f0 6d c0 a8 bc 53 2f 9a 3d f0 fd ff 3d b3 78 1c 3e
       -0.020599568 0.07528558 0.124996066 0.15280418
000100 e8 c1 f8 bc b8 f0 fb 3d ed bd d6 3c e5 db d6 bb
       -0.0303659 0.12301773 0.02621361 -0.006556975
000110 31 a4 5d 3e 4f 04 92 bd 3d 64 c9 3b 1d b8 21 3c
       0.21644665 -0.07129728 0.0061459825 0.009870556
000120 a3 6c dd 3d b2 5a 28 3d 0c 13 08 3e f8 73 7c bc
       0.108117364 0.04110212 0.13288516 -0.0154085085
000130 02 95 99 3d 24 32 76 3d f6 59 3f 3e dc b2 6c 3e
       0.07499124 0.06010641 0.18686661 0.23115104
000140 93 4d 54 3d f4 cf 08 3e e6 a0 36 3d 71 44 a1 3d
       0.051831793 0.13360578 0.04458704 0.07874382
000150 25 32 f8 3d 38 21 94 3c bd b1 8e 3d 76 13 14 3e
       0.12118939 0.018082246 0.06967495 0.14460549
000160 15 da 14 3e f2 1d 24 3e 23 05 e4 bc ca 6f 7e 3d
       0.14536317 0.16027048 -0.02783448 0.06211833
000170 4d a4 17 3e a8 5a e7 3c 15 dc 4d 3e ad 43 0b 3d
       0.1480877 0.02824147 0.20103486 0.034000088
000180 30 87 49 bd e9 b7 8f 3d 71 fb 10 3e fe e1 11 3e
       -0.04920119 0.070175 0.14158417 0.14246365
000190 51 a7 6c 3c 17 58 0f 3e 62 59 39 3e 11 d7 35 3d
       0.014444188 0.13998447 0.18100503 0.044394556
0001a0 4b b1 0b 3e 04 d6 f4 3c 60 a1 bc 3d 84 07 20 3e
       0.1364185 0.029887207 0.09210467 0.15627867
0001b0 40 28 e4 bd 81 e1 41 3e 04 52 1d 3c e9 b2 8d 3d
       -0.111404896 0.18933679 0.009602074 0.0691889
0001c0 0f 3c f8 bd 71 97 2e bd f2 19 36 3d 7a 6d e0 3d
       -0.1212083 -0.042624895 0.044458337 0.10958381
0001d0 5c 17 82 bc f7 56 d5 3c 6f 85 a6 3d 8c 47 95 3d
       -0.01588028 0.026042445 0.08130919 0.07289037
0001e0 7f d0 ba 3d 5d 3c 32 3e a0 dd df 3d f0 39 3d 3d
       0.09121799 0.1740584 0.109309435 0.04619783
0001f0 a8 9f 30 3d 9c 5b bb 3d c7 e4 3b 3e 40 c2 91 3d
       0.04312101 0.091483325 0.1834899 0.07117128

actor_direction.4.weight f4 [64, 128]
000000 4a bf 58 be b7 13 95 3d 5b cd d9 bc f4 2b ea 3d
       -0.21166721 0.07279151 -0.026587179 0.11434165
000010 45 68 03 be 95 99 b5 3c f2 ed 1d 3d 95 b8 13 3e
       -0.12832744 0.02216796 0.038557 0.14425881
000020 9f 1c 58 39 6f d6 cb bd 5d c9 fe bd 9c c2 b6 3d
       0.00020610027 -0.09953009 -0.12440751 0.089238375
000030 ea b8 85 3d 90 3c f2 3d 2c 66 69 3e 1b 90 bf 3b
       0.0652941 0.11827958 0.22792882 0.005846036
000040 04 2b 08 3e e9 49 fc 3d 8b a4 4f 3d b6 13 c8 3d
       0.13297659 0.12318785 0.05069403 0.097693846
000050 dc 6e 21 3e 3c f2 5e bd 68 c5 83 3e 2d 99 17 be
       0.15764946 -0.05443023 0.25736547 -0.14804526
000060 ec 1d 12 be d6 68 13 3d 55 8e 4f be 3c 49 a0 bd
       -0.14269227 0.03598865 -0.20269139 -0.07826468
000070 49 3b 4a be 2b 14 2e be de 67 33 3d 34 6c 35 3e
       -0.19749178 -0.16999881 0.043800227 0.17717057
000080 75 4d 24 3d 14 e9 b4 bd c9 86 c6 3d e7 fe f3 3d
       0.04011293 -0.088335186 0.09693677 0.11913853
000090 74 c2 71 3b fc a2 9b 3c 59 30 8f 3d b4 6d 40 be
       0.0036889585 0.018998615 0.069916435 -0.18791848
0000a0 63 8a 8a be 9a e4 e9 bd ab d8 4e 3d f5 d9 ac 3e
       -0.27058706 -0.114205554 0.0504996 0.33760038
0000b0 8a 33 d8 bc 8f d2 28 be 2e bb d1 3c 73 c5 5f be
       -0.026391763 -0.16486572 0.02560195 -0.21852665
0000c0 c8 ac d2 bd d0 77 66 3d 88 48 f3 3d 59 82 d1 bd
       -0.10286862 0.056266606 0.118790686 -0.1022994
0000d0 99 e1 a5 3e 62 75 1f be b8 73 2c 3d 85 01 3e 3e
       0.3239868 -0.15572122 0.042102545 0.18555267
0000e0 88 35 20 be 39 04 14 be 4c 44 73 3d 8c f4 8a 3d
       -0.1564542 -0.14454736 0.059391305 0.06784925
0000f0 c2 f3 db 3d 1a ef e4 bd 04 1f 28 be 3c e5 99 3d
       0.107398525 -0.111784175 -0.16418082 0.07514426
000100 97 97 4e 3e 2f 3f 21 be ea c2 a1 3e b7 0a 6c 3e
       0.20175014 -0.15746759 0.3159402 0.23050962
000110 44 fc 57 be ea 4d 74 3e 82 01 1e 3e 47 27 54 3e
       -0.21092325 0.23857847 0.15430263 0.20718108
000120 89 29 61 be c2 da 75 3d ec dc da bd ee 18 ac 3c
       -0.219885 0.060023077 -0.10686669 0.021007981
000130 76 d4 5c 3e e5 c2 9d bd 68 9f 2f be d3 73 51 bd
       0.21565422 -0.07703189 -0.17150652 -0.05113585
000140 d9 2e c7 bc b7 88 a3 3b 52 97 a5 bd 38 04 3e 3c
       -0.02431433 0.004990663 -0.08085503 0.0115976855
000150 dc 58 56 be 16 65 88 39 5c 3f a6 3e b5 e3 95 bd
       -0.20932335 0.00026015256 0.32470214 -0.07318822
000160 c4 e8 9c 3d 84 86 f2 3d 4b 98 bc 3e 65 74 fe 3d
       0.07661584 0.11842063 0.3683494 0.12424544
000170 65 6a c7 3c f6 81 a1 3d 37 cb 90 bd a9 b8 ad bc
       0.024342725 0.07886116 -0.0707001 -0.021206217
000180 9e ca 05 bd 76 69 87 3d d1 6c eb 3d f2 2d 50 3c
       -0.032663934 0.06611912 0.114953645 0.012706267
000190 d0 94 55 3e b0 d6 aa 3d 5d 3d d1 bd 60 cc 31 3e
       0.20857549 0.0834173 -0.10216782 0.17363119
0001a0 73 12 00 3e 3e 47 92 3d 20 6b 43 bd bb c6 f2 bd
       0.12507038 0.071424946 -0.047709584 -0.11854311
0001b0 84 7e 47 3d d7 ee 1e be 00 a1 b8 3e 8b 5c 53 bd
       0.04870464 -0.15520798 0.36060333 -0.051601928
0001c0 eb 11 ae bd 0d 70 07 be 47 c7 3a be c5 8a 8d bd
       -0.08499511 -0.13226338 -0.18240081 -0.06911234
0001d0 e2 3e d6 bc f4 dc 90 be c7 e7 71 3d c8 1c 9d bd
       -0.026153032 -0.28293574 0.05905893 -0.07671505
0001e0 e4 77 49 3e c4 06 65 bd 11 da bd bd 60 3c 21 be
       0.19674641 -0.055914655 -0.092701085 -0.15745687
0001f0 24 49 8f 3d 02 a4 8e 3d d6 86 4d bc 66 8c 99 3d
       0.06996372 0.06964876 -0.012544354 0.07497482
000200 7d ee 3f 3c 09 c8 bc 3d 1c 01 80 be 9a 93 80 3d
       0.011714575 0.09217841 -0.25000846 0.06278153
000210 cf 28 e8 3c 40 4a e2 3d ed 98 fb 3d 54 d6 ee 3d
       0.028339772 0.11049318 0.12285028 0.116619736
000220 86 b7 63 3e be 2d 8c bd ca bf 84 3d 2c 83 d3 3d
       0.22237977 -0.06844662 0.06481893 0.103277534
000230 56 28 6c bd f5 10 3e 3e 4a 1a 16 3d d4 95 2e 3e
       -0.057655655 0.18561156 0.036646165 0.17049342
000240 c0 02 59 3e 64 0d 27 3e 55 80 da bd 7a 86 f5 3d
       0.21192455 0.16313702 -0.10669009 0.1198854
000250 fe d0 3b 3d 85 29 4e 3e 66 4a a8 3d d4 cf 4b be
       0.045853607 0.20133026 0.082173154 -0.19903499
000260 ec 66 21 3e 47 b2 af 3d bc bd 27 3e e5 0f 7b 3e
       0.15761918 0.085789256 0.16380972 0.24517782
000270 ec d3 b6 be 06 aa 53 bd c4 3c 42 3e 62 e2 23 3e
       -0.3570856 -0.05167582 0.18968493 0.16004327
000280 a0 13 85 3d 0a 6e 53 3e f3 3e 87 3e ee 1b 3e be
       0.06497884 0.20647445 0.26415214 -0.18565342
000290 9c 28 dd bc 1e e1 2d 3e a2 89 64 3d d2 e4 45 3e
       -0.026996903 0.16980407 0.05579532 0.1932557
0002a0 6a 29 a6 bd 0e 3e cf 3d 4b 3c 32 be e1 a0 7b 3d
       -0.08113368 0.10119258 -0.17405812 0.061432723
0002b0 29 c6 de 3c 0f 52 f5 bb c2 95 4d 3e 28 a2 bd 3c
       0.0271941 -0.007486589 0.2007666 0.023148611
0002c0 73 3c ed 3d e1 b9 59 3e ba 3c 09 3d af fb 32 be
       0.115837954 0.21262313 0.03350518 -0.17478822
0002d0 f6 cd 73 3e ae 15 29 bd 9f 4e b7 3d 2c c3 87 bd
       0.23809037 -0.04128044 0.08950543 -0.06629023
0002e0 de 6e 8a be 6f 68 2e 3e 0d f5 22 3e 41 b0 4e 3e
       -0.2703771 0.17032026 0.15913792 0.20184423
0002f0 87 7d 5d 3e 8d 84 d0 3d 1f b9 66 3d aa 85 ce 3a
       0.21629916 0.10181532 0.05632889 0.0015756388
000300 d4 f5 8d 3d b1 44 84 bd 97 db 09 3e e6 ee 6d 3e
       0.069316536 -0.06458414 0.13462673 0.23235664
000310 98 39 c5 3e 46 2d 1a bd 85 fb 12 3e 5c 02 6f 3e
       0.38520503 -0.037640832 0.1435376 0.23340744
000320 03 0b 9d 3c 9a b1 bc 3d ad 41 86 be 67 40 40 3e
       0.01917029 0.09213562 -0.26221982 0.18774568
000330 e0 2f 2f 3e b5 18 1f be 06 9c 5d be 3d f9 76 be
       0.17108107 -0.15536769 -0.2164155 -0.24118514
000340 fc 33 05 3e 1d 76 2f bc ac 0c 03 be 24 94 2d 3e
       0.13008112 -0.010709313 -0.12797803 0.16951042
000350 53 b1 80 3e 1e f9 e3 3d 45 97 bb 3d d7 5a 33 3e
       0.25135288 0.111315 0.09159712 0.17515121
000360 19 f6 bf bd 40 94 83 3e 2f 78 8c bd d9 00 8c 3e
       -0.09373111 0.25699043 -0.06858861 0.27344397
000370 7f 99 1f 3e ea 28 03 3c 9c c7 06 3e e3 69 bd 3d
       0.15585898 0.00800536 0.13162082 0.09248712
000380 4c 9c 2d 3d 84 1a f9 bb e1 07 4c 3e 39 cb 04 3d
       0.042385384 -0.007602038 0.1992488 0.03242037
000390 9f b4 8b 3d eb b1 70 3e b9 82 ea 3d 2d a9 26 3d
       0.0682156 0.2350537 0.114507146 0.040688682
0003a0 ed b1 39 3e 4a 88 7f be 3f 18 ee 3c 8f d9 8d be
       0.1813428 -0.24954334 0.029064296 -0.27705047
0003b0 a5 cb ad 3c 64 37 2e be ad 53 11 3d d3 7a 40 bc
       0.02121527 -0.17013317 0.03548019 -0.011748034
0003c0 7a f0 b6 3d fe a2 49 be 5c 85 6d 3d d7 09 47 bc
       0.08932586 -0.19691083 0.05798851 -0.012148342
0003d0 5b ce dc bd 35 09 3a be 77 78 19 3e c5 c0 2f 3e
       -0.10781547 -0.18167575 0.1498736 0.1716338
0003e0 23 14 58 3e 42 2f da bc 6b fa da 3d 4e bf 51 3e
       0.21101432 -0.026633862 0.10692295 0.20483133
0003f0 5b 8f be 3d 12 a2 39 3e 14 62 26 bd 1e 56 9b bd
       0.09304687 0.18128231 -0.04062088 -0.07584785

actor_direction.4.bias f4 [64]
000000 41 66 31 3e 45 bd 19 3e 79 ad 43 3e fa 5f 15 3e
       0.17324163 0.15013607 0.19109143 0.14587393
000010 89 c0 0a 3e 87 f0 ba 3d 10 36 de 3d 42 2d b0 3d
       0.13550009 0.09127908 0.10850155 0.08602382
000020 bc a8 7d 3e 0b 7b 4f 3e 44 0b ed 3d 5a 2f 9f 3d
       0.24771398 0.20261781 0.11574414 0.077727035
000030 7d 27 1a 3e 54 38 55 3e 1f f2 07 3e e9 06 c2 3d
       0.15054126 0.20822269 0.13275956 0.09473974
000040 5a 98 ae 3d 44 51 4d 3e 18 d8 50 3e 0a 4f 93 3d
       0.085251525 0.20050532 0.20394933 0.0719281
000050 82 17 97 3e 95 37 e8 3d be b3 0d 3e 2c 15 f6 3d
       0.29510123 0.113387264 0.13838097 0.12015757
000060 2f d5 04 3e 95 6a 39 3d 64 d7 02 3e 96 45 0a 3e
       0.12971948 0.04526766 0.12777478 0.13503107
000070 3e 6e 08 bb fd a3 34 3e e7 3a fb 3d 70 7f 6c 3d
       -0.0020817663 0.17640682 0.12267094 0.05773872
000080 97 68 c3 3d 46 69 a6 3d ae 72 9a 3e cd fb 28 3d
       0.09541433 0.08125548 0.3016562 0.04125576
000090 34 21 03 3d 1e c9 86 3d 85 94 06 3e f6 69 87 3d
       0.032014087 0.06581329 0.13142593 0.06612007
0000a0 71 04 9e 3d f8 4f 60 3e 45 19 55 3e 4d 2b 8b 3c
       0.07715691 0.21905506 0.20810421 0.01698842
0000b0 ec b0 ac 3d fa 83 3a 3e 23 bd c7 3d 19 55 02 3e
       0.08432183 0.18214408 0.09752872 0.12727775
0000c0 29 90 08 3e 8b b4 e4 3d 06 9a 44 3e 95 e3 21 3e
       0.13336243 0.11167248 0.1919938 0.15809472
0000d0 a2 02 1b 3e 3a 69 3e 3e d1 c3 cd 3d de ac 2b 3e
       0.15137723 0.18594828 0.10047115 0.16765162
0000e0 35 fb 1d 3e 8a bd 13 3e 45 28 0e 3e 30 d2 20 3e
       0.15427859 0.14427772 0.13882549 0.1570518
0000f0 f8 e2 37 3e 3b 31 b7 3d da 3b 47 3e 25 2c 65 3e
       0.17957675 0.08944937 0.19456425 0.22380121

actor_direction.5.weight f4 [64]
000000 f1 fc 8f 3f 28 0b 82 3f b9 ac 9f 3f d7 72 96 3f
       1.1249067 1.0159655 1.2474586 1.1753796
000010 3b ac 8e 3f 54 31 86 3f 67 ef 8a 3f ff 7d 77 3f
       1.114631 1.0483804 1.085431 0.9667663
000020 90 39 8c 3f 94 16 98 3f 41 a0 65 3f fb 7d 8d 3f
       1.0955067 1.188189 0.89697653 1.1054071
000030 4c 15 88 3f e9 45 9a 3f ec 80 9b 3f 65 77 86 3f
       1.0631499 1.2052585 1.2148719 1.0505186
000040 54 7c 8f 3f f9 6c 94 3f c0 d9 86 3f 9d 4f 96 3f
       1.1209817 1.1595756 1.0535202 1.1743046
000050 85 84 8d 3f 35 9c 98 3f f8 5c 68 3f ab 21 98 3f
       1.1056067 1.1922671 0.9076686 1.1885275
000060 b9 9e 96 3f 09 b5 6e 3f b4 66 81 3f 87 0c 8e 3f
       1.1767188 0.9324499 1.0109468 1.1097573
000070 56 1e 78 3f 01 03 81 3f bf 3a 9c 3f bf 3f 99 3f
       0.9692129 1.0079042 1.2205428 1.1972579
000080 d6 a4 72 3f 76 b0 83 3f ee 7c 94 3f 8e 2b 88 3f
       0.9478277 1.0288227 1.1600626 1.0638292
000090 10 ce 6e 3f 57 f3 70 3f bf 40 81 3f 3b 4b 83 3f
       0.93283176 0.9412131 1.0097884 1.0257334
0000a0 f9 05 74 3f d4 22 85 3f 78 59 96 3f e1 00 8e 3f
       0.95321614 1.0401254 1.1746054 1.1094018
0000b0 2b 78 89 3f 43 84 95 3f 84 d9 99 3f 9b 42 83 3f
       1.0739797 1.1680988 1.2019506 1.0254701
0000c0 04 06 82 3f df 97 8a 3f 26 be 84 3f 7c 26 9a 3f
       1.0158086 1.0827597 1.0370529 1.2042994
0000d0 79 4f 8b 3f 84 b6 7c 3f 48 c1 8e 3f 1e 98 a6 3f
       1.0883628 0.98715997 1.1152735 1.3015172
0000e0 d6 4f 88 3f e6 b4 83 3f e3 e8 a0 3f 1a 19 88 3f
       1.0649364 1.0289581 1.2571071 1.063266
0000f0 b2 07 8e 3f 08 dc 87 3f 5b 7e a8 3f ba a7 78 3f
       1.1096098 1.0614023 1.3163561 0.9713093

actor_direction.5.bias f4 [64]
000000 e3 31 ae 3d 41 78 18 3e db 7b 29 3e 23 1b 22 3c
       0.08505609 0.14889623 0.16551153 0.009894165
000010 36 36 a0 3d 41 b7 13 bd b0 8f d3 3d 32 41 02 3d
       0.0782284 -0.036063436 0.103301406 0.031800456
000020 4f 18 b9 3d 50 21 82 3d 42 42 d6 bd d0 a9 a1 3b
       0.090378396 0.0635401 -0.104618564 0.0049335733
000030 b2 32 9d 3c d4 a1 39 3e bd d0 d6 3b b0 60 18 3d
       0.019189212 0.18128139 0.0065556453 0.037201583
000040 2a b4 fa 3c 6b a8 f7 3d fc ff 96 3b c8 8f 94 3c
       0.030603487 0.1209267 0.0046081524 0.018134966
000050 81 e0 42 3d 0c 6e 1a 3e 53 53 f1 bd 3c f7 10 39
       0.047577385 0.15081042 -0.11783471 0.00013825012
000060 09 5b 0d 3e 62 fd 24 be be ef 93 3b 72 93 6d 3d
       0.13804258 -0.16112283 0.0045146635 0.058001943
000070 b0 02 6e bc 45 96 ab bd 3f db c3 bc 23 0f 08 3d
       -0.014527008 -0.08378271 -0.023908256 0.03321756
000080 e5 bd 31 be 7d 19 ca ba 69 e4 3a 3e c4 c1 af bc
       -0.17357595 -0.0015418973 0.18251194 -0.0214547
000090 0d de 57 bd 7c 36 ae 3d 80 06 0d be 5e e3 6c bd
       -0.052702 0.08506486 -0.13772011 -0.05783402
0000a0 b2 8e 1b bd 10 fa 52 3d cd 6f 5f 3d d4 4a 04 bb
       -0.03797788 0.05150801 0.05454998 -0.0020186203
0000b0 9e 29 a5 bd 7d a6 8f 3d 3a 45 5d bb 6f fd 20 3e
       -0.080645785 0.07014177 -0.0033763186 0.15721677
0000c0 5a fb 64 3c e0 15 41 3d 03 64 47 3d dd c3 0b 3d
       0.0139759425 0.047140002 0.048679363 0.034122337
0000d0 7a 52 d4 bc 2e c5 fd 3c 93 20 9c 3d 5e 17 a7 3d
       -0.025918234 0.030977812 0.076234005 0.08158754
0000e0 a7 4f c5 3c 8e fc a6 3c d5 2c fa 3c c1 9a 19 3e
       0.024085833 0.0203841 0.030538956 0.1500044
0000f0 be ba 10 3d 9d 15 5d bc e7 7e 09 3e f8 00 52 3d
       0.03533434 -0.013493923 0.13427316 0.051270455
