saved_model/NEW_ENV2_20250530_02-28-58.pth (torch, 623220 bytes, 111 tensors)

technical_norm.min_val f4 [4]
00000000: fcff 7fbf fcff 7fbf 5b3b c0c1 0b5b b6c3
-0.99999976 -0.99999976 -24.028982 -364.71127

technical_norm.max_val f4 [4]
00000000: 4afc 47bf fcff 7f3f 95aa 3542 e781 31c1
-0.7811934 0.99999976 45.416584 -11.094214

feature_extraction.0.weight f4 [128, 8]
00000000: cb88 a33e e53c 443e 150e 2bbe 2123 b3be
00000010: eb66 1fbd 09ba 833d ab19 36bd ece0 1d3e
00000020: fa17 9a3e b163 68be 72a4 e4bd feb9 8cbd
00000030: c279 09bd 078e be3e 848a 8f3d c3c4 32be
00000040: 3279 cabe e755 9e3d 4904 0fbd 41e3 cd3d
00000050: 12ac d33e b7d7 a43e ffc1 fc3b 5150 9c3e
00000060: b702 cebe a85d 5abd 24c5 ad3d 17f6 58be
00000070: 1430 abbe b70c 3dbe 865c 9d3d c087 a33d
00000080: f782 a5be 4ea3 8d3e 5b2c c13e 6691 d7bd
00000090: 6456 18bd 4177 e83e 07da a8bc cec4 853c
000000a0: a72c b43d c7b3 dc3e ce95 7ebd 6d5a 49be
000000b0: 068b b73e f758 2dbd 1e17 a93d de46 423d
000000c0: 9be5 dbbe c2a2 05be 63c3 f93d 4dbd d03e
000000d0: e7e7 c23e 5bda 80be 7b10 47bb 22d7 983e
000000e0: a4ab 7fbe 6eba 873e 749a 8b3e a071 063f
000000f0: 4492 923d be07 1ebe b8a7 543e 75aa 8b3e
00000100: 3354 8dbc 5a59 d83d 3f25 75bd 57e4 763e
00000110: f59a 1b3e 7b5e 4dbe a935 00bf 87ef 043d
00000120: 8685 253e 9870 fa3d ab2f aabe 9ab4 0bbe
00000130: 00df fa3c b256 893e 51ba dcbe 3380 473e
00000140: b998 13be 59d1 623e 392b dbbd c8d5 b4be
00000150: 757e 973c 684a 40be 57cd 673e 0565 263d
00000160: ad86 323e 45a5 393d cb26 5f3e ef6e f7be
00000170: 2fcf edbd 56b0 4d3e 546c b3be 6fff 1d3e
00000180: a221 483e c0cb 2d3e aa0d 573e cca5 1a3f
00000190: 60ec ea3d b42f ea3d a5ec 8f3e d81c a1be
000001a0: c41b d0be a522 90bc 1c41 7abd 833a 8c3d
000001b0: 413e 8a3e eb6d bc3d 9944 703d edfb 0dbf
000001c0: e73a 2d3e fcbb ffbd c81c c9bd 07d6 b53e
000001d0: 5f49 6a3c c22c 3bbd bca2 5ebe 2a39 ccbe
000001e0: 544c 523e e2a3 f0bd 29ec 533e cb24 9f3e
000001f0: abe0 213e 5991 363e d02f 9cbe fc07 903e
00000200: 5bfd 19bd c054 fa3d a8a6 6b3c d5d0 ea3d
00000210: 69ad 01be 59f2 853e 8d95 663e 4ef2 fe3d
00000220: 0b07 fabe aacb 2fbd aeaf 94be b247 073e
00000230: e0e6 10be 0cc8 18be e624 b73e 1ca3 1e3e
00000240: a811 07be eee3 923e acd5 1c3e 1298 b03e
00000250: caea 333e 60f2 81be e599 fabd 6c74 5ebe
00000260: 9484 83be abd2 303d 8079 fd3d f265 df3e
00000270: fc5b 01be e287 b6bd 8d39 ef3e 7919 0fbf
00000280: fcf5 c03e ce02 8ebc 84d2 af3c e1e9 853d
00000290: b3ab 673e 7f9e 1a3d 1cf1 553d 5432 febe
000002a0: 5ebd ed3e 51a3 cc3d cfa8 08be 8dd5 3f3e
000002b0: 96d5 adbe 3dcb ca3e a4e8 963e bf4d 593c
000002c0: c49b 523e d79c 58bb 42cf 603d ffcc a2bb
000002d0: dbc4 2d3e 6660 ab3e 00c8 6dbc 06b4 e8bd
000002e0: 3bf1 a2be c334 73be cf23 45be d1fc 6fbe
000002f0: 63db 2cbe 19b8 bc3e 9649 f13d 2f46 6e3d
00000300: fcfc a7bc 00f0 963e 763c ed3d a8aa 04be
00000310: 2311 1dbe 9c84 1b3e 4819 7fbe 815c 383e
00000320: ae31 3fbe fb08 ef3d 0107 06bf a395 913e
00000330: cbb4 4cbe eae4 9cbe 5b76 ac3d 0cd4 06bc
00000340: 815f 133f e304 9e3e fccd c0bd 6658 8e3e
00000350: cea0 02be 5ba2 2e3e 5ea3 93bd 4d38 d63d
00000360: 63ae 833d 3e0b 293d 87bd 013c eabb a2be
00000370: fa92 c03c 8d6c 6d3e ef64 8ebd df64 adbc
00000380: c61e 91be de73 1d3c ed06 d3bd b681 053d
00000390: 8da5 fc3c 42bb ed3e aaf7 953d 89f3 2fbf
000003a0: bbeb cabe 03a2 04bf e9ad 6bbd c98b 14be
000003b0: 8cd4 e43d 9358 183e e140 eabc 7bb9 8e3e
000003c0: 7b30 b53e 8731 0b3e 0038 c4bd 3a70 583e
000003d0: 8e35 d43d 384b 40bd a168 413c efd2 89be
000003e0: 68ea 023d 3e76 f23e f461 af3e 7967 6fbd
000003f0: 723d 94be bfeb 093e c25d 863d e7fc 89be
0.31940302 0.19163854 -0.1670459 -0.3498774 -0.03891651 0.06431968 -0.044458073 0.15417832
0.30096418 -0.22694279 -0.11164178 -0.06871413 -0.033563383 0.37217733 0.07008842 -0.17457871
-0.3954559 0.07731228 -0.034916196 0.10053111 0.41342217 0.32195827 0.007713556 0.30530027
-0.40236446 -0.053311974 0.08484867 -0.21187626 -0.33435118 -0.18461882 0.07683663 0.07984877
-0.3232648 0.27663654 0.37729153 -0.105257794 -0.037191764 0.45403484 -0.020611776 0.016329195
0.08797579 0.4310591 -0.062154584 -0.19663401 0.35848254 -0.04232117 0.082563624 0.047430865
-0.42948613 -0.13050368 0.1219547 0.40769425 0.38067552 -0.25166592 -0.0030374813 0.29851633
-0.2496782 0.26509422 0.27266276 0.5251713 0.07156804 -0.15432641 0.20767105 0.27278486
-0.017252063 0.105639175 -0.059849974 0.24110542 0.1519583 -0.20055573 -0.5008188 0.032454994
0.16164216 0.12228507 -0.33239493 -0.13643113 0.030623913 0.26823956 -0.43110898 0.19482498
-0.14413728 0.22150172 -0.107016034 -0.35319352 0.018492917 -0.18778384 0.22636925 0.040623683
0.17434187 0.04532363 0.21792142 -0.48326823 -0.11611783 0.20086798 -0.35043585 0.15429471
0.1954408 0.16972256 0.21001306 0.60409236 0.11470866 0.1143488 0.28110233 -0.3146732
-0.40646183 -0.017594645 -0.06109725 0.06847098 0.2700062 0.09200653 0.05865917 -0.55462533
0.16917 -0.12487027 -0.09819943 0.35514852 0.01429972 -0.04569698 -0.21741766 -0.39887363
0.2053693 -0.11750008 0.20695557 0.31082758 0.1580836 0.17828883 -0.30505228 0.28131092
-0.037595134 0.12223196 0.014382996 0.11465613 -0.12663807 0.2616146 0.22517987 0.1244856
-0.48833498 -0.04291884 -0.29040283 0.13210943 -0.14150572 -0.14920062 0.3577034 0.15491909
-0.13190329 0.28689522 0.15315884 0.3449102 0.17570034 -0.2538023 -0.12236384 -0.21724099
-0.25687087 0.04316966 0.1237669 0.43632466 -0.12632746 -0.08912636 0.46723595 -0.55898243
0.3768767 -0.017335322 0.021462686 0.065387495 0.22624092 0.03774881 0.052231893 -0.49647772
0.46433538 0.09992088 -0.13345645 0.18733807 -0.33952016 0.39608184 0.29474366 0.013263165
0.20567232 -0.0033052468 0.054885156 -0.004968285 0.16969626 0.33471984 -0.014513016 -0.11362462
-0.3182467 -0.23750596 -0.19251941 -0.23436286 -0.16880564 0.36859205 0.117816135 0.0581724
-0.020506375 0.2947998 0.11583798 -0.12955725 -0.15338568 0.15187305 -0.24911988 0.18004037
-0.18671295 0.11671635 -0.5235444 0.28434476 -0.19990842 -0.30643398 0.08421012 -0.008229267
0.575676 0.30863103 -0.094142884 0.27801818 -0.12756655 0.17054121 -0.07208894 0.10459957
0.06429746 0.041270487 0.007918722 -0.31783992 0.023507584 0.2318594 -0.06952845 -0.021166263
-0.2834379 0.009610144 -0.10304055 0.032594405 0.03084066 0.4643193 0.07322629 -0.6873098
-0.39632973 -0.5180971 -0.0575389 -0.14506449 0.111733526 0.14877538 -0.02859539 0.27875885
0.3538855 0.13593112 -0.09580994 0.21136561 0.10361777 -0.046946734 0.011804731 -0.26918742
0.03196183 0.47355837 0.3425442 -0.05844829 -0.2895313 0.13468836 0.06560852 -0.26950762

feature_extraction.0.bias f4 [128]
00000000: a9a9 cbbe 4892 7bbd 8cb9 473d 3494 80be
00000010: c7cb 863d 1112 3ebe 46e0 54be 478b 433e
00000020: 077e df3c 6498 9b3e 4983 883e 7f85 85be
00000030: 483e a43d 8201 fa3e 6828 bbbe f67c a1be
00000040: a5fc ca3d 112e 8dbd 8dc2 7abe 15d8 f03e
00000050: a26d 883e 7a3f 2dbe 4c44 8c3e 5d84 b53e
00000060: 5579 dd3d 5435 9a3d 89c0 01bd a414 f83d
00000070: 6246 ec3c b912 113d 798c a73d ce06 bcbd
00000080: 2f78 4abe 5e0f a1be 9829 d4bd 6ab5 a23e
00000090: db36 c93c 189a 0a3f 72fa b2bd eff9 a0be
000000a0: 8a23 2dbe f0a0 a63d 902b 9ebe 197e 613e
000000b0: 64e8 a83e b782 a23e 5d01 a3be b431 833e
000000c0: 4782 50be 69de aa3d 473d a33b d50f 8f3c
000000d0: 98de 05bf eb70 47be 1733 50be fc5d 253e
000000e0: 9591 443c 9bc6 fdbc 43fa c73e fb15 e0bd
000000f0: 2281 a5be a3e6 fbbd 3a81 01be c7dd fc3d
00000100: 33ed 093d 16b3 3bbd 34de 993d 418b 253d
00000110: 5858 1c3d 9ae6 af3d b1c4 703e 798f 893e
00000120: db3a be3d df54 06bf 6fa4 933e 6c90 a03e
00000130: f549 7f3e 1a0d 97be d92c 1cbe d8e1 39be
00000140: a4ac 99be c9b7 72bd 52d7 18be 9f50 893b
00000150: f6b7 673e 3599 083d d4b1 a1bd 1ef4 4bbd
00000160: 5dc2 d23d 9b02 b2be a0f1 8ebb e208 57be
00000170: e388 0e3e df4f 813d 40b0 8e3e 1979 21be
00000180: aecc 9ebd 2eaa 1dbc 4da2 78be e58e 6abd
00000190: 6e6f 8ebd 4496 eebe 2649 13be 006f 7b3e
000001a0: 7f2d 49be 250e 833d c51e 7fbe faca f73d
000001b0: 8d5d 40be 845f 7b3e ae1b 44be 5443 003f
000001c0: 51db 68be 3021 8ebe 0306 ea3c ccb3 863e
000001d0: 1c14 23be 2b82 b7be 9d11 0e3e 909b 833d
000001e0: 261a cc3e fee4 353e 95d9 46be c7bb 8dbd
000001f0: eec9 6d3d d68e af3e 13cd efbe cad3 a4be
-0.39777878 -0.0614188 0.048760936 -0.2511307 0.06581836 -0.1856158 -0.20788679 0.19096099
0.027281774 0.30389702 0.26662663 -0.26078412 0.08019692 0.48829275 -0.36554265 -0.3154065
0.09911469 -0.06893552 -0.24488278 0.47039858 0.26646143 -0.16918746 0.27395856 0.35452548
0.10814158 0.07529703 -0.031677756 0.12113312 0.028842155 0.035418246 0.0818109 -0.091809854
-0.19772409 -0.31457037 -0.10359496 0.31779033 0.02456229 0.5414138 -0.08739175 -0.31440684
-0.16908088 0.08136165 -0.3089261 0.22020759 0.329898 0.31740353 -0.31836978 0.25623858
-0.20362197 0.083432026 0.00498167 0.017463604 -0.52292776 -0.19476669 -0.20331989 0.16149133
0.0119976 -0.030978492 0.39058122 -0.109416924 -0.32325083 -0.1229985 -0.12646952 0.12346988
0.033673476 -0.045825087 0.07513085 0.040416006 0.03817019 0.08588906 0.23512532 0.26867273
0.092885695 -0.52473253 0.2883639 0.31360185 0.24930556 -0.29502183 -0.15251483 -0.18152559
-0.30014527 -0.059257302 -0.14925888 0.004190519 0.2262877 0.033349235 -0.07895246 -0.049793355
0.10290978 -0.34767613 -0.0043623 -0.20999482 0.13919406 0.06314062 0.27868843 -0.15768851
-0.07753883 -0.0096230935 -0.24280663 -0.05726518 -0.06954847 -0.4659902 -0.14383373 0.24554062
-0.19646262 0.06399182 -0.24914081 0.120992616 -0.18785687 0.24548155 -0.19151184 0.50102735
-0.22739913 -0.27759695 0.02856732 0.2630905 -0.1592564 -0.35841498 0.13873906 0.064261556
0.398637 0.17763135 -0.19418938 -0.06920581 0.058053903 0.34288663 -0.46836147 -0.32192832

feature_extraction.2.weight f4 [64, 128]
00000000: 161d 9f3d e99f 13be f3c6 e0bd 7a60 60bd
00000010: 8298 e43d bda9 093e 506f 0abe 365d b03d
00000020: 0c86 273d 9451 88bd 3f39 b83d 843b 663c
00000030: a2c9 9d3b e174 63be 3228 60be b0f3 91bd
00000040: bf7a b2bd 5b6c 4ebe aed4 9e3b f1d6 7f3d
00000050: b6d3 f0be 8f7f 6abe ab1d 21be c575 d83d
00000060: 525e 45bd 47e8 b3be d004 6dbe d7fd 023e
00000070: 198e 95be 43d1 3f3e f706 b9bd 081d ccbc
00000080: baf6 10be 3091 65be 2cca dd3b 669b 8e3e
00000090: c1c4 743e a97a b7be f686 a03e 47b3 913c
000000a0: ced4 03bb 0977 b5be 3369 2c3e f275 9fbc
000000b0: 9a9d 7abe 6c13 bcbd e330 52bd 2752 42bd
000000c0: 1a8f 653d 1f25 42be 257e 0abe 0f7f 3dbe
000000d0: fe57 803e 660d f5bc 7474 b9be effa 7ebd
000000e0: 1546 6b3e 00ca 893e 8c49 febc 01bf 74be
000000f0: f1e5 193e ce6d c3bd 4bc3 2c3c 7fb9 c5bd
00000100: cb8c bfbc bb32 e7bd c73b 00be 8362 c3bc
00000110: b9c8 adbe 6baf 85bd c748 ee3d 85d3 4c3e
00000120: 1842 7e3e a1c3 f83d 58e6 61be c087 fdbd
00000130: 6253 99bd f646 51be cf4b c53e 4fac babc
00000140: 98cc 66be cbfb 21be 46b4 943d 5324 7f3e
00000150: bbe5 cb3d fbca 13be 5492 cabd 8d06 92bd
00000160: 0186 453d 1bf7 fabd a4c2 7b3e c3af dfbc
00000170: 2ee4 d53d 6131 c13c a6cf 6dba 0f3a bd3c
00000180: be80 21be 053c 33be 2ad7 25be c4e0 7abd
00000190: 2885 81bd 92b1 62bd 566e dbbd 429d 56be
000001a0: 2a1b 0f3e 89f4 67be 130f b93d 9537 a6bc
000001b0: db3e 073d efd8 e6bc 20f9 ddbc dbd4 8ebe
000001c0: eb0e 7c3e 041d 143a 2333 bd3d 20dc e53d
000001d0: 822a a93d 054b cf3e 8e33 373c ca39 21be
000001e0: 66ff 67be ad5d debd 439a c3be 088c 143e
000001f0: 58a3 ddbb 3505 fcbd 4e16 833d 7960 bc3d
00000200: 49f0 93be fffa 9bbe 2cf8 e1bd 5d3a 6c3e
00000210: a8da b7be 70e0 80bd 0088 0cbe 151c 16bf
00000220: 535d d4be 605e efbe 64b7 16bf 2239 4c3d
00000230: e72b f7be ecf3 e1bd 2a23 81bd 1988 ccbe
00000240: 708c f2be dd48 20be af34 ab3d eef7 09bf
00000250: 9acb aa3e d7ec b7be 5fb8 b2be 6a30 e4be
00000260: 31e8 c7bd 4d6b cabe 3f69 29bf b457 06bf
00000270: 2e3e da3d f3ba 96be d074 02bf c0a0 983b
00000280: 4f1d 3f3c 4e83 5cbe bd02 efbe 8e97 05bd
00000290: 175f 8fbe 2e40 fbbd 783a 39be 77a5 54be
000002a0: 1291 9bbe c2c6 9a3e 66ec 87be c416 d8be
000002b0: 8aee a9be 53e6 6ebe d1b5 21be fdcf b7bd
000002c0: df6b 96be 3ea6 dabd ebd5 ffbe 9088 fc3e
000002d0: 63ee 8cbe 60bd 59be 8c03 f83d 0608 8ebe
000002e0: 237e 10bf 7631 50be ddec 2bbe 7f87 f63e
000002f0: e8e0 b2be 3b5a 193e caee fabe 002b c73c
00000300: 8f35 51be b1b4 dcbe 9ff2 14be 200f 8a3e
00000310: 2c7b db3e 74c0 93be 50f1 0abf 277d 02bf
00000320: 7b0b 00bf 3145 27be b612 9fbe e09d f4be
00000330: 4032 53be 9a03 cb3e 78b0 76be c77e 29be
00000340: 6dce 143d 137c 0d3f 70d1 89be 563b 45be
00000350: c9e0 bdbe d185 b4be 9594 dbbe 7646 17be
00000360: 5be8 f7be df8c 98be e4b4 e3be 979f f8be
00000370: c9c3 efbe 32bf bcbe 91b2 4bbe f442 a6be
00000380: 5f53 1bbe e2ea ddbe fa1c 1e3f dd2b dbbe
00000390: 6304 babe 2175 99bb 5b93 c1be 38de b2be
000003a0: f828 d8be 9e90 02bf 0f87 91be 1458 9bbe
000003b0: 96b7 d9be e108 043e 09ab 01bf c03f 483e
000003c0: 3e2c 85be 1efd 4abf 170e bcbe 5fe7 0cbf
000003d0: 2711 f5be 9488 debe 7ac9 abbe d249 0abf
000003e0: 03bc 59bd 8365 5cbe cfa6 133e 3170 16bf
000003f0: 6a38 86be 25b0 26bf 44b9 eabe 6c7d 9c3d
0.077692196 -0.1441647 -0.109754466 -0.054779507 0.11161901 0.13443656 -0.13519025 0.086115286
0.04089932 -0.06656185 0.08995294 0.014052276 0.0048152963 -0.22212555 -0.21890333 -0.07126558
-0.08714818 -0.20158522 0.0048471307 0.062460843 -0.47036523 -0.22900222 -0.15733974 0.10569338
-0.048185654 -0.3513815 -0.23146367 0.12792145 -0.29209974 0.18732171 -0.090345316 -0.024916187
-0.14156619 -0.22418666 0.0067684855 0.27852935 0.2390318 -0.3583577 0.31352967 0.017785681
-0.0020115855 -0.3544238 0.16837005 -0.01946542 -0.24474183 -0.09183392 -0.051316153 -0.047441628
0.056044675 -0.18959473 -0.13524683 -0.185055 0.25067133 -0.029913615 -0.3622166 -0.062251028
0.22975953 0.26911926 -0.03104093 -0.23900987 0.15029122 -0.09542428 0.010544608 -0.09654521
-0.023382565 -0.11288973 -0.12522803 -0.023850685 -0.33942202 -0.06527599 0.11634975 0.20002563
0.248299 0.12146688 -0.22060525 -0.12379408 -0.07486607 -0.20437226 0.385344 -0.022787241
-0.22538984 -0.15818708 0.07260947 0.249162 0.09955927 -0.144329 -0.09891191 -0.07130156
0.0482235 -0.12254163 0.24585968 -0.02730549 0.104439124 0.023583116 -0.00090717745 0.023098974
-0.15771767 -0.17503364 -0.1619536 -0.06124951 -0.06324226 -0.055345125 -0.10714404 -0.20958427
0.13975206 -0.22651877 0.09036078 -0.020290175 0.033018928 -0.028179614 -0.027096331 -0.2789677
0.24615066 0.00056500756 0.09238269 0.11223626 0.08260061 0.40486923 0.011181725 -0.15744701
-0.2265602 -0.10857711 -0.3820363 0.14506543 -0.006763857 -0.12305681 0.06400739 0.09198088
-0.2889426 -0.30464932 -0.11033663 0.23069139 -0.3590901 -0.06292808 -0.13723755 -0.586366
-0.4147745 -0.4675169 -0.5887358 0.049859174 -0.48275682 -0.110328525 -0.06305535 -0.39947584
-0.4737277 -0.15652795 0.08359658 -0.53893936 0.3335846 -0.35922882 -0.3490629 -0.44568187
-0.09761084 -0.3953499 -0.6617622 -0.52477574 0.10656391 -0.29439506 -0.5095949 0.004657835
0.011664703 -0.21534464 -0.46681777 -0.032615237 -0.28002235 -0.12268101 -0.1808871 -0.20766245
-0.30384117 0.30229765 -0.26547545 -0.4220487 -0.33189803 -0.23330049 -0.15792014 -0.089752175
-0.29379174 -0.106762394 -0.49967894 0.4932294 -0.27525625 -0.21263647 0.121100515 -0.27740496
-0.5644247 -0.20331368 -0.16789575 0.4815025 -0.34937215 0.14975826 -0.49010307 0.024312496
-0.20430587 -0.43106607 -0.14545678 0.26964664 0.4286741 -0.28857768 -0.54274464 -0.5097222
-0.5001752 -0.16334988 -0.31068963 -0.477767 -0.20624638 0.39651185 -0.24090755 -0.16552268
0.036329675 0.5526745 -0.269176 -0.19260916 -0.3708556 -0.35258344 -0.42886797 -0.14772972
-0.4841946 -0.29794976 -0.44473946 -0.48559257 -0.4682906 -0.3686462 -0.19892336 -0.32472956
-0.15168522 -0.43343264 0.61762965 -0.42806903 -0.36331472 -0.0046831523 -0.37807736 -0.34935164
-0.42218757 -0.5100192 -0.28423354 -0.30340636 -0.42522877 0.12894012 -0.50651604 0.19555569
-0.26010317 -0.79292476 -0.367295 -0.55040544 -0.4786465 -0.43463576 -0.33552152 -0.5401889
-0.053157818 -0.21523099 0.14419101 -0.5876494 -0.26214916 -0.65112525 -0.4584447 0.0764111

feature_extraction.2.bias f4 [64]
00000000: c08b b7bd 3d58 17bf ac89 ae3d 3c6c efbc
00000010: eaa2 54bf 88db 123e c8e6 373e 79a2 793e
00000020: 62ca 02bd 6cac cd3c 7545 f43c caa7 d9bd
00000030: c257 d5bc fb82 1b3e ec50 0ebf ce5b 393e
00000040: 11b1 11bb b045 543e 3b2d 8f3d de30 5b3e
00000050: 3293 9d3e 525c 213e 2340 873d c764 04be
00000060: 1fab 243e 6cb0 313d 884f bc3d da84 a8bd
00000070: a693 0d3e 1091 923d be76 dd3d 6398 3d3e
00000080: 2cc2 9fbd a81c 22bd 95c0 fb3d 932d 153c
00000090: d8c8 b1bd c887 513e 36a9 233e 67f2 be3d
000000a0: 700b 39bd 231e f9bd 2a84 473d 08f6 793c
000000b0: 5907 dabc c18d cd3c 0d69 5abc 619c 2dba
000000c0: d177 67ba fc11 363e 11f1 0d3e 5885 c83d
000000d0: 88f1 e33c bbe3 ce3c c5bb f13d 4881 75bd
000000e0: 4ff2 ba3c 7697 bb3d 00cb 8dbc 99ff ab3d
000000f0: d876 0f3e 6e0a 8f3e 240d 0a3d 3c10 43bd
-0.08962202 -0.59119016 0.085223526 -0.029226415 -0.8306109 0.14341557 0.1795913 0.24378385
-0.03193129 0.025106631 0.029818276 -0.10627706 -0.026042823 0.15186684 -0.55592227 0.18101427
-0.0022230784 0.20729709 0.06991049 0.2140536 0.30776364 0.15757874 0.0660403 -0.12929069
0.16080903 0.04338114 0.09194857 -0.082284644 0.13825855 0.07156575 0.10813664 0.18515162
-0.07800707 -0.03957811 0.122925915 0.009105104 -0.08680886 0.20461953 0.15982518 0.09323578
-0.045176923 -0.12163951 0.048710026 0.015256412 -0.026614832 0.025092008 -0.01333071 -0.00066227285
-0.0008829805 0.17780298 0.13861491 0.09791058 0.027825132 0.025255075 0.11803392 -0.059937745
0.02282062 0.09159748 -0.017308712 0.08398361 0.14010179 0.27937645 0.033703938 -0.047622904

actor_direction.0.weight f4 [128, 64]
00000000: 42d2 903e 8f41 b4bd 0cee ce3d e96a dabc
00000010: b7c7 81be 477f b4bd 1e01 8e3d b063 b73d
00000020: da8b c43e e450 ffbc 537e 7d3e 02b2 4e3e
00000030: 49cd 153e 36f0 efbd f251 033d 63a7 2b3c
00000040: 7cef c63e 792b b53e ce83 913e 170a 003e
00000050: 1daf a9bd 8dd7 843e fd80 533e 9ef5 acbd
00000060: 678c a7bd 3f7a 3d3e 808c ad3e 4652 483e
00000070: 8f73 283e 1918 af3d 677a 1c3e 623a b93c
00000080: cc72 893e 79d1 8b3e 297e 293b 335b 2fbe
00000090: 5ee4 553e f6cb d03d 9817 0f3e f608 503e
000000a0: 33aa 913d 1415 a13e d9e9 113e 0343 903e
000000b0: 89e1 043d 7601 393e a50d 2f3e 1346 c6bd
000000c0: 0307 07be f46e 583e ba1b 88bc 9a5b ac3e
000000d0: af70 003e fe7d 5fbe 0604 80bd 481e 50bc
000000e0: 4316 5abd 5f3b 7b3e 910b 9bbd dbc5 8abd
000000f0: c521 773e d8ed 5a3d f43d e33d 5d8a cd3c
00000100: 4ffa 3e3e e423 8fbc 318a a33d f070 343e
00000110: ee0b 0fbe e01f 853e 735a 4f3d d526 723d
00000120: 2d8c 2a3e 8e86 503e 0e38 4abd 023a 833d
00000130: b5c9 673d 1f8d 303d 4356 dd3d 636d 153e
00000140: cc01 493d fb73 143e e9f6 da3d a937 eb3d
00000150: 58e2 863e b898 fa3d 4595 4b3d 1a17 093b
00000160: e42d eb3b 0b1e ad3b 1b57 e33d 434d 2c3d
00000170: ad26 e03d d22f 213d 6b53 3a3e 9b12 bb3d
00000180: 1e70 e7bb 0430 d53c 6749 343e a317 d2bd
00000190: e866 103d d821 253e fa58 1e3e df2b da3d
000001a0: 3d2b 903d ba60 2e3d c265 603e 40f1 873e
000001b0: 0ad3 463d 4262 1b3e f8f8 e1bb 84c0 e73d
000001c0: 128a 803e aa83 6e3d 9aa7 d9ba cccb bebd
000001d0: 6549 db3d 50e5 973d 7a27 5a3e 72e7 a33e
000001e0: c2dc 693e 19c6 323e 6680 393e 65d1 913c
000001f0: 3192 013e a082 2e3d 6d17 f83d f692 753e
00000200: a2bf 393b ee58 90bd 9621 4b3e 2e9d 5ebe
00000210: 1265 8abe 7f70 d43d b36c 5d3e 6524 7c3e
00000220: d864 2a3e a1c0 203e fd05 723e 534d 87bd
00000230: 7824 563c 3d25 013e bbb5 8abe ce3c cf3d
00000240: f086 7f3e e77c a93e be81 c93e 3424 e4bd
00000250: 44aa e23d f91d 203e e289 a23e 0f57 a93c
00000260: fcfd 97bc de28 1d3e bcae 95bd f2ea b13d
00000270: 7204 423e 8bd6 c13e e1d4 9dbd d02b a23e
00000280: 6d7a 1b3e 6220 9b3d 46c9 35bd 0858 fd3b
00000290: 0a49 7abb 9ca3 a63d a285 bb3d 401a 743e
000002a0: 367a 4a3d 6605 d8bd 535e 913e e785 363e
000002b0: 1aee 883e 6d5c b7bd 8394 0a3e be6e 38bc
000002c0: 6f91 1c3d 04f0 6bbd 79f6 443e 4368 8fba
000002d0: cf79 62bd a82b 5b3d b92e 243b b629 393e
000002e0: 5b81 8c3d 88f3 8c3e 0d5e 30be 1927 68bd
000002f0: 18db d83d 763a 003e c255 1fbd b753 d33d
00000300: d48d 7c3d 325f 82bd bab1 843e 1e50 6c3e
00000310: e8cd 3abd 97b1 553c af99 b23d 555d 3f3e
00000320: 4a68 2fbe 9212 203e e7a2 653c 6039 383d
00000330: 99eb 523e 00b8 1f3e 8736 3fbd 091b 7b3d
00000340: d074 8abd 6ef7 1c3e c3fc 24be d429 0dbd
00000350: 8697 653d ae77 573e a8f7 63bd 2b8f 203e
00000360: 6bd7 4e3e 280a 0e3e 1d87 3d3e c3aa 1cbe
00000370: c412 183e 1b70 503e 3c03 fc3d 908d 063e
00000380: 3ac8 e63d 88db 063e e5c7 663d be4f 673d
00000390: 29c3 d53d 5d0d 9a3d 8c98 2d3e 9410 773e
000003a0: 88ee 8a3d 11d1 0e3d 5217 643e ffb5 063d
000003b0: 0a3d 8abd f95d d83c 89ac 483d bdda 563d
000003c0: c819 373e 46ba 0d3e 731c ec3b 4718 753d
000003d0: ccf1 683e 16f7 e8ba 7b95 f53d 500d 263e
000003e0: e2df c13d b46e f23d 7123 e13d 408a 7b3e
000003f0: e913 293d f8db dfbc 0e46 373e 4607 703e
0.28285414 -0.08801567 0.101039976 -0.026662307 -0.25347683 -0.08813339 0.06933807 0.08954561
0.38387948 -0.031166501 0.2475522 0.20185092 0.14629091 -0.117157385 0.03206057 0.01047692
0.38854587 0.3538473 0.28420871 0.12503849 -0.08285353 0.25945702 0.20654674 -0.08445285
-0.081810765 0.18503664 0.33896255 0.19562635 0.16450332 0.08549518 0.15281068 0.022610847
0.26845396 0.27308252 0.002586255 -0.17124633 0.20887896 0.101951525 0.13973844 0.20315918
0.07112541 0.31461394 0.14249362 0.28176126 0.03244165 0.18066964 0.17095049 -0.09681334
-0.13186269 0.21136075 -0.016614784 0.33663636 0.12542985 -0.21825406 -0.062507674 -0.012702532
-0.053243887 0.24534367 -0.075705655 -0.06776019 0.24133976 0.05344948 0.11095801 0.02509039
0.18650173 -0.017473169 0.07985342 0.17621207 -0.13969395 0.2600088 0.05062337 0.059119064
0.16655035 0.20363829 -0.049369864 0.064075485 0.056588847 0.043103334 0.10807469 0.14592509
0.04907398 0.14497368 0.106916256 0.11485226 0.26344562 0.1223616 0.0497029 0.002091831
0.0071771014 0.0052831224 0.111005984 0.04206587 0.10944877 0.039352246 0.18195884 0.09134408
-0.007062926 0.026023872 0.17606126 -0.102584146 0.03525439 0.16126192 0.1546363 0.10652899
0.07039497 0.042572714 0.21913818 0.26551247 0.048541106 0.15174201 -0.0068961345 0.11316016
0.2510534 0.058231033 -0.0016605735 -0.09316215 0.10707358 0.07416785 0.21304122 0.32012516
0.22838119 0.17458381 0.18115386 0.017800042 0.12653424 0.042605042 0.12113843 0.23981842
0.0028342982 -0.07048212 0.19837031 -0.21739647 -0.27030236 0.103730194 0.21623497 0.24623258
0.16640031 0.15698482 0.23635097 -0.06606545 0.013070218 0.12611862 -0.27091774 0.101190194
0.24953818 0.33103105 0.39356798 -0.11139718 0.11067632 0.15636434 0.3174582 0.020671396
-0.018553726 0.15347621 -0.073087186 0.086873904 0.18947008 0.37858996 -0.07706619 0.3167405
0.1518342 0.07574536 -0.044381402 0.0077314414 -0.0038190507 0.08136675 0.09156348 0.23838139
0.049432956 -0.10547905 0.28392276 0.17824517 0.26744157 -0.08953176 0.13533215 -0.011256872
0.038224634 -0.057601944 0.19234647 -0.0010941107 -0.055291947 0.05350843 0.0025052263 0.18082318
0.0686061 0.2752955 -0.17223378 -0.05667791 0.10588664 0.12522301 -0.038900144 0.10318702
0.061658695 -0.06365813 0.25916845 0.23077437 -0.045606524 0.013042829 0.08720719 0.18687947
-0.17129627 0.15632084 0.01401589 0.044976592 0.20597686 0.15597534 -0.04668286 0.06130508
-0.067605615 0.15328762 -0.16112046 -0.03446372 0.056052707 0.21041748 -0.055656105 0.15679614
0.20199363 0.13871062 0.18508573 -0.15299515 0.14850909 0.20355265 0.123053044 0.1313994
0.11268659 0.13169682 0.056342978 0.056472532 0.104376145 0.0752208 0.16952723 0.24127418
0.067837775 0.03486735 0.22274521 0.03288841 -0.067499235 0.026411997 0.048992667 0.0524547
0.17880929 0.13840589 0.00720554 0.059837606 0.22748488 -0.0017773833 0.11991402 0.16216016
0.094665304 0.11837521 0.10993088 0.24564457 0.041278753 -0.027326569 0.17897817 0.23440275

actor_direction.0.bias f4 [128]
00000000: 47a7 f03c 1bd4 a03d 06cb 1c3e ae24 313e
00000010: b8f4 d43d 0d59 0e3d e8c0 513e 8e64 c93d
00000020: 1156 06bc 572e 573d 3c6a 113e 37f7 a23e
00000030: 6306 9f3e 382d 86bc 5bfc 4a3e 7b2d 723e
00000040: 3de2 123e f6bf 833d ab9f 103e 23e5 023e
00000050: 5142 543e 0616 243e 0f14 393e 5caa 703e
00000060: 0fd0 813e f9be 553e e415 9f3d 44be 1c3d
00000070: 5ea8 e23c 55f9 9b3d 4419 123e da91 6a3e
00000080: efb1 ac3d f870 d53d 7746 423e f51c 613e
00000090: 0555 a33d 7564 053e 3882 7f3e 92bc 443e
000000a0: 69b7 163d 6f65 823d 0e47 153e cd6b 173e
000000b0: 7c60 c63d 03a5 3b3e 0874 613e cc65 493e
000000c0: d1b2 743c 4a7a 873e 4f5c 473e d919 3a3e
000000d0: 05f5 583e 5f86 6b3e cd4a 423d a49b 293e
000000e0: 7085 d53d f3d8 083e 496d 143e cff0 853a
000000f0: 8412 fd3d a3fd 8b3d 558b 443e fc83 043e
00000100: 5e7b 8f3e 7714 5c3e ad66 353e 82db 043e
00000110: 3a3b 5c3e 66b8 413e 0ace bebc 3035 6b3e
00000120: 6234 b73d 3c41 023e 93d2 843e f7a5 c03c
00000130: 13c0 7d3e 649a 553e ac23 133d b90e 3a3e
00000140: 2308 a23c 9651 993d 8446 333e dfa8 523e
00000150: c77f 6c3e fb1e 593e bfcd 643e c533 1a3d
00000160: 3bbb 2a3e 733d 443d c091 943e cbe8 6e3e
00000170: 82af 1f3d 2a3b 6e3e c7cf c73d 6fb2 8d3e
00000180: b11b 8a3e bd99 de3d a687 433e 3aee a23e
00000190: 2e9d 7f3e 4b0f d43c 51ce 5e3e ff6f 1c3d
000001a0: 905e 133e 8920 8b3e 106d 8a3e 3f6a ed3d
000001b0: b51c 1f3e e9a2 323e f9c8 123e 260e 033e
000001c0: ce26 853d 034b 343e 31f0 083e 4e51 063e
000001d0: 8f3b eb3c ed37 2a3e 943f 883d 7671 303e
000001e0: dbaa 873e 25ff b7ba 9478 6f3e d34a 153e
000001f0: e6e2 323e 909a 383e a5f0 373e cd19 6d3e
0.029376639 0.07852956 0.15311822 0.17299148 0.10398239 0.034752894 0.20483744 0.098336324
-0.008199231 0.052534427 0.14200681 0.31829235 0.3105956 -0.016378984 0.19822828 0.23650162
0.14344116 0.06433098 0.14123408 0.12782721 0.20728423 0.16024026 0.18074058 0.23502487
0.2535405 0.20873632 0.07767847 0.03826739 0.027668174 0.07615916 0.1426745 0.229072
0.08432376 0.10421938 0.18972193 0.21983702 0.079752006 0.13026603 0.24952018 0.19212559
0.036796007 0.06367003 0.14577886 0.14787216 0.09686372 0.18324666 0.22016919 0.19667739
0.014935211 0.26460487 0.19468807 0.18173923 0.21187218 0.23000477 0.047434617 0.16563278
0.10425842 0.1336401 0.14494814 0.0010218861 0.12357047 0.06835487 0.19193776 0.12940973
0.2802381 0.21492182 0.17714949 0.1297436 0.21506968 0.18917999 -0.023291606 0.22969508
0.08945538 0.12720197 0.25941905 0.023516638 0.24780302 0.20859677 0.03592269 0.18169679
0.01977927 0.074862644 0.17507368 0.20572232 0.23095618 0.21203224 0.22344111 0.037647028
0.16672985 0.047910165 0.29017448 0.23330991 0.038985737 0.23264757 0.09756427 0.27675197
0.26974252 0.10869167 0.19094715 0.31822377 0.24962303 0.025886199 0.21758391 0.038192745
0.14391541 0.2717326 0.27036333 0.115925305 0.15538295 0.17444958 0.14334477 0.12798366
0.06501542 0.1760674 0.13372876 0.13116953 0.028714923 0.16622896 0.066527516 0.17230782
0.2649754 -0.0014037831 0.2338584 0.14579324 0.17469367 0.18027711 0.17962892 0.23154373

actor_direction.1.weight f4 [128]
00000000: ee6f a33f f22c 853f 8d79 9b3f 9c8a 723f
00000010: 36df 953f eb44 9f3f b8f2 973f 9ac3 853f
00000020: b15b 8d3f b22f 9a3f 2ab1 903f 16cd 8d3f
00000030: 029f a43f ba33 953f c6b6 8e3f b7e6 9d3f
00000040: 2507 a23f a61d 8b3f 90e0 923f d99c 8e3f
00000050: 10f5 8f3f 14d1 923f 6601 903f 815e a83f
00000060: 9afd 8c3f c920 a03f f93d a23f caf8 9a3f
00000070: 78a4 953f 8369 933f 6935 923f 2231 9c3f
00000080: 165c 993f ddc1 933f b255 b13f db4a 8e3f
00000090: 9efd 863f 9bd1 923f 3138 823f 486a 8b3f
000000a0: 80fa 9b3f a46b 843f 4933 983f c519 a03f
000000b0: 46b3 8e3f 2987 893f 70fe 943f 6179 943f
000000c0: d670 873f acdb a23f df25 9d3f c751 a43f
000000d0: e974 a23f cb53 a13f 75c6 893f c861 9f3f
000000e0: 3f32 773f 9af2 973f e9ef a33f 1547 913f
000000f0: 24f8 773f df33 923f c6ff 8d3f 70d7 9b3f
00000100: bbbd 903f 9c7c 993f 3db9 923f fa3c 963f
00000110: ec9e c43f 0fb4 8a3f e2b8 973f 9e28 8c3f
00000120: 5d50 8b3f 1b30 9d3f d1d3 8d3f e269 993f
00000130: c6c2 9b3f 9ff9 8e3f f930 b53f 5990 913f
00000140: 5b10 973f 57c4 7c3f b07b 813f d648 983f
00000150: c2df 903f 6d91 8a3f b4f5 963f 85e6 b73f
00000160: 1de5 8c3f ec1d 933f 2400 9c3f 00cd 8f3f
00000170: a5f5 993f 5a14 793f c815 a23f 4d3d 883f
00000180: 6df0 853f f197 8f3f 3a34 9d3f 2125 8a3f
00000190: b839 933f 4bd2 a33f 7a69 9d3f 52a2 8c3f
000001a0: ba6c 863f 38ff 8b3f 372f 953f 95f7 8a3f
000001b0: 21f1 823f 1649 ae3f b2fb a23f 962f 893f
000001c0: 4940 713f 7967 953f 8d21 9b3f 3e82 853f
000001d0: 6854 853f b5a6 7f3f cabe 943f 2b7e a23f
000001e0: f0dd a43f 2ed9 b13f cff3 9b3f 17f2 9d3f
000001f0: 27d2 9c3f b5a7 9b3f b15c ad3f 7993 983f
1.2768533 1.0404341 1.2146469 0.9474275 1.1708744 1.2442907 1.1870947 1.0450318
1.1043607 1.2045805 1.1304066 1.1078212 1.2861025 1.1656411 1.1149528 1.2336034
1.265843 1.0868423 1.1474781 1.1141616 1.1246662 1.1470056 1.1250427 1.315384
1.1014893 1.2510005 1.2675163 1.2107174 1.1690817 1.1516575 1.142255 1.2202494
1.1981227 1.1543537 1.3854277 1.1116594 1.0546148 1.1470217 1.0173398 1.089181
1.2185822 1.0345349 1.1890651 1.2507864 1.114846 1.0744373 1.1640148 1.1599542
1.058131 1.2723289 1.2277182 1.2837456 1.2691928 1.2603697 1.0763689 1.2451715
0.96561044 1.1870911 1.280759 1.1349818 0.9686301 1.142208 1.1093681 1.2175121
1.1307901 1.1991153 1.146278 1.1737359 1.5360999 1.08362 1.1853297 1.0949895
1.08839 1.2280306 1.1080266 1.1985438 1.2168815 1.1169928 1.415557 1.1372176
1.1801866 0.9873709 1.0115871 1.1897228 1.1318285 1.082563 1.1793733 1.4367224
1.100742 1.1493506 1.2187543 1.1234436 1.202809 0.9729668 1.2662897 1.0643708
1.0463997 1.1218244 1.2281563 1.0792581 1.1501989 1.2798551 1.2297814 1.0987036
1.0501931 1.0937262 1.1655034 1.0856806 1.0229837 1.3616054 1.2733061 1.0717647
0.94238716 1.1672202 1.2119614 1.0430372 1.0416384 0.9986375 1.1620724 1.2694753
1.288023 1.3894403 1.218378 1.2339505 1.2251633 1.2160555 1.3543912 1.1920005

actor_direction.1.bias f4 [128]
00000000: 6b88 133e ee41 1ebd ba83 c33d af56 b4bc
00000010: 067e 8c3d 4480 963d 098f 213d 059c 02bd
00000020: fafb 83bb 3ed7 3b3d 90fd bbbb 7ad2 113d
00000030: 4a29 f33c cf6a 943d 69e9 093d 9eb2 7c3d
00000040: c3e7 e93d 1e03 af3c 3caa 0abc 89c1 883d
00000050: 6a73 93bd 9c68 bcbc 8dd4 0e3d 3542 693d
00000060: 1c85 753d 6d78 4c3c 4a9e 043e adcc db3d
00000070: 5e8f ce3d 7a74 263d d447 903c 4ba4 cc3d
00000080: 05d6 bcbc 991a a9bc 32d3 f53d 65c5 cbbd
00000090: 93ae a93d 0291 c2bc cbc8 0f3d d1de 033e
000000a0: 4272 5bb8 6cf5 913c 127e ad3c e02d 8bbc
000000b0: ce91 5d3d b11b a03d 67d4 f5bc 49d6 453e
000000c0: dc1b 013d 125c 213d 0f54 2a3d d63b 69bc
000000d0: 4af5 c93d 567f a13d edca 40bc 0299 a93d
000000e0: a7c2 62bd 1575 de3d 0f2a 9f3d 709e 77bb
000000f0: 89f4 9fbd e589 363d 62e9 cc3d 1506 483e
00000100: 11f3 7bb9 8b60 be3d 7ea3 473d 0da5 1c3d
00000110: 49a2 2a3e 7c1c 30bd 512d c3bc 7942 cfbb
00000120: b513 783d 9bde a43c befd 0c3e c65e adbc
00000130: 252a e43d feff 613d 4dd2 163e 4eeb 563e
00000140: 6314 dbbb cf2f 033e a23e 103d 4e20 783d
00000150: 392b b93d 9775 8c3d b54b a23d 32a1 de3d
00000160: 7ead d13d be23 ac3d 05fa fe3b 1c38 853d
00000170: aa5a e93d 5a5c 993d fb70 453e d149 aeba
00000180: 9e7a eabc 2971 523c f1fd 043e ccf3 fb3c
00000190: 3895 953c 1acf c73d 5399 f33d 7fa0 3c3d
000001a0: 15bd d23d cc07 8b3d 65db 803d 6d50 fc3d
000001b0: ec46 61bd 7cb9 d63d 7717 4b3d 72c8 363d
000001c0: 36a9 9ebd 171a 0d3d 9471 8c3d 5c14 b13d
000001d0: 7983 a6bb 07fc b53b 2b00 813d 38f9 3a3d
000001e0: fdec f43d 925c 0b3e c438 bf3d bbba e53c
000001f0: 5e13 473d 822b 623d 1396 313e e5f5 e13d
0.14407508 -0.038637094 0.09546609 -0.02201399 0.068599746 0.073486835 0.03944305 -0.031887073
-0.0040278407 0.045859568 -0.005737014 0.035601117 0.029682774 0.072469346 0.033669863 0.06169378
0.11421158 0.021363791 -0.008463439 0.06677539 -0.07199748 -0.0229991 0.034870673 0.056947906
0.059941396 0.012479884 0.12951007 0.10732398 0.10085939 0.040638424 0.017612375 0.09992274
-0.023051271 -0.020642566 0.12003173 -0.099497594 0.082852505 -0.023750786 0.0351036 0.12877966
-5.232008e-05 0.017817222 0.02117828 -0.016989648 0.05409413 0.07817782 -0.030008508 0.19320025
0.03152071 0.039394446 0.04158407 -0.014235457 0.09861238 0.078856155 -0.011767131 0.08281137
-0.055361416 0.108621754 0.07771694 -0.0037783645 -0.07810313 0.0445651 0.10005452 0.1953357
-0.00024027775 0.09295758 0.048739903 0.038243342 0.1666347 -0.042995915 -0.02382532 -0.006325063
0.06056567 0.020125678 0.1376867 -0.021163356 0.11140851 0.055175774 0.14728661 0.20988199
-0.00668578 0.12811206 0.03521598 0.060577683 0.09041447 0.06858366 0.07924596 0.10870589
0.10238169 0.08405255 0.0077812695 0.06504843 0.11394246 0.07488318 0.1928138 -0.0013297145
-0.028622922 0.012844362 0.12987496 0.0307559 0.01825963 0.09756298 0.11894479 0.0460515
0.10289971 0.067885965 0.06291846 0.123200275 -0.054999277 0.10484597 0.049582925 0.044624753
-0.07747118 0.03444871 0.06857601 0.08646461 -0.0050815907 0.0055537256 0.0629886 0.04564783
0.119592644 0.13609532 0.09336999 0.028043142 0.048602454 0.055217274 0.17342405 0.11033229

actor_direction.4.weight f4 [64, 128]
00000000: 4ff9 67be 778f dc3c ceb2 17bd 02da d13d
00000010: f3bb 1dbe ecd0 c93c c494 c33c d339 933c
00000020: c283 523d 935f 8cbd e85e a5bd d09b 9e3d
00000030: 7000 6b3d 3efc ff3d e188 783e 481a 6ebc
00000040: fc23 e23d 42bd 163e cef7 e53c 8531 823d
00000050: 7636 023e 8c70 acbd feba 993e af71 26be
00000060: 78f9 3fbe de73 efbd 4019 56be 6e33 c5bd
00000070: b58d 6cbe c91d 32be 893e 173d d1a1 2b3e
00000080: 0601 a93c 8554 69bd da54 5a3d b97f 003e
00000090: decc 2bbd 3062 37bc be00 d53d 139d 2bbe
000000a0: 9f81 81be 7181 d4bd d0fc a13d c9ad b63e
000000b0: 06c3 1dbe 31e8 1fbe 5173 4f3c 4644 58be
000000c0: 466c 9abd d948 acbd 6ad0 0d3e b298 d6bd
000000d0: 2396 af3e 1236 1fbe bbd3 9e3d 8ded 493e
000000e0: 182d edbd 36f8 20be ae12 4a3d 967a 063d
000000f0: 9468 003e fba9 f8bd 7bc1 12be f446 493d
00000100: ff1f 5b3e 81db 0dbe fbe2 a33e 837f 8d3e
00000110: b5a3 4cbe 511e 7e3e e0c0 cb3d c194 113e
00000120: 4b48 44be 71b1 29ba edbc 1abe 000b 213d
00000130: 9023 383e aeb6 75bd 1646 37be 0674 f7bc
00000140: db0e 1bbb 8d27 6d3b 04a0 03bc 52ea 54bc
00000150: a2a4 46be c7cb 193d 4028 a83e c96c 9fbd
00000160: dc90 8e3d f1ac 763d 4ff9 c03e 8285 5a3d
00000170: 2eeb ac3b 4e6d b13d 6f68 95bd c89f 6c3d
00000180: de32 3aba dac4 d73c 289e 183e 8f40 b9bb
00000190: eedc 323e 4653 623d 7b9d 04be 9421 1e3e
000001a0: d61d a13d d9a0 d23d 84ff d7bd ec30 e1bd
000001b0: e955 3c3e 8cda 44be 531e bb3e 0a8c abbc
000001c0: 6747 b6bd 0e4c acbd 096f 2dbe c60b a3bd
000001d0: 0df1 cb3c b30b 93be 9bd7 073d b70e 99bd
000001e0: fa13 533e 2904 a2bd 89e6 c1bd 6da5 0bbe
000001f0: 1917 923d 0ac2 073d 3f61 32bd 39f4 013e
00000200: 6424 68bc e9b7 a53d fd9c 89be 1f98 1f3d
00000210: 0501 ccbb 3a7e c33d 1769 e23d c65d 9f3d
00000220: acda 323e fcb9 d7bd 1e4c 5e3d 0199 b33d
00000230: 0476 edbc 3751 363e 23db eb3c 123e 0c3e
00000240: 9492 523e 3a51 003e dafe 0abe ccbe e03d
00000250: df53 0d3d 40c3 2c3e bba8 c83d 0c7b 6fbe
00000260: de2e e23d 7c47 963d 9842 f03d 3308 753e
00000270: 27ec abbe 01ad b9bd c852 423e fa9a ef3d
00000280: 3ffd 623b 939d 203e f8a1 7e3e 8f58 35be
00000290: 153c 17be fab9 1f3e 1e76 f33c a0bc 133e
000002a0: 319b dabd 7d94 893d 367a 1ebe 8a12 4b3c
000002b0: f366 c53c ffa4 5abd a669 d73d 0ed1 0abd
000002c0: 4b9d 933d f19a 4f3e 6a7c a23b a8e6 0abe
000002d0: 037d 4e3e 9c10 64bd 9573 d13d b767 ccbd
000002e0: b308 86be 941a 253e a4b5 203e eebb 413e
000002f0: 6641 5b3e 4224 5d3d d162 243b d8dd 9bbc
00000300: ffd0 bc3c 480c dcbd 9d73 963d 85a5 4e3e
00000310: 428a c53e 2384 a5bd 4aa2 063e 134b 6a3e
00000320: 799c 06bd 7307 803d 1e11 4bbe 4eb1 2b3e
00000330: ff05 283e 09ce 3ebe 958d 8dbe 2e29 8cbe
00000340: c399 db3d 2b4b 07bd 74fa 1ebe 8c13 2c3e
00000350: a144 513e 76f1 c43d 1a41 263d f80f 213e
00000360: 38cf 28be 33d5 093e 61e1 e4bd 04fb 823e
00000370: 249d e53d a979 04bd ffdb b53d 3867 a03d
00000380: cf81 1e3d e637 b6bd 2b1e 753e 8f52 abbd
00000390: ae07 833d 607e 693e 6569 553c 213a f53c
000003a0: 7ebd 323e cdc9 80be f984 73bd 6063 9abe
000003b0: e564 6c3d 0e67 8cbe a8c3 1f3d 3ffc 43bd
000003c0: d122 523d 838d c6bd 4f21 c13d cc88 55bd
000003d0: 10d5 bdbd fffa 5dbe a3dc ae3d b728 263e
000003e0: 138f 2a3e b02f 9ebd 592f 613d c6eb 603e
000003f0: 2ad3 b03d 1858 3c3e e69e 96bd ac0f 8dbd
-0.22653697 0.026923878 -0.037035756 0.1024666 -0.15403728 0.024635755 0.023874648 0.017971909
0.051395185 -0.06854167 -0.080747426 0.077445626 0.057373464 0.12499283 0.24270965 -0.014532633
0.1104202 0.14720634 0.028072264 0.06357101 0.12716088 -0.08419904 0.30025476 -0.16254304
-0.18747509 -0.11692022 -0.2090807 -0.0962895 -0.23100932 -0.17394175 0.036924873 0.16760947
0.02063037 -0.05696537 0.053303577 0.12548722 -0.041943423 -0.011192843 0.10400532 -0.16759138
-0.25294206 -0.103762515 0.07909548 0.35679463 -0.15406427 -0.15615918 0.012661771 -0.21119794
-0.07540183 -0.08412332 0.13849035 -0.10478343 0.34294233 -0.1554797 0.07755228 0.19719525
-0.115808666 -0.15719685 0.04933422 0.03283175 0.12539893 -0.12141796 -0.1433162 0.04913993
0.21398924 -0.13853265 0.3200911 0.27636346 -0.19984324 0.24816252 0.09948897 0.14216901
-0.19168203 -0.0006473279 -0.15111132 0.03931713 0.17982316 -0.05998867 -0.1789783 -0.030206691
-0.0023659978 0.0036186904 -0.008033756 -0.012995319 -0.1939874 0.037547853 0.32843208 -0.07784421
0.069612235 0.060223524 0.37690207 0.05334998 0.005277059 0.08663426 -0.0729531 0.057769567
-0.0007102917 0.026338983 0.14904082 -0.005653448 0.1746709 0.055255197 -0.12950699 0.15442497
0.07867019 0.102845855 -0.105467826 -0.10995659 0.18392147 -0.19223994 0.36546573 -0.0209408
-0.08900338 -0.08412944 -0.16936888 -0.0796123 0.024895215 -0.28719863 0.0331646 -0.0747351
0.20613089 -0.0791095 -0.09467799 -0.13637324 0.07133312 0.033144034 -0.043549772 0.1269082
-0.014168832 0.08091719 -0.26877585 0.038963433 -0.0062257075 0.0954556 0.110552005 0.07781558
0.17466229 -0.105335206 0.05427181 0.087694176 -0.028986938 0.17804419 0.028791016 0.13695553
0.20563728 0.12530985 -0.1357378 0.109738916 0.034503814 0.16871357 0.09797808 -0.23386782
0.110440955 0.07337853 0.11731452 0.23928909 -0.33578607 -0.09066201 0.18976891 0.11699481
0.003463581 0.1568511 0.24866474 -0.17709564 -0.14769013 0.15598288 0.029719409 0.14427423
-0.10674132 0.06717775 -0.15476307 0.012394557 0.024096942 -0.05338001 0.10518198 -0.033890776
0.07207736 0.20273949 0.004958679 -0.13564551 0.20164876 -0.055679902 0.10227124 -0.099807195
-0.26178512 0.1612342 0.1569429 0.18919346 0.21411666 0.053989656 0.0025083313 -0.019026682
0.023048876 -0.1074453 0.0734627 0.20180328 0.38582045 -0.08081844 0.13147846 0.22880201
-0.032864068 0.06251421 -0.19830748 0.16766855 0.16408537 -0.18633284 -0.2764708 -0.27375168
0.10722687 -0.03303067 -0.15525228 0.16804332 0.20436336 0.096163675 0.04058943 0.15728748
-0.16485298 0.13460235 -0.111758 0.25582135 0.11211613 -0.032342587 0.088798515 0.078321874
0.038698014 -0.088973805 0.2393729 -0.08365356 0.06397949 0.22802114 0.013025616 0.029934945
0.17455098 -0.25153962 -0.059452984 -0.30153942 0.057713408 -0.27422374 0.03900495 -0.047847982
0.051302735 -0.0969496 0.09430181 -0.052132413 -0.09269154 -0.21677779 0.08538177 0.16226469
0.16656141 -0.077239394 0.054976795 0.2196494 0.08634026 0.1839298 -0.07354526 -0.06887755

actor_direction.4.bias f4 [64]
00000000: 60b8 1a3e 0289 a43d 87f4 033e 140e 403d
00000010: 7bcc ad3d c8b2 e03d 9fd1 8b3d 7500 cd3d
00000020: 8b84 853e 4618 2c3e 202c bb3d da7b 54bc
00000030: 99e0 bd3d e4fc 283e a38b e23d abfa 0d3e
00000040: 1711 f03c 08ee 333e fec7 183e fa8a 743c
00000050: ead1 863e 925c 873d f2b8 3e3e 3c8e cd3d
00000060: 1eec b83d a50f 193d 1727 153e bdec 993d
00000070: ac30 d63c cdea 253e bf34 c43d a61d d63d
00000080: 4359 a53d 1a41 b73d cf1b 863e 7c6b 2f3d
00000090: 6b83 8ebb 0832 4b3d d02a d53d c9e8 253d
000000a0: 69cf 843d 2c67 3a3e c14f 603e 0e23 c63c
000000b0: b247 d53d 001d 423e ff22 ae3d d772 bb3d
000000c0: 062a 373e f415 733d 1955 3e3e 2806 323e
000000d0: 91d5 0f3e be35 4e3e 0a5f 803d f8ba 223e
000000e0: 31cd d03d d21a dd3d d92f ee3d 6fc4 423e
000000f0: 7056 e43d 15a4 763d ab6e f33d 96b7 613e
0.15109396 0.08033945 0.12886249 0.046888426 0.08486267 0.109716 0.068270914 0.10009853
0.26077685 0.16806135 0.091392756 -0.012968982 0.09271354 0.1650272 0.1106179 0.13865153
0.029305024 0.1757127 0.14920041 0.014925713 0.26332027 0.06609453 0.18625239 0.10036895
0.09029411 0.037368435 0.14565693 0.07515857 0.026146255 0.1620285 0.09580373 0.10454874
0.08073666 0.08947964 0.2619309 0.042827114 -0.0043491623 0.04960826 0.104085565 0.040505204
0.06484873 0.1820342 0.21905424 0.024186637 0.104140654 0.18956375 0.08502769 0.09152763
0.17887124 0.059347108 0.1858715 0.17385161 0.14046313 0.20137689 0.06268127 0.15891635
0.10195387 0.10796131 0.1163022 0.19020246 0.11149299 0.060215075 0.118863426 0.22042689

actor_direction.5.weight f4 [64]
00000000: 6061 943f 3fb1 803f 20b8 9c3f d716 743f
00000010: db3a 8b3f 9a78 893f 2b0f 843f d949 843f
00000020: c35b 8b3f a158 8f3f 3a67 663f d3f2 713f
00000030: 7885 893f ba5e 9b3f 651b 983f 537a 923f
00000040: c50b 8c3f 3af3 953f 5332 823f 6ea7 973f
00000050: 4107 843f c36e 9b3f 32b7 803f 09b6 943f
00000060: 5833 9c3f 6ccf 773f 326b 863f 8741 8d3f
00000070: f58c 7e3f d100 833f b3f9 983f aa4c a03f
00000080: 647b 7b3f 0094 863f 0885 973f 5f04 8f3f
00000090: fa20 5d3f 6262 7e3f 97f4 7f3f f692 833f
000000a0: 698d 743f 19a9 863f 6177 9a3f 4741 8f3f
000000b0: 58b0 853f 1194 8e3f 9697 973f 7577 793f
000000c0: f817 8a3f 1c83 883f 8cb6 813f a582 9b3f
000000d0: 542a 883f ec68 793f 98c5 8c3f bb09 a53f
000000e0: 0daf 883f a296 853f 9f9c 9d3f 4f45 973f
000000f0: fbe5 833f efe7 893f 4ca8 9e3f 240f 6e3f
1.1592216 1.0054091 1.224369 0.9534735 1.0877336 1.073993 1.0317129 1.0335037
1.0887378 1.1198922 0.9000126 0.94511145 1.0743856 1.2138283 1.188336 1.144358
1.0941092 1.1714852 1.0171608 1.184797 1.0314714 1.2143177 1.0055907 1.1618053
1.2203169 0.96800876 1.0501463 1.1035622 0.99433833 1.0234624 1.1951202 1.2523396
0.98235154 1.0513916 1.1837473 1.1173209 0.86378443 0.9936887 0.9998259 1.0279224
0.95528275 1.0520355 1.2067682 1.1191796 1.0444441 1.1138936 1.1843135 0.974479
1.0788565 1.0665011 1.0133834 1.2149245 1.0637918 0.97425723 1.0997801 1.2893595
1.0678421 1.0436594 1.2313422 1.1818026 1.030456 1.0773906 1.239511 0.9299185

actor_direction.5.bias f4 [64]
00000000: 736d e33d a524 dc3d c6c0 143e 76dd e4bd
00000010: ebd5 843d a656 853c 1f86 973d 26ef 6a3d
00000020: 9140 ce3d b1a7 213d a761 e3bd 082d 00be
00000030: bd0d 743c 90bb 373e a95f 623c c359 d13d
00000040: 920c 2abc 58b1 203e 883d ecba de3a 183d
00000050: e134 78bb 4f92 0f3e 7ca5 10bd fb9a 203b
00000060: fa50 0a3e 33c9 a9bd a6d4 f53c e3b7 223d
00000070: 5931 aa3c 3891 9abd a84b 25bd 7675 cf3d
00000080: 688c 09be dd53 fe3c db90 3b3e 2a29 743d
00000090: 67a8 a5bd 72da 763d 00f8 0bbe 5e03 74bd
000000a0: 759d 07bd e807 8c3d 35fa b33d 8823 a63c
000000b0: d625 62bd ef3d 273d d5cc 643b 1ae0 133e
000000c0: e6a2 a43d 9f5d 223d 825a 0e3d ce9b 913d
000000d0: d1fe b1bc 87fd 493d 3a07 8c3d 8120 c33d
000000e0: 64b2 063d a1d7 d93c db95 ef3c d3f7 803e
000000f0: 24b2 8cbc e504 ac3c 3480 893d 73e3 3e3d
0.1110486 0.10749177 0.14526662 -0.11175053 0.06486114 0.016276669 0.073986284 0.057356976
0.10070909 0.039466564 -0.1110261 -0.12517178 0.014895854 0.17942643 0.0138167525 0.10222199
-0.010378974 0.15692651 -0.0018023709 0.037165515 -0.0037873315 0.14020656 -0.03531407 0.0024506438
0.13507453 -0.08290329 0.030008625 0.03972615 0.020775484 -0.075472295 -0.040355355 0.10129826
-0.13432467 0.031045849 0.18316977 0.05960957 -0.08088761 0.06026692 -0.13668823 -0.059573524
-0.033109147 0.068374455 0.087879576 0.020280614 -0.055211864 0.04083055 0.0034912128 0.14440957
0.08038883 0.039640065 0.034754284 0.071097955 -0.021727951 0.04931405 0.06837316 0.09527684
0.03288497 0.026592078 0.029246261 0.25189075 -0.017174788 0.020998428 0.06713906 0.04660363

actor_direction.8.weight f4 [32, 64]
00000000: 1ffd aebe 71a3 97be 0dce 8dbe f361 633e
00000010: be10 a5be 53d0 4b3e 3e98 fa3d 278b 893c
00000020: 74d1 043d 4064 c63d 8024 1bbe 574f 203e
00000030: a4b7 bfbc 61e7 b5be 4f0b 32be 08a7 5bbc
00000040: 79f8 29bd bece b9be d7f6 a13c 986f 8b3d
00000050: c99d e13d e465 45be 2bb3 d7bc 7c64 073e
00000060: 6057 d5be 45ad a23d bcc4 f7bd 8f55 e03d
00000070: 1250 c2bd d4f7 893b 9d62 72be a32a 68bc
00000080: 70d0 6cbd c94d 743c 4d24 d6be 697a 2a3e
00000090: 3846 243d 5bde d03c 9523 113e 3678 8e3e
000000a0: 2828 3bbe 84b9 7abd 7959 acbe f685 093e
000000b0: a951 ec3d 7e65 02be 172a 44bb d44d 92be
000000c0: ca56 3bbe f418 a4bd a102 1dbe b7c3 803d
000000d0: 8104 a8bc 5e3e 7cbd b503 81be 5fdf 973d
000000e0: 8195 823e 4555 253e be92 a7bd bc7c 543e
000000f0: 5432 d33c 9538 1cbd 2b24 b9be 34b5 d63d
00000100: cff8 993c 9c62 4fbe fc1b 3a3e fa22 883c
00000110: bfb2 923d e50a 02be 2789 ad3d 1499 b33d
00000120: 7583 0e3d fc56 d7bd ed9d 463d d850 febb
00000130: 1d0f bfbd 7dc9 073e a57c 47bd b7d0 91bd
00000140: 2b70 33be 3e21 543e 9557 133d de81 5b3d
00000150: 6f20 1d3c c7cd e13d 6f9b fa3d bfd7 463b
00000160: 087e 713b 9f77 d73d f358 ea3d a344 3d3d
00000170: a777 06be 0ff7 9c3d 1f77 9bbd b7ef 273d
00000180: 2522 94bd ee83 f4bd 6dd9 153e c0b4 02be
00000190: f75f 9fbd b1da bebd 79ad f9bc 4607 1b3e
000001a0: 8d1e bf3d a07e 203e b34b 983d 2914 ca3d
000001b0: 194c 053d e176 97bd 0665 1d3e b0d8 89bc
000001c0: 834b 463d 84bb edbd 8cd9 8d3d 0be7 1dbd
000001d0: 95ea 363e c268 17be a2ee 8abe 00a5 e33d
000001e0: 6eda f03d 871a 003e 650a 883d 1cf0 7abd
000001f0: 6a84 97bc 370b 42bc 7d4f e3bd 2a51 d9bd
00000200: 73ec 623d 9d6f 303d da48 383d 887c 1a3e
00000210: df8c 843c b0d3 ea3d 5de3 493e f91f 943b
00000220: 3eed 8d3d 2689 6a3d 9d1e ecbc b3f3 9b3d
00000230: 599a 873d 2ab2 063e f377 42bc 66a7 9bbd
00000240: 42de 3a3e b9ad de3d 83cb 3f3d 69b1 66bd
00000250: 54d1 72bc 1a8e fa3d ea27 3e3d 6d56 43be
00000260: 487a 543e 5e6a 083e 5b2a 37bc 93fb bbbc
00000270: 1825 12be ae3a a73d 3272 66bc fa46 edbc
00000280: 9925 90be 73f0 31bd e279 d33d a37b b9bc
00000290: 9be8 38bd 4463 d7bc 0dd3 dcbc 9069 afbd
000002a0: dbbf c13d 5694 9bbd 5603 4c3c 8c76 383e
000002b0: 96e9 d1bd 5674 3fbd b25a cbbd 3d3e 0ebe
000002c0: d26a 85bd ea51 9f3d 044a be3d 5684 c03c
000002d0: f7a3 60bd dcd2 03bd abc9 9d3d 0deb ac3b
000002e0: 7fa8 13bd 4fc2 393c 5ae4 37bd 854d a23d
000002f0: c182 41bd 8020 2e3e 7bd6 9b3d e423 92bd
00000300: bbc8 0cbd 28b8 883d 0630 e4be bbde 993d
00000310: 5cc3 37be 8e7c acbe 1ff9 d4be 2dcb 07bd
00000320: 1bc6 c8be 5ab8 123d 5a8c 9fbe 2373 79bd
00000330: fb43 5bbe 5fd3 0fbf 8def cabe 1a2e 1d3e
00000340: 37ea 9c3c be04 ecbe eacc 9cbe 72b9 5bbe
00000350: 8767 cc3d c6ae b9be cf7a 973d 4490 a7be
00000360: 9d41 04bf c24a a2bd cda8 8dbd dd13 0fbf
00000370: f151 75be d8af 77bd 6965 11bf e9d7 b8bd
00000380: 1652 033e fa57 7b3d c2d0 eebe 5cb9 0bbe
00000390: 27d8 533e 120b 30be f79d 0d3d a55a 8bbe
000003a0: 3312 53be 65f6 81be b06f f7be 6967 81be
000003b0: c6a6 0ebe 9074 a43c f4bf 67be 8ae6 b7be
000003c0: e47c ccbd 45c5 99be 1328 fdbe 6856 bfbd
000003d0: 0309 c1be ac2b 4c3d d4d0 9bbe 3edf 1abf
000003e0: 60fb 83be 3178 01bf e5d7 29bf de33 913d
000003f0: d116 243e c378 64be 1217 b7be afb0 7d3e
-0.3417749 -0.29616883 -0.27696267 0.22205333 -0.32239336 0.19903688 0.12236069 0.016789986
0.032426313 0.0968709 -0.15150642 0.15655266 -0.023402996 -0.3552809 -0.17387126 -0.013406523
-0.041496728 -0.36290544 0.019771023 0.06808394 0.11016423 -0.1927715 -0.026330551 0.13221925
-0.41668224 0.07943205 -0.12098071 0.10953819 -0.094879285 0.0042104516 -0.2367043 -0.014170322
-0.05781597 0.014911124 -0.4182457 0.16648258 0.04010603 0.025496652 0.1417373 0.2782609
-0.18277037 -0.061212078 -0.33662012 0.13430008 0.11539013 -0.12734029 -0.0029932314 -0.28575003
-0.18294826 -0.08012572 -0.15333034 0.0628733 -0.02050996 -0.061582915 -0.2519814 0.074156515
0.25504687 0.16145809 -0.08182286 0.20750707 0.025780834 -0.0381399 -0.36160406 0.104837805
0.018795399 -0.2025246 0.18174738 0.01661824 0.07162999 -0.12699468 0.08473425 0.08769432
0.034793336 -0.10514638 0.048490454 -0.007761102 -0.093290545 0.13260455 -0.048702855 -0.07119887
-0.17523257 0.20715806 0.035972197 0.053590648 0.009590252 0.11025577 0.12236678 0.0030340997
0.0036848802 0.10520863 0.11442747 0.046208035 -0.13131581 0.0766431 -0.0759108 0.041000094
-0.07233075 -0.11939226 0.14633723 -0.12764263 -0.07781976 -0.09319056 -0.030478226 0.15139493
0.09331999 0.15673304 0.074363135 0.098671265 0.032543276 -0.07395721 0.15370569 -0.016826957
0.048411857 -0.116080314 0.069262594 -0.038550418 0.17862923 -0.14786056 -0.27135187 0.111154556
0.11760412 0.1251012 0.066426076 -0.061264142 -0.018495757 -0.011843494 -0.110991456 -0.10611184
0.055401277 0.043075193 0.04499135 0.15086567 0.016180454 0.114661574 0.19715638 0.004520413
0.06930016 0.0572597 -0.028823191 0.07614841 0.06621236 0.13153902 -0.011869418 -0.07600288
0.18248847 0.10872979 0.046824943 -0.056321535 -0.0148204155 0.12234135 0.046424784 -0.19075938
0.20749772 0.13321826 -0.011179532 -0.022947108 -0.14271963 0.08165489 -0.014065312 -0.028964508
-0.28153685 -0.0434422 0.10325982 -0.022641962 -0.045143705 -0.02629245 -0.026956106 -0.08565056
0.09460422 -0.07596652 0.012451967 0.18013972 -0.10249631 -0.046741806 -0.09929408 -0.1389093
-0.06514515 0.07779296 0.09291461 0.023500603 -0.05484387 -0.032183513 0.07704481 0.0052770437
-0.036049362 0.011337831 -0.044895507 0.07924942 -0.047243837 0.17004585 0.07609268 -0.07135752
-0.03437112 0.0667575 -0.4456789 0.075131856 -0.17945617 -0.33688778 -0.41596314 -0.033152748
-0.39213642 0.035820343 -0.31161767 -0.06090082 -0.21412651 -0.561819 -0.39635888 0.15349618
0.019154651 -0.46097368 -0.30625087 -0.2145746 0.09980684 -0.36266154 0.07396471 -0.32727253
-0.5166262 -0.07924415 -0.06916962 -0.55889684 -0.2395704 -0.060470432 -0.56795365 -0.090255566
0.12824282 0.061363198 -0.46643645 -0.13644928 0.20687924 -0.17191723 0.034574475 -0.27217594
-0.20612411 -0.25383297 -0.48327398 -0.25274208 -0.13930807 0.020075113 -0.22631818 -0.35918075
-0.099847585 -0.30033317 -0.49444637 -0.093426526 -0.37702188 0.049846336 -0.3043276 -0.6049689
-0.2577772 -0.5057402 -0.66345054 0.07089971 0.16024329 -0.22311692 -0.3575979 0.2477443

actor_direction.8.bias f4 [32]
00000000: f99c 3cbe 9217 f83c 7d8b 213e fe7c 28bf
00000010: bb22 203f 4d69 ab3e fe87 95bb c465 f03c
00000020: aaac b23d 6e71 f63e 1945 473e 5c78 d939
00000030: f43f 953b 9b32 7d3e a15b 94be ddba b43d
00000040: 1ff6 0c3e fdac e33d f15a ba3d 032f 13bc
00000050: f90d 22bf 229e 293e d315 f93c aed8 7d3d
00000060: 6495 103e 15c2 f63d e551 9b3c 9de8 c63d
00000070: 4b0e 2f3e 714f 573e accd 0e3e 9dd3 933e
-0.18419255 0.030284677 0.15775867 -0.6581572 0.62552994 0.33478776 -0.0045633307 0.0293454
0.08724339 0.48133415 0.19459952 0.0004147914 0.004554743 0.24726336 -0.28976157 0.08824704
0.13765763 0.11116979 0.09099377 -0.008983376 -0.6330257 0.16564229 0.030405914 0.06197422
0.14119488 0.12048737 0.018959949 0.09712336 0.17095296 0.21026398 0.13945645 0.28872386
