saved_model/NEW_ENV2_20250529_20-25-03.pth (torch, 623220 bytes, 111 tensors)

technical_norm.min_val f4 [4]
-0.8426751 -0.99999976 -18.891796 -208.45418
00000000: 8eb9 57bf fcff 7fbf 6622 97c1 4574 50c3

technical_norm.max_val f4 [4]
-0.75473416 0.99999976 35.225014 46.452747
00000000: 4236 41bf fcff 7f3f 6ae6 0c42 9dcf 3942

feature_extraction.0.weight f4 [128, 8]
0.41800943 0.30029726 -0.087450445 -0.30196503 0.049025357 0.176408 0.06722938 0.19811963
0.311811 -0.22679856 -0.15591557 -0.14024836 0.0022054603 0.37187606 0.0878346 -0.18476464
-0.510817 -0.045963738 -0.15620422 0.018082935 0.27126443 0.19870932 -0.11335174 0.28693616
-0.45777956 -0.012938621 0.15087393 -0.19021338 -0.38732412 -0.11230053 0.12448892 0.07648946
-0.45353815 0.1898618 0.32107934 -0.23643573 0.0050559985 0.37464678 -0.092850715 0.051243626
0.10937739 0.44803134 -0.019945398 -0.20564607 0.35032943 -0.055999316 0.091732755 0.045780577
-0.37616888 -0.043995336 0.17387451 0.4600624 0.41553178 -0.20932505 0.07545483 0.33304176
-0.3085798 0.22874182 0.19776322 0.5302097 0.13470706 -0.2203133 0.17059666 0.29012102
0.046296872 0.1235714 -0.03953705 0.27979252 0.104656056 -0.15977216 -0.49831063 0.024268456
0.16035588 0.1502885 -0.38876405 -0.20023124 0.081626154 0.28668156 -0.389738 0.20971143
-0.08686201 0.2540602 -0.11412571 -0.32874843 0.056426577 -0.18974829 0.25697488 0.091162026
0.21030462 0.113595046 0.3465358 -0.43622103 -0.1760775 0.32774135 -0.27845833 0.19573449
0.13932797 0.0536328 0.09117658 0.60473716 0.13091572 -0.0450108 0.1537506 -0.33433047
-0.47599947 -0.05757018 -0.12816666 -0.023429213 0.3007965 0.027815944 0.015742859 -0.5629055
0.24640627 -0.06480907 -0.02351821 0.44151136 0.029516585 0.04319698 -0.16881256 -0.4452403
0.24302635 -0.08567169 0.24455534 0.39409912 0.17792538 0.2030947 -0.28290442 0.24828961
-0.071925126 0.05496949 -0.1748811 0.06861588 -0.10006338 0.12357705 0.16104484 0.22990605
-0.47123936 0.0249619 -0.2578097 0.20870568 -0.15773523 -0.08175142 0.41737893 0.16909343
-0.1328353 0.3361394 0.23629586 0.40953666 0.1944854 -0.18509993 -0.07191512 -0.28660056
-0.37077448 -0.02254036 -0.03866338 0.4388329 -0.0451638 -0.23016809 0.39409742 -0.5878642
0.34518528 -0.17005235 -0.030046348 -0.026093861 0.14820808 -0.1288942 -0.122698426 -0.5660377
0.54474264 0.08701385 -0.27951565 0.20206964 -0.29350442 0.3438653 0.28694558 0.022430927
0.14736865 -0.10621924 -0.04635129 -0.09758312 0.18352172 0.2498991 -0.10584898 -0.08743074
-0.3363917 -0.2555128 -0.20868388 -0.34460497 -0.13504888 0.36802104 0.119697414 0.1267954
-0.10655923 0.3109453 0.12891294 -0.21506664 -0.15845859 0.13061595 -0.23051302 0.22499704
-0.12933867 0.2148526 -0.47377524 0.3824707 -0.25181982 -0.19917867 0.17785396 -0.025189305
0.7224842 0.28269836 -0.22512563 0.30843553 -0.07196972 0.13776578 -0.08802351 0.10467283
0.037378173 0.09383091 0.05089682 -0.3971826 0.052444655 0.2987764 0.0014079916 0.04981336
-0.4182774 -0.051591825 -0.20268348 -0.044629287 0.005264039 0.3786111 0.005822888 -0.689045
-0.46559018 -0.42796433 0.044643737 -0.1535334 0.08413868 0.24456765 0.079852924 0.32462674
0.29793674 0.19073519 -0.11582165 0.26397243 0.12674199 -0.02720542 0.06546452 -0.29274386
-0.052551154 0.4066128 0.3085885 -0.17296141 -0.27388212 0.06087276 0.004939886 -0.21492901
00000000: 5505 d63e 90c0 993e 3819 b3bd 299b 9abe
00000010: d0ce 483d 4ca4 343e 8faf 893d dfdf 4a3e
00000020: b1a5 9f3e e23d 68be 55a8 1fbe 449d 0fbe
00000030: 7c89 103b 8a66 be3e a0e2 b33d f132 3dbe
00000040: e7c4 02bf 7944 3cbd 00f4 1fbe aa22 943c
00000050: 2ce3 8a3e 757a 4b3e f524 e8bd 4ce9 923e
00000060: 1562 eabe 83fc 53bc b27e 1a3e 4cc7 42be
00000070: 594f c6be d2fd e5bd 0cf4 fe3d 82a6 9c3d
00000080: 2736 e8be 226b 423e 8364 a43e 351c 72be
00000090: caac a53b b4d1 bf3e 8428 bebd d6e4 513d
000000a0: 4101 e03d 5d64 e53e 8864 a3bc e294 52be
000000b0: 615e b33e 8a5f 65bd 62de bb3d 6a84 3b3d
000000c0: 3599 c0be 7434 34bd 290c 323e 4d8d eb3e
000000d0: 95c0 d43e 4e59 56be 1088 9a3d 7384 aa3e
000000e0: 2cfe 9dbe 4c3b 6a3e 7182 4a3e d3bb 073f
000000f0: a6f0 093e cf99 61be e4b0 2e3e be8a 943e
00000100: caa1 3d3d 0113 fd3d 9af1 21bd f740 8f3e
00000110: ea55 d63d 509b 23be 9222 ffbe a4ce c63c
00000120: 5534 243e 3be5 193e 150c c7be 6b09 4dbe
00000130: 9d2b a73d edc7 923e bd8b c7be 98be 563e
00000140: b6e4 b1bd 2e14 823e beba e9bd b751 a8be
00000150: 8e1f 673d 604d 42be 3692 833e 28b3 ba3d
00000160: 185a 573e 85a4 e83d 246d b13e 5d58 dfbe
00000170: a94d 34be b7cd a73e 1792 8ebe 9f6e 483e
00000180: feab 0e3e 11ae 5b3d c9ba ba3d 0ed0 1a3f
00000190: c50e 063e 3f5d 38bd cc70 1d3e 5d2d abbe
000001a0: 34b6 f3be b6ce 6bbd 1f3e 03be 9fee bfbc
000001b0: 0002 9a3e 43de e33c 2bf7 803c 931a 10bf
000001c0: ed51 7c3e 9eba 84bd 43a9 c0bc c70d e23e
000001d0: c4cc f13c 51ef 303d 33dd 2cbe 89f6 e3be
000001e0: e6db 783e a474 afbd b76c 7a3e 5cc7 c93e
000001f0: 1232 363e 0ff8 4f3e d9d8 90be a23f 7e3e
00000200: 7b4d 93bd b027 613d 0814 33be 7c86 8c3d
00000210: 08ee ccbd f715 fd3d f0e8 243e 7e6c 6b3e
00000220: 4946 f1be e67c cc3c a2ff 83be f1b6 553e
00000230: 5885 21be 4a6d a7bd b1b2 d53e d426 2d3e
00000240: fa05 08be 771a ac3e 8bf7 713e caae d13e
00000250: 2e27 473e d68a 3dbe 3c48 93bd 4fbd 92be
00000260: 27d6 bdbe 90a6 b8bc 7e5d 1ebd b5ae e03e
00000270: adfd 38bd 2fb1 6bbe 23c7 c93e 457e 16bf
00000280: 20bc b03e 3422 2ebe c223 f6bc cbc2 d5bc
00000290: dcc3 173e d7fc 03be 5049 fbbd d9e7 10bf
000002a0: 4174 0b3f 5134 b23d ad1c 8fbe 58eb 4e3e
000002b0: 3646 96be 1d0f b03e 88ea 923e 10c1 b73c
000002c0: cfe7 163e 7989 d9bd dada 3dbd a9d9 c7bd
000002d0: 1eed 3b3e 8de5 7f3e 5ac7 d8bd e30e b3bd
000002e0: 883b acbe 93d2 82be 3ab1 55be 1070 b0be
000002f0: 414a 0abe 416d bc3e eb23 f53d a7d6 013e
00000300: ba3b dabd 3934 9f3e c101 043e 6e3a 5cbe
00000310: f842 22be 30c0 053e 9b0b 6cbe a065 663e
00000320: 5b71 04be 5202 5c3e ab92 f2be 33d3 c33e
00000330: 87ee 80be 7ef5 4bbe 591f 363e cd59 cebc
00000340: b9f4 383f d7bd 903e 5587 66be 43eb 9d3e
00000350: dc64 93bd 7912 0d3e ac45 b4bd b55e d63d
00000360: db19 193d 6c2a c03d 2f79 503d 855b cbbe
00000370: 35d0 563d 38f9 983e 5c8c b83a 1809 4c3d
00000380: 7528 d6be f351 53bd 428c 4fbe 33cd 36bd
00000390: f67d ac3b 50d9 c13e edcd be3b 4165 30bf
000003a0: d661 eebe 241e dbbe 5adc 363d dc37 1dbe
000003b0: e650 ac3d f16f 7a3e ee89 a33d 7a35 a63e
000003c0: 2a8b 983e 1650 433e e733 edbd 6527 873e
000003d0: a7c8 013e e7dd debc 4312 863d 86e2 95be
000003e0: e13f 57bd 8e2f d03e 50ff 9d3e cc1c 31be
000003f0: 473a 8cbe b755 793d c4de a13b 5a16 5cbe

feature_extraction.0.bias f4 [128]
-0.2856907 -0.06171863 -0.07448695 -0.17881247 -0.013569903 -0.19929454 -0.16554502 0.124973945
0.0680658 0.32233906 0.26466182 -0.13391164 -0.07916253 0.42410076 -0.27664855 -0.2906003
-0.03892415 -0.0014870078 -0.1761802 0.32935753 0.099818766 -0.22140557 0.1891386 0.35395443
0.08688508 0.18255383 -0.06445385 0.18805051 -0.056863744 0.1312117 0.10155196 -0.1656259
-0.1212247 -0.2006647 -0.08727301 0.282711 -0.006604207 0.5063727 -0.045933377 -0.21891579
-0.21907952 -0.13064437 -0.24184942 0.4293633 0.23894495 0.092075996 -0.24006392 0.22689524
-0.13832827 0.12193129 0.0068622665 -0.1489277 -0.46646842 -0.14257042 -0.16712599 0.16442497
0.06043781 0.071826 0.36402383 -0.29634455 -0.22869466 -0.19940649 -0.25408462 0.1381053
0.13830611 0.036086645 0.009076116 -0.07447267 -0.27300826 0.16207108 0.34955204 0.36617216
0.13400313 -0.4660239 0.18723466 0.3637336 0.19374777 -0.24175294 -0.05051689 -0.18298142
-0.2121651 -0.01751659 -0.22020173 0.13492958 0.21080583 0.08308901 -0.13144384 0.03876725
0.26898223 -0.19317949 -0.043119583 -0.22039326 -0.0652062 0.09467424 0.19051823 -0.13729942
-0.30497625 -0.15921685 -0.2003256 -0.19351548 -0.038147796 -0.38174102 -0.15710595 0.05568209
-0.095797755 0.17923234 -0.20776027 0.09841903 -0.06853183 0.124702096 -0.15063135 0.3929509
-0.07141812 -0.22425222 -0.086393245 0.2407004 -0.07837264 -0.27080178 0.13797836 0.18324779
0.18734358 0.29131863 -0.14707577 0.018394204 0.104245946 0.36209446 -0.4184279 -0.22078471
00000000: 0d46 92be adcc 7cbd 9d8c 98bd 9e1a 37be
00000010: 4c54 5ebc de13 4cbe a284 29be 57f2 ff3d
00000020: 1566 8b3d a009 a53e c181 873e 2220 09be
00000030: f71f a2bd bc23 d93e e1a4 8dbe 90c9 94be
00000040: ee6e 1fbd b4e7 c2ba 9568 34be 8da1 a83e
00000050: c86d cc3d 24b8 62be 8dad 413e 8439 b53e
00000060: cef0 b13d 64ef 3a3e 6100 84bd 5090 403e
00000070: f5e9 68bd 5c5c 063e 79fa cf3d d699 29be
00000080: a844 f8bd 0c7b 4dbe 31bc b2bd 7fbf 903e
00000090: 1b68 d8bb a4a1 013f a324 3cbd 762b 60be
000000a0: 6256 60be a3c7 05be 60a7 77be 82d5 db3e
000000b0: fcad 743e 5792 bc3d 51d3 75be 3a57 683e
000000c0: eda5 0dbe 1db7 f93d dddc e03b 8180 18be
000000d0: f3d4 eebe fbfd 11be 1323 2bbe 055f 283e
000000e0: a38d 773d 8319 933d 5561 ba3e 79ba 97be
000000f0: ef2e 6abe 3731 4cbe 6117 82be 7a6b 0d3e
00000100: 1ea0 0d3e 97cf 133d fdb3 143c 2185 98bd
00000110: bdc7 8bbe f6f5 253e 7cf8 b23e eb7a bb3e
00000120: 1e38 093e af9a eebe 71ba 3f3e 4a3b ba3e
00000130: d165 463e 158e 77be ccea 4ebd 7b5f 3bbe
00000140: cf41 59be f47e 8fbc 907c 61be fb2a 0a3e
00000150: 7cdd 573e 922a aa3d 3799 06be 68ca 1e3d
00000160: 0ab8 893e d8d0 45be 299e 30bd c5ae 61be
00000170: d48a 85bd 91e4 c13d 3617 433e 3898 0cbe
00000180: d925 9cbe be09 23be 2722 4dbe ec28 46be
00000190: dd40 1cbd 8f73 c3be 62e0 20be e712 643d
000001a0: 9d31 c4bd af88 373e 1cbf 54be eb8f c93d
000001b0: 6b5a 8cbd d063 ff3d 1b3f 1abe dc30 c93e
000001c0: aa43 92bd 60a2 65be f1ee b0bd 2a7a 763e
000001d0: d681 a0bd 88a6 8abe 334a 0d3e 4fa5 3b3e
000001e0: ffd6 3f3e b727 953e 089b 16be 71af 963c
000001f0: e67e d53d 7264 b93e 2f3c d6be 6315 62be

feature_extraction.2.weight f4 [64, 128]
0.103541575 -0.04651174 0.03241965 -0.06373599 0.20184901 0.21770124 -0.09331616 0.17156065
0.03364695 0.0027202575 0.14725988 0.030449107 0.1064682 -0.12773617 -0.20508045 -0.019775776
0.03988448 -0.1600326 0.05070752 0.14995793 -0.2859572 -0.12408135 -0.052633364 0.17496794
0.04736873 -0.31562012 -0.12861603 0.19935794 -0.1835787 0.20774181 -0.0016119524 0.07901838
-0.116432525 -0.1868862 0.01097083 0.3363485 0.24743247 -0.2672056 0.3577756 0.03613137
0.13868271 -0.21887702 0.190458 0.024919264 -0.1282126 0.07159802 0.014656432 0.046610657
0.064857 -0.14533125 -0.0639926 -0.07034857 0.284129 -0.0030821888 -0.3556902 0.012832841
0.3231347 0.2972936 0.04826646 -0.10543513 0.17417906 0.023412827 0.10952778 -0.007393563
0.02249636 -0.07936624 -0.008589986 0.10353465 -0.17973304 -0.0466749 0.17114216 0.25829175
0.2008117 0.12603784 -0.08098488 -0.07910896 0.022751793 -0.18635835 0.4410332 0.057010043
-0.21167797 -0.14007798 0.19506983 0.27874035 0.18931186 -0.12276658 0.0114064105 -0.059927568
0.08484744 -0.08917451 0.36755538 0.037131205 0.26263505 0.09642522 0.07359221 0.07243877
-0.03663966 -0.07282052 -0.14162256 0.06719565 -0.036527406 -0.030669348 -0.038876325 -0.07541558
0.15505715 -0.19224489 0.12001691 0.07689695 0.070550375 0.072883725 -0.028250191 -0.12552394
0.28973085 0.056571204 0.2128263 0.1869471 0.13358685 0.40940896 0.08738152 -0.12823732
-0.09746399 -0.08135653 -0.35174066 0.16479445 0.018838385 -0.044174526 0.09709891 0.13911869
-0.31642744 -0.27870238 -0.12774573 0.249004 -0.28397095 0.01021115 -0.19180997 -0.518262
-0.4450084 -0.4480503 -0.51647276 0.053858306 -0.41654757 -0.08828418 -0.06696897 -0.35797447
-0.4506599 -0.22419429 0.03983299 -0.48560235 0.40087712 -0.31919459 -0.297091 -0.41989413
-0.070805535 -0.49920523 -0.61088926 -0.47058243 0.111125335 -0.27715722 -0.49134782 0.06019892
0.055069987 -0.29478464 -0.42557675 -0.067699715 -0.30005115 -0.09083436 -0.20348813 -0.19614941
-0.32864174 0.3106384 -0.31659034 -0.51589805 -0.26704103 -0.22624457 -0.15000163 -0.07153634
-0.2982657 -0.054341 -0.38812464 0.57337743 -0.31768024 -0.30478302 0.13138166 -0.29142898
-0.47388124 -0.20583104 -0.15399466 0.6099303 -0.36943907 0.1291054 -0.41488728 0.09143862
-0.24160117 -0.5167965 -0.07602071 0.32539278 0.45808563 -0.31680465 -0.4889447 -0.45731762
-0.48617825 -0.18594883 -0.35891095 -0.42052844 -0.18377554 0.42700645 -0.24432117 -0.12949552
0.030123498 0.57502776 -0.22983105 -0.1993642 -0.38858074 -0.2967887 -0.3547171 -0.12876321
-0.55549616 -0.3304714 -0.4076036 -0.44132763 -0.4146475 -0.32257983 -0.14274313 -0.30666247
-0.1130889 -0.43203247 0.6398364 -0.39028278 -0.35615882 -0.034782022 -0.3757585 -0.32214886
-0.4755639 -0.6187884 -0.25387692 -0.3265521 -0.5097666 0.15349798 -0.5061722 0.23274706
-0.24270183 -0.793326 -0.31192374 -0.50545114 -0.5118278 -0.46593866 -0.26112154 -0.6352586
-0.051891066 -0.20646468 0.048270326 -0.61043066 -0.21197742 -0.652601 -0.47491443 0.100597635
00000000: 9b0d d43d 1883 3ebd 78ca 043d 0488 82bd
00000010: 82b1 4e3e 13ed 5e3e 8b1c bfbd 98ad 2f3e
00000020: 62d1 093d 5946 323b 4bcb 163e 6870 f93c
00000030: 000c da3d 45cd 02be 9c00 52be cf00 a2bc
00000040: e95d 233d 96df 23be b0b2 4f3d 928e 193e
00000050: fb68 92be 5d1e febd 1596 57bd cc2a 333e
00000060: b705 423d f698 a1be ecb3 03be 7d24 4c3e
00000070: 0efc 3bbe 45ba 543e 2648 d3ba 63d4 a13d
00000080: 2d74 eebd 195f 3fbe ffbe 333c df35 ac3e
00000090: f05e 7d3e 2ccf 88be 5d2e b73e 7dfe 133d
000000a0: d702 0e3e 4c21 60be 6c07 433e 7c23 cc3c
000000b0: 2a4a 03be fca1 923d 8821 703c d1ea 3e3d
000000c0: bfd3 843d b7d1 14be 8d0e 83bd e912 90bd
000000d0: 5b79 913e 8cfe 49bb 071d b6be d640 523c
000000e0: e971 a53e de36 983e 0db3 453d 60ee d7bd
000000f0: ff5b 323e 42cc bf3c 1a50 e03d b445 f2bb
00000100: 494a b83c c48a a2bd 03bd 0cbc f909 d43d
00000110: f00b 38be 2e2e 3fbd e43f 2f3e d13e 843e
00000120: 95a1 4d3e 1010 013e 67db a5bd e103 a2bd
00000130: f861 ba3c b9d4 3ebe 1bcf e13e 5d83 693d
00000140: 1cc2 58be 9a70 0fbe 63c0 473e 0eb7 8e3e
00000150: f8da 413e 0b6d fbbd f4e1 3a3c 9c76 75bd
00000160: 7fc4 ad3d 20a1 b6bd 3830 bc3e e416 183d
00000170: 1a78 863e 967a c53d 83b7 963d c75a 943d
00000180: 7813 16bd ed22 95bd 8105 11be df9d 893d
00000190: c39d 15bd 493e fbbc c83c 1fbd 7c73 9abd
000001a0: 4dc7 1e3e d8db 44be 6dcb f53d 267c 9d3d
000001b0: b77c 903d 1044 953d f26c e7bc 5989 00be
000001c0: 9a57 943e 35b7 673d 23ef 593e 106f 3f3e
000001d0: feca 083e 0d9e d13e 15f5 b23d a550 03be
000001e0: 339b c7bd 419e a6bd 5a17 b4be e0bf 283e
000001f0: f552 9a3c 59f0 34bd cbdb c63d 2175 0e3e
00000200: c702 a2be 14b2 8ebe c7cf 02be e8fa 7e3e
00000210: a464 91be ab4c 273c d569 44be d2ac 04bf
00000220: 24d8 e3be d966 e5be 8f37 04bf 879a 5c3d
00000230: b945 d5be 56ce b4bd 0727 89bd 6e48 b7be
00000240: e5bc e6be 3093 65be eb27 233d dfa0 f8be
00000250: c43f cd3e 796d a3be 501c 98be 5dfc d6be
00000260: 7e02 91bd d497 ffbe 3d63 1cbf 2ef0 f0be
00000270: ae95 e33d 8de7 8dbe f191 fbbe 2593 763d
00000280: 1191 613d 03ee 96be 32e5 d9be 26a6 8abd
00000290: 4ea0 99be 5d07 babd 315f 50be 64db 48be
000002a0: bb43 a8be ff0b 9f3e 2118 a2be e511 04bf
000002b0: 9ab9 88be a8ac 67be 079a 19be a581 92bd
000002c0: 48b6 98be ab94 5ebd 46b8 c6be ddc8 123f
000002d0: fca6 a2be 850c 9cbe ea88 063e 2e36 95be
000002e0: 90a0 f2be 5fc5 52be c7b0 1dbe 6424 1c3f
000002f0: 1e27 bdbe 3534 043e 1b6c d4be 2c44 bb3d
00000300: 4c66 77be c74c 04bf bfb0 9bbd e299 a63e
00000310: 338a ea3e 3834 a2be f656 fabe 8925 eabe
00000320: 5bec f8be 5f69 3ebe 2dc3 b7be 814f d7be
00000330: a82f 3cbe 97a0 da3e 542f 7abe 799a 04be
00000340: 8ec5 f63c 0535 133f d558 6bbe 2126 4cbe
00000350: 0ef4 c6be b0f4 97be 7b9d b5be 81da 03be
00000360: ff34 0ebf 8c33 a9be 6bb1 d0be b2f5 e1be
00000370: ad4c d4be 2f29 a5be 412b 12be dd02 9dbe
00000380: 279b e7bd 5c33 ddbe 51cc 233f 25d3 c7be
00000390: 735a b6be 9877 0ebd 6b63 c0be b2f0 a4be
000003a0: 1d7d f3be eb68 1ebf 28fc 81be d631 a7be
000003b0: 1080 02bf 932e 1d3e 8094 01bf 3f55 6e3e
000003c0: d486 78be 6a17 4bbf 78b4 9fbe 3f65 01bf
000003d0: 2607 03bf 838f eebe b9b1 85be 4fa0 22bf
000003e0: ba8b 54bd 7a6b 53be 1bb7 453d 2f45 1cbf
000003f0: 9c10 59be dc10 27bf fc27 f3be 2206 ce3d

feature_extraction.2.bias f4 [64]
-0.010876667 -0.5348643 0.1543421 -0.04244622 -0.6362842 0.12368456 0.19181326 0.29927304
0.0011132364 0.066410296 0.11094999 -0.054051276 0.057851687 0.16797416 -0.07610802 0.052070066
0.10644095 0.13659748 0.12782983 0.061434142 0.025193239 0.07990221 0.10891149 -0.019026594
0.1617395 -0.145304 -0.013625662 -0.004927914 0.13432336 0.20023821 0.10817705 0.11693092
0.02259935 -0.06001958 -0.015223577 0.110425346 -0.06331952 -0.0061023766 0.22345512 0.0705915
0.0922982 -0.034220107 0.10196551 0.09877998 0.048128117 0.014778906 0.09611111 0.07382914
0.055493284 -0.012632305 0.07146079 -0.066916496 -0.021443158 0.05053885 0.17902808 0.052939788
0.14950393 0.104391254 -0.017817192 0.08292171 0.23292607 0.15161127 0.057088744 0.100335404
00000000: 0c34 32bc deec 08bf db0b 1e3e 16dc 2dbd
00000010: 85e3 22bf 554e fd3d b26a 443e 513a 993e
00000020: 04ea 913a 1f02 883d c039 e33d df64 5dbd
00000030: e4f5 6c3d 6b01 2c3e 86de 9bbd 6c47 553d
00000040: b6fd d93d 36e0 0b3e d3e5 023e 5ea2 7b3d
00000050: 0d62 ce3c c5a3 a33d fd0c df3d a9dd 9bbc
00000060: 0a9f 253e 92ca 14be 2b3e 5fbc 577a a1bb
00000070: 108c 093e 3f0b 4d3e ee8b dd3d 7a79 ef3d
00000080: 4622 b93c 17d7 75bd 4f6c 79bc af26 e23d
00000090: aaad 81bd 72f6 c7bb 6bd1 643e 4792 903d
000000a0: d706 bd3d 622a 0cbd 4bd3 d03d 284d ca3d
000000b0: fd21 453d 3923 723c e7d5 c43d bb33 973d
000000c0: ed4c 633d baf7 4ebc 095a 923d 840b 89bd
000000d0: 90a9 afbc d301 4f3d 2353 373e 64d7 583d
000000e0: 8f17 193e 15cb d53d 5cf5 91bc dcd2 a93d
000000f0: 2c84 6e3e fc3f 1b3e e3d5 693d a67c cd3d

actor_direction.0.weight f4 [128, 64]
0.28375468 -0.09236 0.10416554 -0.028620183 -0.25915036 -0.08205316 0.06997652 0.09190147
0.38504598 -0.040800154 0.25491944 0.20629856 0.14801851 -0.10861937 0.021159764 0.00022365716
0.39427477 0.36146536 0.28997695 0.08516358 -0.09003067 0.2643609 0.21223927 -0.08035557
-0.080869116 0.16116732 0.34553152 0.20232253 0.17106217 0.0864075 0.1561211 0.025731938
0.27667564 0.2774469 -0.012914632 -0.16847219 0.20481707 0.10374405 0.13991806 0.2041519
0.07484938 0.31662282 0.14651765 0.28598136 0.034337085 0.19224039 0.17246437 -0.1007609
-0.13043015 0.21290278 -0.019116402 0.3068646 0.1185637 -0.21350281 -0.059520356 -0.0085178865
-0.050700743 0.24899594 -0.07784784 -0.06778909 0.2435254 0.07213802 0.107306406 0.0274391
0.19950162 -0.035324864 0.09350354 0.18883938 -0.16508886 0.2917593 0.082758896 0.07406547
0.17725912 0.27247548 -0.0389739 0.06757589 0.061534345 0.07778629 0.07859273 0.1927862
0.057743195 0.16381761 0.11747043 0.17528428 0.34815183 0.16165508 0.0586078 0.041175496
0.03987398 0.08737982 0.12287659 0.05411429 0.120245315 0.053518433 0.19181764 0.14018871
0.0029354794 0.052972905 0.23943073 -0.076247506 0.045600988 0.19208923 0.17135207 0.14741193
0.083051555 0.050918512 0.22953226 0.2744927 0.061072756 0.16716522 0.01924758 0.1567086
0.27454236 0.09218661 0.052289862 -0.00990644 0.16851036 0.10779912 0.22616649 0.34487277
0.2555995 0.21354596 0.17901722 0.07385013 0.14302756 0.055786435 0.15568061 0.27376664
-0.0017882034 -0.08188364 0.19379304 -0.2251218 -0.28913754 0.13742414 0.2242585 0.24515127
0.17386274 0.20742352 0.24332835 -0.057812613 0.011358034 0.13576539 -0.29616192 0.14353053
0.25689608 0.38988477 0.41181874 -0.042252388 0.15411752 0.18599081 0.32865024 0.031755164
-0.005074667 0.227405 -0.0029258956 0.11140535 0.2249138 0.40577382 -0.07697361 0.37925985
0.16033684 0.11657404 0.017708438 0.005405281 0.004909216 0.15106317 0.10376824 0.25989544
0.044005807 -0.092805006 0.27918836 0.2229534 0.2627107 -0.06643778 0.16335534 0.012222073
0.03412875 -0.009040582 0.23359942 0.08434194 -0.004429467 0.06876884 -0.0011658111 0.17668311
0.07842397 0.33115536 -0.17553653 -0.05827012 0.115323424 0.13411364 0.02067367 0.1237513
0.06567863 -0.07624405 0.26506397 0.2353227 -0.06920382 0.047399104 0.11206147 0.19619042
-0.1655612 0.24467927 0.013272461 0.036368508 0.20739403 0.18769372 -0.07835076 0.14160994
-0.06708102 0.17350951 -0.15920357 0.055065148 0.16298582 0.2553816 -0.04930441 0.19352682
0.23715107 0.25239533 0.19924265 -0.14864351 0.15827774 0.21728407 0.12475924 0.18115468
0.10813995 0.14740911 0.14655843 0.08196933 0.09878764 0.09710307 0.18530245 0.27931613
0.07159958 0.040629182 0.22616118 0.041544244 -0.06468818 0.018412447 0.071504004 0.10222198
0.19769783 0.18268344 0.05567873 0.14707229 0.28243765 0.036059596 0.12708849 0.1757044
0.11365471 0.15203236 0.10779089 0.2886134 0.05031844 -0.025348602 0.1999516 0.26346013
00000000: 4b48 913e 3d27 bdbd be54 d53d e074 eabc
00000010: 5baf 84be 7d0b a8bd da4f 8f3d d736 bc3d
00000020: bf24 c53e 101e 27bd cd84 823e ee3f 533e
00000030: 2a92 173e d573 debd 3e57 ad3c 8385 6a39
00000040: 62de c93e fd11 b93e dc77 943e 3e6a ae3d
00000050: 0062 b8bd 505a 873e 4055 593e 7691 a4bd
00000060: b59e a5bd 0c09 253e 82e9 b03e a32d 4f3e
00000070: ec2a 2f3e 6af6 b03d 36de 1f3e c9cb d23c
00000080: 6ea8 8d3e 850d 8e3e e597 53bc f983 2cbe
00000090: 91bb 513e c377 d43d ae46 0f3e 320d 513e
000000a0: a24a 993d 631c a23e b908 163e 266c 923e
000000b0: 0ba5 0c3d aada 443e 809a 303e bb5b cebd
000000c0: 7b8f 05be 3003 5a3e 009a 9cbc 5b1d 9d3e
000000d0: 86d1 f23d 7ba0 5abe 9ecb 73bd 9b8e 0bbc
000000e0: 95ab 4fbd cbf8 7e3e b06e 9fbd 02d5 8abd
000000f0: b95e 793e 19bd 933d 76c3 db3d f7c7 e03c
00000100: 274a 4c3e ceb0 10bd c97e bf3d 1c5f 413e
00000110: 0e0d 29be 7a61 953e 7f7d a93d a3af 973d
00000120: 6a83 353e e881 8b3e 19a3 1fbd 3a65 8a3d
00000130: 700b 7c3d 6b4e 9f3d 3af5 a03d bf69 453e
00000140: 2184 6c3d cebf 273e 5694 f03d b97d 333e
00000150: f540 b23e e988 253e bc0e 703d a3a7 283d
00000160: e652 233d 31f4 b23d b9a6 fb3d f2a6 5d3d
00000170: 2d43 f63d 2536 5b3d d86b 443e a18d 0f3e
00000180: 2c61 403b 1efa 583d 542d 753e a727 9cbd
00000190: 1ac8 3a3d 0ab3 443e eb76 2f3e 27f3 163e
000001a0: ef16 aa3d ee8f 503d 810a 6b3e 4f8a 8c3e
000001b0: 6d27 7a3d 5c2d 2b3e 1aad 9d3c 3878 203e
000001c0: d190 8c3e 55cc bc3d e52d 563d 9f4e 22bc
000001d0: fb8d 2c3e c9c5 dc3d 3098 673e 2a93 b03e
000001e0: f0dd 823e cbab 5a3e 4a50 373e bd3e 973d
000001f0: d175 123e 5180 643d bd6a 1f3e 242b 8c3e
00000200: 2662 eaba 9cb2 a7bd af71 463e 5486 66be
00000210: d609 94be eab8 0c3e 05a4 653e ef08 7b3e
00000220: 1309 323e d566 543e 112b 793e ebcc 6cbd
00000230: 0c17 3a3c 1506 0b3e 89a2 97be abf9 123e
00000240: e287 833e fa9e c73e e8d9 d23e d710 2dbd
00000250: fcd0 1d3e 6074 3e3e d844 a83e b411 023d
00000260: 6449 a6bb dbdc 683e 62c0 3fbb 7d28 e43d
00000270: ce4f 663e 96c1 cf3e 57a4 9dbd 592e c23e
00000280: 572f 243e 5fbe ee3d 4911 913c c91e b13b
00000290: 7ddd a03b 4eb0 1a3e 7184 d43d 0411 853e
000002a0: 6f3f 343d 8d10 bebd c7f1 8e3e e54d 643e
000002b0: 0482 863e 8810 88bd 9f46 273e 173f 483c
000002c0: 97ca 0b3d f31e 14bc b034 6f3e 78bb ac3d
000002d0: 1025 91bb add6 8c3d 21ce 98ba 6bec 343e
000002e0: bf9c a03d 328d a93e d9bf 33be a6ac 6ebd
000002f0: b02e ec3d 1655 093e d45b a93c 5271 fd3d
00000300: 8482 863d d725 9cbd 77b6 873e 6ff8 703e
00000310: bbba 8dbd 9025 423d 7c80 e53d 24e6 483e
00000320: e088 29be 348d 7a3e bc74 593c 25f7 143d
00000330: 1a5f 543e c832 403e 5d76 a0bd 3202 113e
00000340: c661 89bd 7aac 313e 4306 23be fe8b 613d
00000350: c1e5 263e 61c1 823e 6cf3 49bd e52b 463e
00000360: bbd7 723e f639 813e 4406 4c3e 0136 18be
00000370: 8f13 223e b77f 5e3e c681 ff3d 9d80 393e
00000380: 7a78 dd3d 6af2 163e 6a13 163e 89df a73d
00000390: 2d51 ca3d f9dd c63d edbf 3d3e 8602 8f3e
000003a0: cda2 923d c96a 263d cc96 673e 4c2a 2a3d
000003b0: 3d7b 84bd b3d5 963c b170 923d c259 d13d
000003c0: 4d71 4a3e 5e11 3b3e 610f 643d 1e9a 163e
000003d0: ab9b 903e 3ab3 133d 7c23 023e dbeb 333e
000003e0: cdc3 e83d 5fae 1b3e 78c1 dc3d 23c5 933e
000003f0: b51a 4e3d dfa7 cfbc 1dc0 4c3e 3fe4 863e

actor_direction.0.bias f4 [128]
0.03574038 0.10387546 0.1776394 0.19576234 0.1264568 0.03762521 0.13933702 0.055214737
-0.015326188 0.06290374 0.13108423 0.2546887 0.2557161 -0.00056379044 0.21012428 0.23817295
0.18072413 0.068968035 0.08779508 0.1521508 0.23462032 0.16105656 0.19848897 0.24139923
0.2535808 0.1981096 0.076790735 0.041338794 0.028888283 0.07935171 0.1456551 0.20849906
0.07875435 0.10823341 0.1961502 0.2321008 0.07820914 0.14921309 0.24326472 0.19364789
0.030021688 0.07440325 0.12786268 0.12576851 0.035255365 0.19718267 0.22323824 0.20753802
0.008535972 0.24226826 0.18789591 0.16682322 0.18385254 0.23043624 0.038205355 0.16302265
0.10496509 0.1349695 0.17464669 0.01500158 0.13813059 0.076015964 0.19776107 0.07235929
0.28167486 0.21836895 0.1614248 0.057486635 0.2153606 0.19440806 -0.007858793 0.22874743
0.08394718 0.126078 0.21908383 0.06510964 0.25665507 0.22630998 0.054519635 0.19170952
0.06368681 0.051135432 0.18726327 0.21437502 0.23715669 0.17841652 0.19667146 0.0568332
0.17017339 0.049771402 0.28598684 0.22490998 0.042117063 0.19651078 0.10411279 0.27484813
0.27040845 0.12363994 0.1617627 0.3216673 0.27642602 0.050258055 0.22745022 0.06280891
0.14595543 0.27347448 0.27946246 0.13908818 0.10746663 0.17870519 0.142771 0.12285967
0.05072673 0.080449216 0.11521103 0.1316223 0.05173041 0.15302627 0.06661327 0.17168762
0.2600244 0.007627789 0.2445393 0.1429747 0.18938042 0.19817655 0.14792885 0.22736925
00000000: 8164 123d a8bc d43d 1ae7 353e ec75 483e
00000010: e47d 013e e41c 1a3d 5dae 0e3e d928 623d
00000020: b11a 7bbc add3 803d f23a 063e 8f66 823e
00000030: 38ed 823e 56cb 13ba d22a 573e 9ce3 733e
00000040: bf0f 393e 1d3f 8d3d e8cd b33d 6bcd 1b3e
00000050: 4f40 703e 03ec 243e b140 4b3e 5c31 773e
00000060: 58d5 813e 3edd 4a3e 7644 9d3d de52 293d
00000070: 1fa7 ec3c 2683 a23d 9c26 153e c780 553e
00000080: f649 a13d 7aa9 dd3d 99db 483e d5ab 6d3e
00000090: 1d2c a03d 51cb 183e 631a 793e a24b 463e
000000a0: 0bf0 f53c bb60 983d 6fee 023e 76c9 003e
000000b0: ee67 103d 41ea 493e 9198 643e d984 543e
000000c0: 76da 0b3c 2c15 783e c967 403e b5d3 2a3e
000000d0: d743 3c3e 7af7 6b3e 387d 1c3d 69ef 263e
000000e0: f0f7 d63d 7235 0a3e 95d6 323e 30c9 753c
000000f0: 1b72 0d3e 42ae 9b3d e181 4a3e 1c31 943d
00000100: b037 903e 1c9c 5f3e 8b4c 253e 1b77 6b3d
00000110: 7d87 5c3e e812 473e 2bc2 00bc c43c 6a3e
00000120: 80ec ab3d 971a 013e 8357 603e 3458 853d
00000130: 4b68 833e cebd 673e fb4f 5f3d 804f 443e
00000140: 3b6e 823d 6373 513d f1c1 3f3e 2085 5b3e
00000150: 34d9 723e d2b2 363e 3e64 493e eec9 683d
00000160: ef41 2e3e 19dd 4b3d de6c 923e cd4e 663e
00000170: f182 2c3d 1f3a 493e 1639 d53d e5b8 8c3e
00000180: fa72 8a3e f036 fd3d 1fa5 253e 94b1 a43e
00000190: b687 8d3e 64db 4d3d b6e8 683e f5a1 803d
000001a0: 5775 153e d904 8c3e b415 8f3e 226d 0e3e
000001b0: 7717 dc3d 7efe 363e 9032 123e da9d fb3d
000001c0: d5c6 4f3d 8fc2 a43d c3f3 eb3d ffc7 063e
000001d0: 44e3 533d ebb2 1c3e 8a6c 883d e1ce 2f3e
000001e0: eb21 853e 88f2 f93b 8368 7a3e f667 123e
000001f0: f1ec 413e cbee 4a3e a97a 173e 7cd3 683e

actor_direction.1.weight f4 [128]
1.2848843 1.0649674 1.2387 1.0044194 1.224625 1.2461939 1.0976125 0.9746851
1.1260247 1.2089248 1.1352174 0.98959875 1.2214793 1.1868984 1.1372633 1.2390847
1.3254926 1.0926234 1.0787512 1.148801 1.1680597 1.1512501 1.1456485 1.3086921
1.1018918 1.2533876 1.2700866 1.2136735 1.148168 1.1574239 1.1460329 1.1965147
1.2030047 1.1612188 1.3885432 1.1247269 1.0571816 1.17729 1.0215933 1.0856309
1.2220936 1.0393877 1.1613821 1.2185442 1.0175858 1.0826248 1.1711583 1.1674212
1.0602696 1.2392896 1.2257764 1.2674036 1.1870846 1.2592821 1.0774196 1.2470298
0.9858364 1.190776 1.342886 1.14493 0.99395996 1.1445023 1.1206137 1.161601
1.1531426 1.2031282 1.1317394 1.0466602 1.5383358 1.0952357 1.1977487 1.1058855
1.099926 1.2322627 1.061761 1.2727098 1.2669209 1.1030829 1.4235214 1.1569419
1.2485479 0.97793496 1.0253603 1.2014264 1.1351782 1.0273205 1.1410638 1.4476578
1.1130325 1.1571325 1.2185835 1.1289284 1.2014675 0.9140729 1.2644439 1.0629858
1.053599 1.1278028 1.2576454 1.0815787 1.1791685 1.3228062 1.2394195 1.1526457
1.0574048 1.0969275 1.1723595 1.1139168 0.9504066 1.3577033 1.2760091 1.0743481
0.9339582 1.0437514 1.2176859 1.04772 1.0671612 0.988748 1.1575184 1.2739831
1.3163636 1.394493 1.2216645 1.2361695 1.2435983 1.2322114 1.3375158 1.1916726
00000000: 1777 a43f da50 883f b98d 9e3f d190 803f
00000010: 83c0 9c3f 4883 9f3f 917e 8c3f f684 793f
00000020: 9421 903f 0cbe 9a3f ce4e 913f 5856 7d3f
00000030: 6f59 9c3f 49ec 973f d891 913f 549a 9e3f
00000040: bea9 a93f 15db 8b3f 8514 8a3f e90b 933f
00000050: fb82 953f 2a5c 933f 9ca4 923f 3983 a73f
00000060: ca0a 8d3f 016f a03f 3392 a23f a759 9b3f
00000070: 2bf7 923f 7726 943f 35b1 923f 6527 993f
00000080: 0ffc 993f d1a2 943f c9bb b13f 0df7 8f3f
00000090: ba51 873f 70b1 963f 92c3 823f f4f5 8a3f
000000a0: 906d 9c3f a80a 853f 2ba8 943f 42f9 9b3f
000000b0: 4040 823f 7393 8a3f 84e8 953f 0f6e 953f
000000c0: eab6 873f 0ba1 9e3f 3ee6 9c3f 483a a23f
000000d0: 63f2 973f 2830 a13f e3e8 893f ac9e 9f3f
000000e0: c65f 7c3f 596b 983f b0e3 ab3f 118d 923f
000000f0: 2974 7e3f 0d7f 923f 4570 8f3f 57af 943f
00000100: 2d9a 933f 1b00 9a3f d6dc 903f f6f8 853f
00000110: 30e8 c43f af30 8c3f d44f 993f a88d 8d3f
00000120: 60ca 8c3f c9ba 9d3f c9e7 873f 28e8 a23f
00000130: 772a a23f d231 8d3f f335 b63f ac16 943f
00000140: 6bd0 9f3f f259 7a3f 023f 833f 57c8 993f
00000150: 854d 913f 3d7f 833f 610e 923f da4c b93f
00000160: d977 8e3f eb1c 943f 8bfa 9b3f ba80 903f
00000170: b0c9 993f ae00 6a3f 4cd9 a13f eb0f 883f
00000180: 55dc 863f d85b 903f 86fa a03f 2c71 8a3f
00000190: feee 963f b751 a93f 4ca5 9e3f e589 933f
000001a0: 0a59 873f 1f68 8c3f e00f 963f d394 8e3f
000001b0: d94d 733f 39c9 ad3f 4454 a33f 3d84 893f
000001c0: e217 6f3f a599 853f 22dd 9b3f b01b 863f
000001d0: bd98 883f 971e 7d3f 9029 943f e111 a33f
000001e0: 9a7e a83f bf7e b23f 815f 9c3f cd3a 9e3f
000001f0: 3b2e 9f3f 1ab9 9d3f b833 ab3f ba88 983f

actor_direction.1.bias f4 [128]
0.15225875 0.011742858 0.1302464 0.035346333 0.11095679 0.076592565 -0.04080993 -0.07272537
0.0064745867 0.05443134 -0.004284433 -0.03724072 -0.042890172 0.10837152 0.057285655 0.064604826
0.18348464 0.027607556 -0.07063992 0.117948644 -0.018426618 -0.014817721 0.06654267 0.05981417
0.069387816 0.004995062 0.1293819 0.120234296 0.09097004 0.0456063 0.033540286 0.079300486
-0.022007037 -0.014860481 0.13593607 -0.07489674 0.08840723 0.022696713 0.034500774 0.13265248
0.016261255 0.03266612 0.0014427543 -0.040651776 -0.008990858 0.09289827 -0.023120569 0.20507306
0.032951083 0.01107052 0.037976407 -0.022596547 0.071653396 0.080573894 -0.009557556 0.083738804
-0.022578599 0.12197288 0.13505355 0.028553624 -0.038492553 0.056337085 0.10541252 0.11943356
0.00933452 0.096030265 0.03554236 -0.043163676 0.17241167 -0.029200928 0.009624251 0.009802028
0.057840362 0.03185605 0.091279976 0.047286373 0.13338964 0.07292871 0.1658876 0.21988094
0.06266285 0.09880635 0.059238106 0.08494246 0.09822722 0.025068589 0.050546803 0.14333168
0.11044605 0.091998965 0.0070674308 0.06159064 0.11768819 0.033617478 0.19938713 0.010495117
-0.016406458 0.032062262 0.114444 0.04225307 0.066124685 0.14737847 0.128648 0.09842237
0.12577364 0.07498394 0.073174216 0.15703386 -0.11212044 0.10996266 0.053895522 0.04664113
-0.08587797 -0.033970308 0.054799803 0.09037258 0.03164 0.00023567333 0.065150656 0.054056734
0.12032549 0.14574769 0.10560222 0.030682238 0.08316096 0.097378254 0.13752377 0.10843061
00000000: b8e9 1b3e 1e65 403c 505f 053e 51c7 103d
00000010: 503d e33d 90dc 9c3d 5028 27bd 0af1 94bd
00000020: c528 d43b 66f3 5e3d 6e64 8cbb ba89 18bd
00000030: 9bad 2fbd e3f1 dd3d 5da4 6a3d 894f 843d
00000040: 66e3 3b3e 3e29 e23c aaab 90bd 0f8f f13d
00000050: 6bf3 96bc 07c6 72bc 8647 883d b4ff 743d
00000060: 331b 8e3d 9ead a33b b07c 043e 663d f63d
00000070: 804e ba3d accd 3a3d 8a61 093d 4b68 a23d
00000080: 1a48 b4bc 6079 73bc d332 0b3e 7663 99bd
00000090: da0e b53d 75ee b93c af50 0d3d 0dd6 073e
000000a0: 5336 853c e9cc 053d cd1a bd3a 7a82 26bd
000000b0: 644e 13bc 7341 be3d 5967 bdbc acfe 513e
000000c0: b7f7 063d 2061 353c 268d 1b3d 651c b9bc
000000d0: 04bf 923d ed03 a53d 4c97 1cbc 407f ab3d
000000e0: c1f6 b8bc ebcc f93d 7a4b 0a3e 4ae9 e93c
000000f0: 5eaa 1dbd b7c1 663d 85e2 d73d 9599 f43d
00000100: d1ef 183c 84ab c43d de94 113d 65cc 30bd
00000110: af8c 303e c936 efbc 09af 1d3c af98 203c
00000120: 04ea 6c3d 7d7b 023d fff0 ba3d 5baf 413d
00000130: 4b97 083e a65b 953d 70de 293e 7828 613e
00000140: 6155 803d fc5a ca3d a8a3 723d 50f6 ad3d
00000150: 5a2b c93d a45c cd3c 2a0a 4f3d 8ac5 123e
00000160: 8a31 e23d f469 bc3d e895 e73b 7846 7c3d
00000170: 8106 f13d 7bb2 093d 242c 4c3e b6f3 2b3c
00000180: d666 86bc b853 033d 9e61 ea3d 8e11 2d3d
00000190: 616c 873d 62ea 163e 4dbc 033e ab91 c93d
000001a0: ceca 003e 2e91 993d 5ddc 953d 7ccd 203e
000001b0: 679f e5bd 1a34 e13d 8dc1 5c3d c50a 3f3d
000001c0: cae0 afbd 7324 0bbd c275 603d 4215 b93d
000001d0: f298 013d 141f 7739 b56d 853d 986a 5d3d
000001e0: 366d f63d e23e 153e fa45 d83d 5159 fb3c
000001f0: 4b50 aa3d 406e c73d 08d3 0c3e de10 de3d

actor_direction.4.weight f4 [64, 128]
-0.22805217 -0.0022377053 -0.07123555 0.048922095 -0.19479619 0.008246084 0.010690606 0.10088532
0.05611266 -0.07132747 -0.07520798 0.058150746 0.056561988 0.06430608 0.18618686 -0.011859225
0.066179246 0.14951131 0.004600665 0.027869599 0.085366845 -0.092757344 0.24469452 -0.15042526
-0.19889311 -0.06663808 -0.19006006 -0.103738114 -0.19373678 -0.17801759 0.031228714 0.12984897
0.021669595 -0.0616393 0.03762431 0.086197875 -0.04983797 -0.04491412 0.09356315 -0.16252962
-0.25163388 -0.108018786 0.027438542 0.31655055 -0.07023361 -0.15857905 0.0045862184 -0.21524988
-0.051436614 0.01916956 0.12440637 -0.065159775 0.29805732 -0.14582323 0.09087518 0.1630812
-0.15872934 -0.17219825 -0.00680103 0.008477467 0.09687064 -0.11049137 -0.14997776 0.04391925
0.16832389 -0.14002861 0.28710145 0.2213182 -0.19521949 0.1987805 0.08350329 0.11714258
-0.18153657 0.005962313 -0.10600087 -0.023853343 0.1387085 -0.045335684 -0.18406597 -0.05344339
-0.07289434 0.01554685 -0.058867384 -0.03645582 -0.1967705 0.006776654 0.29912198 -0.117124066
0.038446423 0.057226844 0.34440482 0.056710348 0.012253383 0.05908788 -0.058601007 0.035772912
-0.045402642 0.023266843 0.1678681 -0.03064003 0.13588236 0.017570408 -0.13616115 0.10868645
0.062219292 0.063555606 -0.10130993 -0.14819686 0.12705751 -0.17917177 0.32648474 -0.011999176
-0.13925122 -0.050034616 -0.13907507 -0.09015165 -0.03499484 -0.24050634 0.04921758 -0.079311624
0.16805135 -0.07552168 -0.094449334 -0.12314884 0.028578684 0.007466638 -0.015877623 0.0807114
-0.040378574 0.08296165 -0.2798637 0.03941062 -0.0016855914 0.062014192 0.059108812 0.088355266
0.1743278 -0.108324304 0.05184151 0.061969116 -0.063817635 0.1794877 0.02268243 0.13492973
0.20696102 0.11200348 -0.16512828 0.11140795 0.03524211 0.17003497 0.079316154 -0.25127816
0.11200658 0.08051821 0.117283605 0.24109124 -0.33299717 -0.092706874 0.19176444 0.118434034
-0.004358903 0.15619823 0.2502912 -0.17364666 -0.15062314 0.15757616 0.009098869 0.13779347
-0.1077001 0.066898055 -0.20599872 -0.013777611 0.016693465 -0.058476705 0.09214282 -0.0452109
0.06616897 0.21445361 -0.04139197 -0.14522456 0.18155582 -0.089111 0.103589945 -0.1322955
-0.27470693 0.16337432 0.15824912 0.19079949 0.2165383 0.047658484 -0.00040429182 -0.059363823
0.013587355 -0.108899154 0.061799377 0.15298624 0.38771123 -0.09888625 0.13395111 0.23126215
-0.03455933 0.06411713 -0.2337252 0.1678559 0.16552213 -0.19298221 -0.28333965 -0.28802934
0.10854508 -0.06510186 -0.16927424 0.16993256 0.19846891 0.057814337 0.026262593 0.1590872
-0.18420988 0.13230589 -0.12848428 0.26307383 0.09941826 -0.05226552 0.07791055 0.0808158
0.042793512 -0.098687276 0.24299656 -0.08396674 0.06555822 0.22985421 0.003589466 0.030423515
0.17630908 -0.2722453 -0.061418597 -0.3159836 0.012338147 -0.30180532 0.018880276 -0.052423663
0.03795044 -0.19160418 0.080406815 -0.07451316 -0.11385191 -0.19626081 0.07004478 0.16395815
0.1678976 -0.07879125 0.03838782 0.2211589 0.08781689 0.18598032 -0.10583668 -0.10062258
00000000: 8286 69be 77a6 12bb f2e3 91bd 8962 483d
00000010: a778 47be 951a 073c a727 2f3c f69c ce3d
00000020: 63d6 653d 2314 92bd a406 9abd 7a2f 6e3d
00000030: 8bad 673d e8b2 833d c5a7 3e3e 324d 42bc
00000040: fc88 873d 7e19 193e 2dc1 963b c94e e43c
00000050: d0d4 ae3d 90f7 bdbd 3391 7a3e 1409 1abe
00000060: a3aa 4bbe 8c79 88bd 1b9f 42be a674 d4bd
00000070: ef62 46be 3e4a 36be 5cd3 ff3c 21f7 043e
00000080: 6f84 b13c 7e79 7cbd f31b 1a3d 8388 b03d
00000090: e622 4cbd def7 37bd 099e bf3d 2a6e 26be
000000a0: 28d6 80be f438 ddbd cbc6 e03c ea12 a23e
000000b0: a4d6 8fbd 8c62 22be fd47 963b 776a 5cbe
000000c0: 33af 52bd 7b09 9d3c c4c8 fe3d 7d72 85bd
000000d0: f89a 983e af52 15be c41c ba3d c2fe 263e
000000e0: f289 22be bd54 30be 2ddb debb 13e5 0a3c
000000f0: 1d64 c63d 4d49 e2bd c593 19be ace4 333d
00000100: 195d 2c3e a963 0fbe f6fe 923e 3da1 623e
00000110: 9ee7 47be 1e8d 4b3e c603 ab3d 73e8 ef3d
00000120: b9e4 39be 825f c33b fc16 d9bd 1668 c3bc
00000130: 9a09 0e3e e9b1 39bd ca7b 3cbe 75e7 5abd
00000140: a149 95bd 37b8 7e3c ed1e 71bd b352 15bd
00000150: 357e 49be b20e de3b 8426 993e bede efbd
00000160: ff79 1d3d b266 6a3d d455 b03e 1c49 683d
00000170: 6ac2 483c 2206 723d 9c07 70bd 9e86 123d
00000180: 1ff8 39bd 1b9a be3c 9de5 2b3e cd00 fbbc
00000190: bf24 0b3e d1ef 8f3c d46d 0bbe 0097 de3d
000001a0: a8d9 7e3d 7129 823d 957b cfbd ebc0 17be
000001b0: 5d1b 023e ce78 37be 0229 a73e 3198 44bc
000001c0: df97 0ebe 19f1 4cbd b269 0ebe 6ea1 b8bd
000001d0: c056 0fbd 4b47 76be 6098 493d 226e a2bd
000001e0: a715 2c3e 1cab 9abd a76e c1bd 7635 fcbd
000001f0: d81d ea3c b3aa f43b ca11 82bc 054c a53d
00000200: 0164 25bd cce7 a93d 4b4a 8fbe 086d 213d
00000210: 10ef dcba 9802 7e3d 151c 723d 9bf3 b43d
00000220: fd82 323e 22d9 ddbd c357 543d 54d3 7d3d
00000230: d2b2 82bd a0cb 373e 81d0 b93c 052b 0a3e
00000240: 97ed 533e 1562 e53d 6317 29be da29 e43d
00000250: 085a 103d a61d 2e3e 8270 a23d 88a7 80be
00000260: b563 e53d bbe6 a43d 6332 f03d 9fe0 763e
00000270: 9b7e aabe 1add bdbd e65d 443e 8b8d f23d
00000280: 21d5 8ebb 6ef2 1f3e 2b26 803e 6ed0 31be
00000290: f43c 1abe a55b 213e 6c13 153c bb19 0d3e
000002a0: df91 dcbd d901 893d 54f1 52be 7dbb 61bc
000002b0: bcc0 883c 4585 6fbd 60b5 bc3d 112f 39bd
000002c0: 9983 873d ba99 5b3e a08a 29bd bfb5 14be
000002d0: c5e9 393e d47f b6bd f726 d43d 7978 07be
000002e0: 63a6 8cbe 994b 273e 0f0c 223e f160 433e
000002f0: 37bc 5d3e 8b35 433d 21f7 d3b9 7b27 73bd
00000300: 7f9d 5e3c 8506 dfbd 5821 7d3d 6da8 1c3e
00000310: 1682 c63e e084 cabd 7b2a 093e fccf 6c3e
00000320: 168e 0dbd d84f 833d a955 6fbe 6be2 2b3e
00000330: a27e 293e 219d 45be e511 91be 9578 93be
00000340: e24c de3d 2054 85bd 3a56 2dbe cd02 2e3e
00000350: 6f3b 4b3e bace 6c3d a624 d73c c1e7 223e
00000360: 84a1 3cbe 327b 073e 6291 03be 9db1 863e
00000370: cd9b cb3d 5f14 56bd 918f 9f3d c182 a53d
00000380: 4048 2f3d 8e1c cabd 17d4 783e c1f6 abbd
00000390: 6343 863d e75e 6b3e 3f3d 6b3b bc3a f93c
000003a0: 5e8a 343e bc63 8bbe 1192 7bbd 9ac8 a1be
000003b0: f025 4a3c 3a86 9abe cfaa 9a3c 32ba 56bd
000003c0: ec71 1b3d e333 44be 54ac a43d 5b9a 98bd
000003d0: 312b e9bd 98f8 48be a373 8f3d a5e4 273e
000003e0: 59ed 2b3e 4f5d a1bd 8c3c 1d3d 7b77 623e
000003f0: 57d9 b33d a071 3e3e e7c0 d8bd 3613 cebd

actor_direction.4.bias f4 [64]
0.12197143 0.07811329 0.21651597 0.04361605 0.14472978 0.103664674 0.10568521 0.05321588
0.30144638 0.12015924 0.07568335 -0.030371053 0.12223402 0.2156972 0.11061287 0.07233313
0.02157721 0.241506 0.1606915 0.032361828 0.19472261 0.1209608 0.11540405 0.09575964
0.12848562 0.06650122 0.08728676 0.121930644 0.028738562 0.1581459 0.09802481 0.038833626
0.06782753 0.044257846 0.3141312 0.044639733 0.00017770698 0.027199866 0.10280685 0.053566232
0.079700455 0.20381111 0.23488499 0.028789638 0.041401155 0.076751314 0.07665792 0.08633559
0.09095906 0.058756832 0.2291263 0.13083725 0.14686312 0.14867881 0.055510934 0.17652744
0.12926073 0.1402092 0.12000969 0.10658277 0.124388 0.09479169 0.11437978 0.14713155
00000000: 28cc f93d dcf9 9f3d 5db6 5d3e bea6 323d
00000010: 0b34 143e 254e d43d 7d71 d83d e5f8 593d
00000020: 2e57 9a3e 0c16 f63d dfff 9a3d b7cc f8bc
00000030: d455 fa3d badf 5c3e 0089 e23d 6423 943d
00000040: b0c2 b03c 594d 773e 508c 243e d68d 043d
00000050: 5d65 473e 4cba f73d f558 ec3d a11d c43d
00000060: bc91 033e cb31 883d 67c3 b23d c6b6 f93d
00000070: 226d eb3c 00f1 213e 3bc1 c83d 0210 1f3d
00000080: 29e9 8a3d b747 353d ced5 a03e 27d8 363d
00000090: db56 3a39 41d2 de3c 668c d23d 4468 5b3d
000000a0: fe39 a33d dcb3 503e b185 703e 3fd8 eb3c
000000b0: 4294 293d cb2f 9d3d d4fe 9c3d b7d0 b03d
000000c0: be48 ba3d 01ab 703d 16a0 6a3e 33fa 053e
000000d0: 4963 163e 423f 183e 6f5f 633d 9cc3 343e
000000e0: ed5c 043e 0093 0f3e a4c7 f53d 1148 da3d
000000f0: 23bf fe3d 2522 c23d f23f ea3d a7a9 163e

actor_direction.5.weight f4 [64]
1.1003304 1.00587 1.2809794 0.97550684 1.120866 1.0732342 1.0617889 0.98201215
1.1244236 1.0777333 0.9070371 0.9499337 1.0813129 1.2412976 1.1838657 1.0478247
1.094279 1.2146561 1.0189612 1.1801589 0.9712636 1.2612597 0.9283134 1.1619675
1.2440825 0.98886514 0.94977236 1.1479185 0.9985761 1.0283062 1.193471 1.1456834
0.99623007 0.9714628 1.2153835 1.104282 0.8735272 0.94703424 1.0052984 1.0299392
0.9634103 1.061186 1.1999161 1.1194801 0.97720987 0.9944652 1.1856647 0.9732634
0.9490805 1.0676397 1.0434211 1.1694744 1.0664644 0.9284502 1.1013603 1.2917488
1.0913156 1.0751339 1.2211186 1.0588788 1.0486581 1.1000632 1.2355715 0.8525804
00000000: a0d7 8c3f 59c0 803f 22f7 a33f d1ba 793f
00000010: 8978 8f3f bd5f 893f b3e8 873f 2665 7b3f
00000020: 1ded 8f3f 2af3 893f 9533 683f db2e 733f
00000030: 7668 8a3f d7e2 9e3f e988 973f 1f1f 863f
00000040: 5611 8c3f da79 9b3f 526d 823f 720f 973f
00000050: bba4 783f f570 a13f f2a5 6d3f 5abb 943f
00000060: 183e 9f3f 4426 7d3f 4824 733f feee 923f
00000070: afa2 7f3f 8a9f 833f a8c3 983f c1a5 923f
00000080: ef08 7f3f c9b1 783f b091 9b3f 1d59 8d3f
00000090: 7b9f 5f3f d670 723f 9ead 803f 0cd5 833f
000000a0: 0fa2 763f f1d4 873f da96 993f 204b 8f3f
000000b0: 6d2a 7a3f 4595 7e3f dcc3 973f ca27 793f
000000c0: f1f6 723f 6ba8 883f d38e 853f 56b1 953f
000000d0: e881 883f eaae 6d3f 60f9 8c3f 0658 a53f
000000e0: 3bb0 8b3f fd9d 893f 9d4d 9c3f 5789 873f
000000f0: 6e3a 863f dfce 8c3f 3527 9e3f b642 5a3f

actor_direction.5.bias f4 [64]
0.07139469 0.116511606 0.24264644 -0.07918481 0.122467585 0.019058619 0.11659947 0.022431431
0.14282604 0.0041834232 -0.0931025 -0.108619794 0.04652005 0.24729913 0.023649788 0.025967468
-0.006172237 0.23070621 0.02200905 0.04915348 -0.058376063 0.20968576 -0.09732571 0.008845449
0.19322501 -0.054208606 -0.01954044 0.08906761 0.034033414 -0.045368254 -0.03273259 0.027543606
-0.1285721 -0.025307035 0.25132114 0.05586524 -0.0649756 0.079058215 -0.120463595 -0.040005896
-0.012244393 0.09534626 0.1123541 0.02979309 -0.1043835 -0.048358407 0.0136489095 0.15436639
-0.013178314 0.050642762 0.08215103 0.022587473 -0.0072951443 -0.0042651086 0.073498555 0.11818114
0.060175296 0.06040734 0.041379936 0.16317561 0.007845177 0.05502519 0.08555097 -0.011581654
00000000: 6137 923d a39d ee3d 4f78 783e a52b a2bd
00000010: 49d0 fa3d d220 9c3c b4cb ee3d 1fc2 b73c
00000020: fd40 123e 1915 893b 86ac bebd 0e74 debd
00000030: cf8b 3e3d fc3b 7d3e 33bd c13c bab9 d43c
00000040: 7a40 cabb 403e 6c3e 534c b43c 2955 493d
00000050: bd1b 6fbd ddb7 563e b452 c7bd 81ec 103c
00000060: c7dc 453e d809 5ebd 4613 a0bc 1469 b63d
00000070: 9f66 0b3d 10d4 39bd 9c12 06bd 21a3 e13c
00000080: 68a8 03be b350 cfbc 2aad 803e f3d2 643d
00000090: ed11 85bd 46e9 a13d 9eb5 f6bd 39dd 23bd
000000a0: b59c 48bc e644 c33d e819 e63d a310 f43c
000000b0: 04c7 d5bd 7713 46bd ad9f 5f3c 3912 1e3e
000000c0: dbe9 57bc c96e 4f3d cd3e a83d 5d09 b93c
000000d0: 1b0c efbb 53c2 8bbb 6986 963d f408 f23d
000000e0: 5f7a 763d b06d 773d 027e 293d 8217 273e
000000f0: 0f89 003c 1862 613d 5935 af3d fac0 3dbc

actor_direction.8.weight f4 [32, 64]
-0.382405 -0.3148763 -0.2687001 0.2075485 -0.30652627 0.20254743 0.14245953 0.018105982
0.051817704 0.09761197 -0.168401 0.14843313 0.0033594593 -0.3555938 -0.17069669 0.02428511
-0.045377437 -0.3530279 0.025970647 0.090644546 0.13223429 -0.18716837 -0.07461779 0.13590273
-0.4178237 0.0882362 -0.13898112 0.1358093 -0.09530335 -0.009294424 -0.23222858 0.013346221
-0.07899489 0.051731855 -0.42014736 0.19707766 0.03143463 0.0059741875 0.1277184 0.28665993
-0.17673293 -0.04073122 -0.3348362 0.14122275 0.116159365 -0.16471922 -0.0004747708 -0.28275934
-0.24130984 -0.085866995 -0.13425533 0.11696452 -0.014026537 -0.06804998 -0.25735104 0.079704255
0.27358547 0.18146195 -0.07930337 0.26776403 0.013514649 -0.014896409 -0.37193945 0.10076404
0.08085565 -0.20588714 0.2173958 -0.013975846 0.111610964 -0.12473136 0.11369097 0.13945723
0.06648454 -0.113467045 0.02342631 -0.032025296 -0.03229093 0.15095013 -0.04638912 -0.03393272
-0.17610875 0.24331242 0.051707633 0.10204596 0.02829893 0.1372267 0.09594501 0.0057339976
0.018517397 0.15538165 0.15825012 0.097376 -0.13091844 0.04898496 -0.07269285 0.12131683
-0.08935147 -0.09164794 0.16501123 -0.08152353 -0.0663162 -0.10799817 -0.032504853 0.15895626
0.09844166 0.21236417 0.07821311 0.10365971 0.010137774 -0.12325133 0.1547417 -0.014902853
0.12185466 -0.11862678 0.09545461 0.0022051998 0.1842656 -0.14466205 -0.27232674 0.11443151
0.17048547 0.16958402 0.06851684 -0.02976074 -0.021595608 0.046552204 -0.11199003 -0.15332688
0.084139116 0.043673556 0.069329485 0.12157597 0.042282183 0.11890318 0.2165279 0.029151503
0.09400508 0.073425025 -0.051365126 0.055539373 0.09819289 0.14763705 -0.004104148 -0.08244998
0.18467358 0.13199733 0.055740263 -0.027644563 -0.0045449412 0.14428243 -0.008608611 -0.18329205
0.22111015 0.16781738 -0.042316355 0.0033764045 -0.1418767 0.04286341 -0.0040982678 -0.05558812
-0.32244977 -0.035823386 0.12109951 -0.0013169482 -0.033986077 -0.03238603 -0.02634009 -0.07379082
0.10153022 -0.04136293 0.019965993 0.18809544 -0.19587813 -0.12666318 -0.0947177 -0.13180935
-0.080408216 0.07880505 0.1103082 0.047793955 -0.043455906 -0.03025442 0.078848384 0.016746629
-0.0055057504 0.035021745 -0.03621728 0.11321976 -0.048952993 0.20121756 0.07890137 -0.146211
-0.17605254 0.08063108 -0.53135735 0.09262511 -0.27553463 -0.33542544 -0.4688485 -0.01544574
-0.45308328 0.0723528 -0.27825263 -0.029701864 -0.3414652 -0.59653866 -0.39738694 0.05529152
0.029427728 -0.5437494 -0.33783957 -0.33641058 0.14989476 -0.43004397 0.05660296 -0.32636672
-0.5385329 -0.20961493 -0.111682415 -0.6681689 -0.23925443 -0.037752654 -0.5702369 -0.2543095
0.16935521 -0.070728324 -0.5037746 -0.29141954 0.17668822 -0.12612453 0.04973201 -0.2881897
-0.21280573 -0.3775799 -0.48436123 -0.25929266 -0.19517519 0.028828358 -0.22413574 -0.35870856
-0.22987683 -0.28905275 -0.5385719 -0.22366145 -0.3846425 -0.06245525 -0.29208642 -0.6106626
-0.37595972 -0.60927457 -0.6634744 -0.05904619 0.1304099 -0.34510216 -0.3523558 0.26636624
00000000: 97ca c3be 7737 a1be 0f93 89be 9887 543e
00000010: 03f1 9cbe 9868 4f3e e9e0 113e ff52 943c
00000020: cd3e 543d c9e8 c73d 5071 2cbe dbfe 173e
00000030: 602a 5c3b 6410 b6be 1dcb 2ebe 91f1 c63c
00000040: b1dd 39bd 13c0 b4be 65c0 d43c d9a3 b93d
00000050: 6d68 073e 11a9 3fbe 36d1 98bd 162a 0b3e
00000060: fdec d5be 2eb5 b43d 1151 0ebe 9811 0b3e
00000070: 672e c3bd a447 18bc 54cd 6dbe 1caa 5a3c
00000080: 13c8 a1bd c8e4 533d 8e1d d7be bace 493e
00000090: 99c1 003d 1ec3 c33b 9dc8 023e 17c5 923e
000000a0: 7af9 34be c8d5 26bd a76f abbe b29c 103e
000000b0: f6e4 ed3d 28ac 28be a8ea f8b9 d5c5 90be
000000c0: ed19 77be 09db afbd 3b7a 09be 188b ef3d
000000d0: 8fcf 65bc ca5d 8bbd 84c3 83be fc3b a33d
000000e0: 6513 8c3e 29d1 393e ce69 a2bd 5e18 893e
000000f0: 8c6c 5d3c 1110 74bc d96e bebe 615d ce3d
00000100: a697 a53d 14d4 52be 019d 5e3e f2fa 64bc
00000110: 4a94 e43d 2873 ffbd d0d6 e83d e0cd 0e3e
00000120: 0c29 883d 6961 e8bd 88e8 bf3c f52c 03bd
00000130: 7f43 04bd ac92 1a3e 8502 3ebd 09fd 0abd
00000140: da55 34be e426 793e 62cb 533d 79fd d03d
00000150: 28d3 e73c 2885 0c3e d17e c43d 42e4 bb3b
00000160: ccb1 973c 5e1c 1f3e 520c 223e 116d c73d
00000170: 7c0f 06be 74a4 483d fddf 94bd f574 f83d
00000180: e7fd b6bd eab1 bbbd b4f8 283e cff5 a6bd
00000190: cad0 87bd 252e ddbd cf23 05bd 6ec5 223e
000001a0: c89b c93d fe75 593e 322e a03d 8b4b d43d
000001b0: e818 263c 316b fcbd 9c74 1e3e 192b 74bc
000001c0: f08e f93d 99f2 f2bd b57d c33d 1d85 103b
000001d0: 1fb0 3c3e 4a22 14be 696e 8bbe 115b ea3d
000001e0: be93 2e3e 6fa7 2d3e 8f52 8c3d cccc f3bc
000001f0: 46e9 b0bc 86ad 3e3d 075b e5bd b901 1dbe
00000200: 2151 ac3d 0be3 323d 9efc 8d3d d2fc f83d
00000210: 1530 2d3d 8383 f33d 7db9 5d3e 22cf ee3c
00000220: bc85 c03d dc5f 963d 3d64 52bd 417d 633d
00000230: 5b19 c93d 2b2e 173e 177c 86bb 89db a8bd
00000240: 121b 3d3e 4f2a 073e e74f 643d da76 e2bc
00000250: bbed 94bb c6be 133e 220b 0dbc e9b0 3bbe
00000260: b36a 623e 52d8 2b3e ea53 2dbd ab46 5d3b
00000270: 2048 11be 8b91 2f3d c34a 86bb 5eb0 63bd
00000280: 2318 a5be 8bbb 12bd 0503 f83d 739d acba
00000290: fc34 0bbd 37a7 04bd 2cc7 d7bc a41f 97bd
000002a0: 13ef cf3d 2d6c 29bd b98f a33c 179c 403e
000002b0: 4794 48be feb3 01be 5afb c1bd 08f9 06be
000002c0: 10ad a4bd 8b64 a13d 44e9 e13d 98c3 433d
000002d0: d2fe 31bd 1ed8 f7bc 437b a13d 3a30 893c
000002e0: 9569 b4bb f672 0f3d 9258 14bd c3df e73d
000002f0: ef82 48bd fa0b 4e3e 0b97 a13d 56b8 15be
00000300: 1e47 34be e821 a53d 0907 08bf 3cb2 bd3d
00000310: e012 8dbe e2bc abbe e90c f0be 2110 7dbc
00000320: 88fa e7be b42d 943d 2177 8ebe 5351 f3bc
00000330: 87d4 aebe c2b6 18bf 4d76 cbbe 5c79 623d
00000340: 6b12 f13c 2933 0bbf 4ff9 acbe 023e acbe
00000350: 037e 193e b92e dcbe 81d8 673d 8a19 a7be
00000360: 4bdd 09bf 4ca5 56be c0b9 e4bd 1e0d 2bbf
00000370: 1dff 74be 87a2 1abd 0cfb 11bf db34 82be
00000380: 746b 2d3e 03da 90bd 5ff7 00bf f134 95be
00000390: c2ed 343e ca26 01be cbb3 4b3d 9a8d 93be
000003a0: bfe9 59be 2752 c1be 32fe f7be 02c2 84be
000003b0: 01dc 47be 7329 ec3c d783 65be a6a8 b7be
000003c0: d564 6bbe b9fe 93be d9df 09bf 8207 65be
000003d0: ddef c4be 14d1 7fbd 5a8c 95be 6254 1cbf
000003e0: cb7d c0be 6bf9 1bbf 75d9 29bf 6bda 71bd
000003f0: 2c8a 053e 3bb1 b0be fb67 b4be 2861 883e

actor_direction.8.bias f4 [32]
-0.17150684 0.077156 0.18727559 -0.7522029 0.71825385 0.30422908 0.03569862 0.046551988
0.15028782 0.5785588 0.20878106 0.028526314 0.014535281 0.09543325 -0.5682233 0.11430621
0.14624812 0.07187555 0.10629625 0.043674204 -0.67110366 0.1327447 0.04520658 0.111836106
0.17440356 0.14258367 0.0038600143 0.091333635 0.050352465 0.16395268 0.1564825 0.3956275
00000000: 7d9f 2fbe f703 9e3d 2cc5 3f3e 5f90 40bf
00000010: 7cdf 373f eac3 9b3e b738 123d 4cad 3e3d
00000020: 0de5 193e 6e1c 143f b4ca 553e 04b0 e93c
00000030: 6325 6e3c 8272 c33d 1577 11bf 6019 ea3d
00000040: 11c2 153e 7d33 933d d9b1 d93d b9e3 323d
00000050: 73cd 2bbf 3aee 073e 892a 393d 540a e53d
00000060: d996 323e 7401 123e 4bf8 7c3b 210d bb3d
00000070: 633e 4e3d 36e3 273e f33c 203e b08f ca3e
