saved_model/NEW_ENV2_20250530_02-39-41.pth (torch, 623220 bytes, 111 tensors)

technical_norm.min_val f4 [4]
00000000: fcff 7fbf fcff 7fbf 5b3b c0c1 1350 b6c3
-0.99999976 -0.99999976 -24.028982 -364.62558

technical_norm.max_val f4 [4]
00000000: 4afc 47bf fcff 7f3f 10de 1b42 4531 6cc1
-0.7811934 0.99999976 38.966858 -14.762029

feature_extraction.0.weight f4 [128, 8]
00000000: eb8d 8b3e dc50 1f3e 4147 47be 94e1 d6be
00000010: 0b95 13bd 6c83 e93c b348 a6bd 8253 163e
00000020: 7741 ab3e e90e eebd a3df 86bb 8c75 193d
00000030: c455 efbc 5337 de3e 336b 263e 63f8 0cbe
00000040: a955 c4be 2c52 853d b535 6dbd 65f9 a83d
00000050: a696 bd3e 9365 923e c267 5a3b 926b 843e
00000060: b50b d0be 0406 c8bd b10a d73c 069d 25be
00000070: 55ef 9dbe 5fdd 81be 738d c13c 8647 8f3d
00000080: 845c 95be 4e16 a03e afbb cc3e 41fd 8ebd
00000090: b2a9 d6bd fb08 f33e 180d d03b e2ba f83b
000000a0: bafb 473d 9c0b b63e 4431 a1bd 673c 21be
000000b0: 0134 c53e 822a 8abd 8de9 7e3c c9e6 773c
000000c0: 2d73 efbe 4580 6ebe 6b8d c73d 1247 dc3e
000000d0: ebcf e23e a24e 6cbe de2a 9fbd e5be 883e
000000e0: 6f25 25be 048b a73e d4be b03e 4d6b 0a3f
000000f0: e947 003c 1391 8cbd fd70 8a3e 03d7 8a3e
00000100: 4df5 5dbd 0d6f 1bbc a091 fbbc f285 753e
00000110: d4c9 a23e 8188 38be 11b0 03bf bcac 113d
00000120: 220b 4c3e a1e0 733e 602e 54be 7676 b8bc
00000130: bb05 293d 2893 bb3e bb78 a9be 1676 6c3e
00000140: ae50 afbd 1bda 753e 7a79 e6bc 1119 a0be
00000150: 3964 d7bc f9e8 e6bd 8060 793e 36ae 603d
00000160: edb5 1b3e ee81 ae3c 3588 273e 3abd 03bf
00000170: 7810 9cbd c8f4 133e 5d25 c6be e980 173e
00000180: 2722 813e 04c7 213e edc2 553e a9a2 053f
00000190: 75a7 0f3d 914f 0b3e ca8d 8f3e 6455 9bbe
000001a0: 225c cebe 1e58 ff3c 9f84 8ebc 1d13 033e
000001b0: 496e 863e 77b3 c93d a8c9 d33d d56d 09bf
000001c0: ed75 b83d c49e 39be bb62 28be 23ec 8e3e
000001d0: cd22 db3c 0cea edbd 42e5 88be 8952 afbe
000001e0: 41fd 333e 701c 35be 8ffb f63d ce38 743e
000001f0: 5688 703e 9e04 063e 7610 aebe 4ce9 803e
00000200: 181a 99bc 3a62 fb3d 4cd2 b73c 6ff9 a83d
00000210: 0f9c 1cbe 789b 893e 8a4e 5f3e 9ec5 d43d
00000220: 95f5 f6be 98fc a7bd 2bd2 97be b02e b03d
00000230: 3381 f7bd 7acd 41be 877f a43e 1709 253e
00000240: bb78 19be 5da3 863e 21d9 103e 01d1 a93e
00000250: 7f86 483e ab1e 85be ee88 0abe 3d63 60be
00000260: 8acd 03be 016a f03d 7f7a 703e 4b3e e83e
00000270: a28b 44be 55b0 f53c 2ac6 0c3f 20e4 06bf
00000280: cceb a73e 9a07 813b e460 303c 2d66 6d3d
00000290: f554 5b3e 931d c53c aceb 9c3d 71c1 e6be
000002a0: c7a9 fc3e ee3f 003e 0c48 65bd fdb6 2c3e
000002b0: 7371 b2be 355e da3e f377 a13e 9dfd 143d
000002c0: adaa 4c3e 5ff7 adbc 71e9 173c d4f7 11bd
000002d0: 2db3 103e b3b4 893e 4a22 49bd ad10 ebbd
000002e0: 0a9b a4be 8df3 0ebe 4565 0dbe 3cb5 1ebe
000002f0: 2245 3ebe 9095 d23e 3942 4c3e 36fc 5c3d
00000300: ae26 773c dd40 a93e 94d9 d93d 4659 d7bd
00000310: 0abc 3ebe 95ee 243e 40b9 60be e7ba 3f3e
00000320: f6b1 50be 5fd1 e03d cd9d fdbe fbd0 8d3e
00000330: 7052 64be 52a7 9cbe 31e1 a73d bfbe 04bd
00000340: 2f15 103f c51d a63e 19ee 21bd 4f63 753e
00000350: aba4 18be bfb6 3f3e 76e0 78bd 24ee e83d
00000360: 4806 1a3e 4631 c23d c3df 643d 6a79 69be
00000370: aa64 32bc f97d 913e d9bd e7bc ecca aabc
00000380: 160d b0be 1b3d cdbb 41af 12be 9e59 66bb
00000390: 26a4 323d 61e4 c93e 1041 673d 7b08 21bf
000003a0: 375a a5be 063e 07bf d829 9abd 2346 08be
000003b0: c3e3 6d3e c679 183e 8212 d6bc 1754 9c3e
000003c0: 35c5 fb3e 296c 5c3e 038b 40bc efe4 613e
000003d0: 87f9 a73d 415d 033d 959e c33d cc44 6dbe
000003e0: 792e cc3d f7f5 053f aa79 d63e fd07 8e3d
000003f0: 505b 9abe a942 673e a014 df3d a38d 88be
0.27256712 0.15558189 -0.19460775 -0.41968977 -0.03603081 0.02850505 -0.08119335 0.14680293
0.33448383 -0.11623938 -0.004116015 0.037465617 -0.0292157 0.43401584 0.16251831 -0.13766627
-0.38346604 0.06509814 -0.057912547 0.08250693 0.37028998 0.2859312 0.0033326005 0.2586332
-0.40633932 -0.097667724 0.026250215 -0.16173181 -0.30846658 -0.25364205 0.023627019 0.06996064
-0.29172146 0.31267017 0.3998694 -0.06981898 -0.104815856 0.4746779 0.006349217 0.0075906375
0.04882405 0.35555732 -0.07870725 -0.15745698 0.38516238 -0.06746389 0.0155586125 0.015130707
-0.4676756 -0.23291118 0.0974377 0.43022972 0.44299254 -0.23076871 -0.07771848 0.2670814
-0.16127561 0.32723248 0.3452059 0.5406998 0.007829645 -0.06863608 0.27039328 0.27117166
-0.054189015 -0.009486926 -0.030709088 0.23976877 0.31794608 -0.18020822 -0.5144053 0.035565123
0.19926122 0.23816158 -0.20720816 -0.022517424 0.04126523 0.3663571 -0.33099923 0.23091921
-0.0856031 0.24008982 -0.028134096 -0.31269124 -0.026292907 -0.11274905 0.24353218 0.05485364
0.15206118 0.02130219 0.16360553 -0.5146061 -0.07620329 0.14448845 -0.3870038 0.14795269
0.2522137 0.15798575 0.2087514 0.52201325 0.03507181 0.13604571 0.28037864 -0.30338585
-0.40304667 0.031169947 -0.017397223 0.1280026 0.26256016 0.09848683 0.10341197 -0.53683215
0.090068676 -0.1812697 -0.16443913 0.27914533 0.026749993 -0.116169065 -0.2673741 -0.34242657
0.17577077 -0.1768663 0.120597 0.23849794 0.23489508 0.13087699 -0.33996934 0.2517799
-0.0186892 0.122745946 0.022439145 0.08250701 -0.15293907 0.26876426 0.21807304 0.10389255
-0.4823424 -0.08202475 -0.29652533 0.08602655 -0.1208519 -0.1892604 0.32128546 0.16116749
-0.14987461 0.2629651 0.14145328 0.3316727 0.19582556 -0.2599996 -0.13528797 -0.21912856
-0.12871376 0.11738969 0.23484229 0.45360026 -0.1919389 0.029991308 0.54989874 -0.5269184
0.32797086 0.0039376738 0.010765288 0.05795877 0.21419127 0.024061954 0.07662138 -0.4506946
0.4934828 0.12524387 -0.055976912 0.1686668 -0.3485218 0.4265 0.31536826 0.036374677
0.19986983 -0.02123612 0.009271965 -0.035636738 0.1413085 0.26895675 -0.049104966 -0.1147779
-0.32149535 -0.13960095 -0.13808163 -0.15498823 -0.1858106 0.41129732 0.19947137 0.053951465
0.015084906 0.330573 0.10637203 -0.105150744 -0.18626419 0.16106637 -0.21945667 0.18723641
-0.20380387 0.10977434 -0.49534455 0.27698502 -0.22297072 -0.30596405 0.08197249 -0.032408472
0.56282324 0.32444587 -0.03953371 0.23963664 -0.14906566 0.18722056 -0.060760938 0.11373547
0.15041459 0.094820544 0.05587746 -0.22800222 -0.010888258 0.28416422 -0.028288769 -0.020848714
-0.34384984 -0.006263388 -0.14324667 -0.003514863 0.043613575 0.39432052 0.056458533 -0.62903565
-0.3229539 -0.52829015 -0.07527512 -0.13308005 0.23231415 0.14890203 -0.026131872 0.30532905
0.49173895 0.21525635 -0.011751893 0.22059987 0.082018904 0.032071356 0.095517315 -0.23170775
0.099698015 0.5232844 0.41889697 0.069351174 -0.3014779 0.22584023 0.10892606 -0.2667056

feature_extraction.0.bias f4 [128]
00000000: 0a00 debe 2102 dc39 599d 503c 3aeb a3be
00000010: 5f12 b13d 08d1 57be 797a 3fbe 43a5 8d3e
00000020: 4716 433d dad4 cd3e 05ee ae3e 4b63 a2be
00000030: 78ad d03d 8852 fd3e 733d dfbe 55c3 b9be
00000040: dda0 d93d f738 dfbd 968d 80be 91ea 163f
00000050: b06b 813e 3a19 0ebe 4631 553e d361 cb3e
00000060: e24c f03d bb2a 9b3d 12bd 75bc e099 313e
00000070: 9a94 28bd 5597 113d 46b0 243e 002c 2cba
00000080: 6584 8ebe 0a05 abbe 0de1 00be 9029 9c3e
00000090: 2934 adbb bd8f 053f a032 fdbd 8671 a8be
000000a0: 72a9 1bbe 34af 0c3d 4a1d abbe 2619 7f3e
000000b0: 8a44 763e f9ad 783e ddc2 bfbe 1f6b 813e
000000c0: b843 4bbe 9886 a03d 8daa f23a e614 09bc
000000d0: 1fc8 04bf 85ba 6ebe b24d 67be cda6 ef3d
000000e0: e451 8d3d 2cba 47bd ec19 e53e d4a3 02be
000000f0: a0a6 a7be c6a6 29be dbe8 f1bd 53fb 233e
00000100: 00dd adbc 5e1c abbd d196 a43d 9cd7 353c
00000110: 6640 01bd 6837 de3d f7d8 883e 62cb a23e
00000120: 5bac 283e eb92 0ebf a754 913e a2ac a23e
00000130: 63da 813e da7e b8be 5571 3dbe 5d21 d5bd
00000140: 9167 b1be dd06 f7bd 6b6b 51be 7b2d d1bc
00000150: 5049 523e 2301 d03b 0f51 94bd 4c29 b2bd
00000160: c7bf ff3d 6be7 abbe 1a8c 75bc 3f6f 36be
00000170: 25ff 103e 778c ce3d 6dae 9d3e b4aa 0cbe
00000180: a604 f6bd efa9 a8bc 22a2 96be 4e5b 19bb
00000190: c93b 81bd a31e 00bf fdf5 aabd 1952 643e
000001a0: 2839 6fbe 88db 233d 4ed6 88be c7bb 583e
000001b0: f48d 4ebe bbea 7e3e 9a7c 3bbe 4809 003f
000001c0: 543c 7ebe e439 76be ec3f b43c 3a6e a43e
000001d0: 4739 63be 1e47 b8be 5c22 583d 31e6 ce3d
000001e0: 6267 c23e 7dea f83d b50b 48be 6328 90bd
000001f0: 03bc 093d 70ab ca3e 7fc0 e9be 7cb8 c7be
-0.43359405 0.00041963256 0.012732827 -0.320154 0.08646082 -0.21075833 -0.18699063 0.27665147
0.047628667 0.40201455 0.3416597 -0.3171638 0.101893365 0.4947703 -0.4360157 -0.3628184
0.10626385 -0.10899537 -0.25108021 0.5895167 0.25277472 -0.1387681 0.20819578 0.3972307
0.11733414 0.075765096 -0.014998691 0.17343855 -0.041157342 0.035544712 0.16082868 -0.0006567836
-0.27835384 -0.33402282 -0.1258585 0.3050046 -0.005285759 0.5217245 -0.123631716 -0.32899112
-0.15201357 0.034346774 -0.33420783 0.24911937 0.24049583 0.24285115 -0.37453356 0.2527704
-0.19850051 0.07838172 0.0018513963 -0.008366799 -0.5186786 -0.23313339 -0.22588232 0.117017366
0.06900385 -0.04876153 0.4474634 -0.12757808 -0.32744312 -0.16567525 -0.11811992 0.16013841
-0.021223545 -0.0835502 0.080365784 0.011098769 -0.031555556 0.10850412 0.2672803 0.31795794
0.16471998 -0.5569293 0.28384897 0.31772333 0.25361928 -0.3603428 -0.18500264 -0.10406754
-0.34649327 -0.12061856 -0.20451133 -0.025534382 0.20535779 0.0063477918 -0.07242023 -0.08699283
0.124877505 -0.33574995 -0.014987016 -0.17815875 0.1415983 0.10085385 0.3079714 -0.13736993
-0.12012605 -0.020588843 -0.29420573 -0.002340037 -0.06310231 -0.5004675 -0.083477 0.22296943
-0.23361647 0.040004283 -0.26726002 0.21165381 -0.20171338 0.2489423 -0.1830925 0.5001416
-0.24827701 -0.24045521 0.022003137 0.32115346 -0.22189818 -0.35991758 0.052767143 0.10102499
0.379695 0.121541 -0.19535716 -0.07038953 0.033626568 0.3958392 -0.45654675 -0.39007938

feature_extraction.2.weight f4 [64, 128]
00000000: be7b a93d f593 11be 8ccd 1cbe 03fa 45bd
00000010: df1f ad3d fcd4 c53d 580f 0fbe dcca fd3c
00000020: c567 463d 6a17 87bd 2dec 8b3d f4bb 953c
00000030: 86c4 1ebd 316e 80be 4d2c 61be 0f53 d8bd
00000040: b240 f1bd d47f 5cbe 7acc 46bb 3b32 e43c
00000050: 7a9d fcbe 138e 7fbe fb94 38be 7578 d73d
00000060: d000 69bd 1096 b9be ac43 84be 079a 0a3e
00000070: f75f 9fbe d0f6 503e 5787 f1bd 4613 5dbd
00000080: 79e3 2ebe a17a 66be 54b3 253c 9f4b 9c3e
00000090: 4d3a 7d3e f834 c1be 7f29 9f3e 0c97 a83c
000000a0: ba06 59bd f010 c6be 1a55 303e 6fd6 24bc
000000b0: 304d 8ebe e90c 01be 0024 6bbd 1a19 87bd
000000c0: 54eb 5c3d efed 4dbe 2750 29be d646 56be
000000d0: b01a 813e 2788 bebc b1ed b4be c293 88bd
000000e0: 21c4 453e f6ee 8c3e aff7 09bd 596d 86be
000000f0: 0ae5 113e 8036 ecbd 3f68 0abd 8591 cbbd
00000100: 7bdb 76bc 9df0 e7bd 05bf 13be 9d11 b7bc
00000110: b627 c5be ee95 9bbd 7001 d93d e099 3e3e
00000120: ccba 7a3e 7d2d 003e 2994 84be 0a15 0ebe
00000130: 8eb7 b5bd 20e3 46be 6ccc c73e 6473 04bd
00000140: 2602 6bbe ce32 23be 2e8a e13c 2a70 803e
00000150: 9bab bb3d f8b1 0bbe 5a34 04be 9c0d 99bd
00000160: 3c01 5b3d 797e f4bd 6df5 413e 7562 99bd
00000170: b54c 953d ce47 26bc 23dd 0abc ffd5 b7bc
00000180: a950 42be 962c 4fbe 12e1 2bbe 3779 d0bd
00000190: c7ee 43bd 87a2 52bd 4524 1bbe 81a2 7fbe
000001a0: 6434 143e 8071 69be bf8c 8b3d e062 d7bc
000001b0: 93bc 113d 6a6c 23bd b1de adbc 1159 92be
000001c0: bf02 863e 4d67 28bd 86a2 653d 2096 e33d
000001d0: 05ba 893d 96ed d13e f7ad 993c 579a 1ebe
000001e0: 9d38 84be c99b cebd e1c9 c3be 8a6e 163e
000001f0: a547 93bc f213 25be fc99 7a3d 4c59 bd3d
00000200: 872b 8ebe d10a d9be 2d40 32be 4990 803e
00000210: e313 e7be 476f a6bd c5ba 4ebe abc8 2abf
00000220: 2402 f3be 7eac 14bf 28e8 26bf c44f 643d
00000230: 6da9 13bf 0616 3dbe d046 97bd 9fa9 eabe
00000240: 8e44 12bf 60e6 1cbe 2798 c33d 84a2 21bf
00000250: 5d42 6a3e ddfa f0be bf1f e9be 78a7 09bf
00000260: 088a 4abe 74de c5be db67 45bf 7a8f 23bf
00000270: 351d 183d 53ff b8be c57e 1cbf 06a5 c5bd
00000280: 8e32 ec3c cbd3 4ebe 4483 09bf dd2d aebd
00000290: cc41 9dbe 8fda 63be d992 36be 2000 4abe
000002a0: 8e73 b5be ea95 5e3e 2747 81be 6efc eabe
000002b0: d97f dfbe 685b a8be 2aa7 46be 9599 27be
000002c0: 31b3 99be 63ce 4cbe 1084 18bf bac8 c43e
000002d0: 77e4 89be 4e00 61be 3159 b83d 6b72 abbe
000002e0: be11 27bf 1121 49be f6b8 89be 568c bc3e
000002f0: 7f09 afbe e5ea a73d ea4d 15bf 9c9f d2bd
00000300: 87d9 58be 07fd d6be 9bbe 84be 8af2 203e
00000310: b285 b03e 86c4 b8be 1026 1bbf b7fc 0fbf
00000320: 5acb f9be a8db 13be 26b6 c7be 518d 08bf
00000330: a2c3 a0be 1105 c63e cbea 69be ca4a 8abe
00000340: f1a7 073d f151 093f 9ac5 a4be 1d04 3bbe
00000350: 38ee debe 85c5 bcbe cda3 09bf e1df 1ebe
00000360: 99ac 01bf ceed bbbe a289 f5be addd 0dbf
00000370: fd55 13bf 104a e0be 293a 8fbe 157e a8be
00000380: fe60 81be c3ac ffbe 6bb5 1f3f 475b 07bf
00000390: b53e e9be daa6 1a3c fa57 d6be 09d3 e0be
000003a0: 1d25 cfbe 7f89 fdbe fd15 a6be cf53 bfbe
000003b0: 0234 d8be 5006 ea3c 954d 14bf 505a a33d
000003c0: 28c1 8ebe 0374 54bf ac84 eabe e6e7 25bf
000003d0: ee38 f6be 4da0 d3be c3f6 e5be ca54 0fbf
000003e0: aaf8 0bbe 2234 76be a141 113e 1fca 24bf
000003f0: 2faf 98be f481 3ebf 7a00 f1be d95b 953d
0.08275555 -0.14216597 -0.15312785 -0.048334133 0.084533446 0.09659764 -0.13970697 0.03098052
0.048438806 -0.06596263 0.06832156 0.0182781 -0.038761638 -0.2508407 -0.21989556 -0.10562717
-0.11779918 -0.21533138 -0.003033428 0.027855983 -0.49338895 -0.24956541 -0.18025582 0.10521022
-0.05688554 -0.362473 -0.2583288 0.1353532 -0.31127903 0.20406651 -0.11793392 -0.05397346
-0.17078961 -0.22507717 0.010113556 0.30526444 0.24729271 -0.37735724 0.31086347 0.020579837
-0.05298493 -0.38684797 0.17219964 -0.010060891 -0.27793264 -0.12602581 -0.05740738 -0.065965846
0.053935364 -0.20110296 -0.16534482 -0.2092546 0.25215673 -0.023258282 -0.35337594 -0.066688076
0.19313098 0.27526063 -0.033683475 -0.262553 0.14247528 -0.115338326 -0.033790823 -0.09939865
-0.015066977 -0.1132519 -0.14428337 -0.022347266 -0.3850686 -0.07596956 0.10595977 0.18613386
0.2448532 0.12517352 -0.25894287 -0.13875213 -0.08872901 -0.19422579 0.3902315 -0.032336608
-0.22950038 -0.15937349 0.02753171 0.25085574 0.091635905 -0.13642108 -0.12910596 -0.07473299
0.053467974 -0.11938185 0.18941279 -0.07489482 0.07290021 -0.0101489555 -0.008475575 -0.022440908
-0.18976082 -0.20231852 -0.16785076 -0.1017937 -0.047835138 -0.05142453 -0.15150554 -0.24964334
0.1447311 -0.22797203 0.068139546 -0.026292264 0.03558023 -0.039898314 -0.021224352 -0.28583577
0.2617397 -0.04111414 0.056063198 0.111126184 0.067249335 0.41001576 0.01875971 -0.15488563
-0.25824443 -0.100883074 -0.3823996 0.14690605 -0.017978499 -0.1612089 0.061182007 0.09245548
-0.27767584 -0.42391065 -0.17407294 0.2511008 -0.4513236 -0.08126693 -0.20188434 -0.66712445
-0.4746257 -0.580757 -0.6519799 0.055740133 -0.576804 -0.18465433 -0.07386553 -0.45832536
-0.57135856 -0.15322256 0.09550505 -0.63138604 0.22876878 -0.47066393 -0.45532033 -0.5377116
-0.19779217 -0.3864628 -0.77111596 -0.638908 0.03713723 -0.36132297 -0.61130935 -0.09650616
0.0288327 -0.2019798 -0.5371592 -0.085048415 -0.30714262 -0.22251342 -0.17829455 -0.1972661
-0.35439724 0.21736875 -0.25249597 -0.45895714 -0.43652228 -0.32882237 -0.19399706 -0.1636718
-0.30019525 -0.20000605 -0.5957651 0.38434392 -0.26932117 -0.21972772 0.09001387 -0.3348573
-0.6526145 -0.1964152 -0.26898926 0.36825818 -0.34186932 0.081990995 -0.5832201 -0.10284349
-0.2117673 -0.4198992 -0.2592667 0.15717521 0.34477 -0.36087435 -0.60604954 -0.5624499
-0.48787957 -0.14439261 -0.39006156 -0.5334063 -0.31399256 0.3867574 -0.22843473 -0.27010185
0.033119146 0.5364066 -0.32182008 -0.18263288 -0.4354112 -0.36869445 -0.53765565 -0.1551509
-0.5065399 -0.36704868 -0.47956568 -0.55416375 -0.5755308 -0.43806505 -0.2797406 -0.32908693
-0.25269312 -0.49936494 0.62386197 -0.52873653 -0.45555654 0.009439195 -0.41863996 -0.43911007
-0.40458003 -0.49518964 -0.3243865 -0.37368628 -0.4222718 0.028567463 -0.5793088 0.0797621
-0.27881742 -0.8298952 -0.45804346 -0.64806974 -0.4809031 -0.41333237 -0.44914827 -0.5598875
-0.13669077 -0.24043325 0.14185192 -0.6437091 -0.29821154 -0.7441704 -0.47070676 0.07292909

feature_extraction.2.bias f4 [64]
00000000: e9b2 debd 2874 32bf 8303 003e cc8d b6bc
00000010: e39d 50bf d6e1 ef3d f7c7 853e 57ef 313e
00000020: c1ed 713d 7a37 8bbc fdd1 f3bd 9a81 8ebe
00000030: e094 863b 1095 1d3e 1e05 20bf 6ee3 1d3e
00000040: 182c 723d d4d6 553e c125 2f3d 7f46 673e
00000050: 1ee3 b43e 12c9 163e 39fe 993d 09aa 60bd
00000060: 68e1 673e 4426 103d 6621 2abd c1a6 63bd
00000070: dfbf f13d f6f7 9d3d 7484 ee3d b719 453e
00000080: 5200 4cbd a85c 45bd 0ed9 083e 04cf 3ebe
00000090: 664e 9ebc 6717 503e 6eac 3d3e ab41 003e
000000a0: c8af 17be e4bc a3be a755 993d 6f6b 9c3c
000000b0: 84f0 4dbe 382b 3bbd 0c20 023c c351 a7bc
000000c0: 92df f5bb 3691 c83d 793a 213e 8556 0d3e
000000d0: fb69 49bc 76d3 d7bc 1bbd 023e 2723 80bd
000000e0: cf28 953d fd68 863d e8fd 8fbb 6706 963d
000000f0: 2b7f 773e d0f7 7f3e 8b1d 4e3d 7572 20bc
-0.10873968 -0.6970849 0.1250134 -0.02228441 -0.81490916 0.11712997 0.26129124 0.17376457
0.05906463 -0.016994227 -0.119052865 -0.27833253 0.0041071028 0.15388894 -0.6250781 0.15418789
0.059124082 0.20882732 0.042760614 0.22585486 0.35329527 0.1472514 0.07519192 -0.05484966
0.2264458 0.035192743 -0.041535757 -0.05557895 0.11804175 0.077133104 0.11646357 0.1924809
-0.049804993 -0.048184067 0.1336405 -0.18633658 -0.019324493 0.20321427 0.18522808 0.1252505
-0.14813149 -0.3198005 0.0748704 0.019094197 -0.2011128 -0.045695513 0.007942211 -0.02042473
-0.0075034583 0.09793322 0.15744962 0.13802536 -0.012293334 -0.02634595 0.1276745 -0.06256705
0.07283174 0.06562994 -0.0043942817 0.0732544 0.24169604 0.24996877 0.050321143 -0.009792914

actor_direction.0.weight f4 [128, 64]
00000000: b1d3 903e a529 b4bd 22f1 ce3d ee55 dabc
00000010: 1cbe 81be 104a b5bd 6304 8e3d 1330 b73d
00000020: 298d c43e 8923 00bd cc7e 7d3e 2fb4 4e3e
00000030: 32d0 153e 32c1 f0bd 36c0 033d 2ad6 1c3c
00000040: 66f0 c63e 1bec b43e a783 913e 2ea6 fe3d
00000050: b046 abbd 708f 843e 4a78 533e eef0 acbd
00000060: 774c a8bd b6ab 3c3e c835 ad3e a253 483e
00000070: 294d 283e 4220 af3d 9673 1c3e 4499 b63c
00000080: 8d73 893e 069b 8b3e 8361 fe3a 8959 2fbe
00000090: 5be6 553e 33a3 cf3d 6818 0f3e bbc4 4f3e
000000a0: f7ae 913d 3b17 a13e b5fd 113e 993e 903e
000000b0: d3ee 043d cbf6 383e 8602 2f3e 1a52 c6bd
000000c0: b205 07be 9383 573e a77c 8bbc 3d14 ac3e
000000d0: 2c17 003e 7bb7 5fbe 2003 80bd ea22 50bc
000000e0: 1e13 5abd 4f04 7b3e e1ff 9abd 31c3 8abd
000000f0: db29 773e 5e99 563d b211 e33d f19b cd3c
00000100: 4dfa 3e3e 5f24 8fbc 058a a33d 0171 343e
00000110: 420c 0fbe 781f 853e c859 4f3d 1c25 723d
00000120: 388c 2a3e da86 503e 1838 4abd f839 833d
00000130: 68c9 673d fb84 303d db55 dd3d 4c6b 153e
00000140: bd01 493d 7d75 143e 11f7 da3d 9b35 eb3d
00000150: e0e0 863e 4794 fa3d 4796 4b3d 7618 093b
00000160: f500 eb3b 57e6 ac3b 9b5a e33d 344d 2c3d
00000170: b929 e03d fd2f 213d 8d53 3a3e de0e bb3d
00000180: 2d6f e7bb e02f d53c 9f48 343e a617 d2bd
00000190: ec66 103d 391e 253e 0659 1e3e e929 da3d
000001a0: 2d2b 903d 7260 2e3d 8e63 603e 8af1 873e
000001b0: 99d2 463d 9962 1b3e 06fa e1bb 49c0 e73d
000001c0: 128a 803e 6f7c 6e3d 7b5d daba 46ce bebd
000001d0: 6446 db3d c0e4 973d 7a27 5a3e 72e7 a33e
000001e0: c2dc 693e 29c6 323e 6080 393e add0 913c
000001f0: 0a92 013e 7e90 2e3d d819 f83d f292 753e
00000200: ead7 393b b957 90bd cf20 4b3e 259d 5ebe
00000210: c664 8abe 4134 d43d e866 5d3e a51a 7c3e
00000220: 005f 2a3e 26be 203e 0a06 723e d64c 87bd
00000230: b729 563c 2708 013e 5ab5 8abe 3bbc ce3d
00000240: f386 7f3e a45b a93e 9081 c93e 6287 e4bd
00000250: 5cd9 e13d 79e1 1f3e 8988 a23e b657 a93c
00000260: ab58 99bc 71e3 1c3e 16ec 95bd 90e9 b13d
00000270: 0c00 423e 3ad2 c13e 70d4 9dbd c312 a23e
00000280: 807a 1b3e f7e4 9a3d efa9 36bd ab64 fd3b
00000290: e77c 7abb 61eb a53d 957d bb3d 0f00 743e
000002a0: f27a 4a3d b104 d8bd 8c5a 913e b27f 363e
000002b0: 30ee 883e 9e5b b7bd 8a81 0a3e 149e 38bc
000002c0: 8291 1c3d c9b3 6cbd e0bc 443e f44f abba
000002d0: 1002 63bd cd24 5b3d 692e 243b b629 393e
000002e0: 6381 8c3d 16df 8c3e f35d 30be a528 68bd
000002f0: f5bc d83d 9e16 003e c281 1fbd 274c d33d
00000300: 738d 7c3d d95f 82bd bab1 843e 2d50 6c3e
00000310: 87ce 3abd acac 553c f698 b23d 065e 3f3e
00000320: 3768 2fbe 4d13 203e 95a2 653c 3039 383d
00000330: 91eb 523e b5b6 1f3e 9337 3fbd 281a 7b3d
00000340: d774 8abd 56fa 1c3e acfc 24be 8f29 0dbd
00000350: 6f8c 653d 3b76 573e 09f6 63bd 268f 203e
00000360: ecd5 4e3e 1009 0e3e 038c 3d3e c3aa 1cbe
00000370: 4f15 183e 3670 503e c403 fc3d 828c 063e
00000380: 2fc8 e63d 5cdd 063e cac7 663d 904f 673d
00000390: 22c3 d53d f908 9a3d 9c98 2d3e 4d10 773e
000003a0: 6bee 8a3d 99d0 0e3d e814 643e 6fb9 063d
000003b0: 2f3d 8abd 0561 d83c c8aa 483d 2cda 563d
000003c0: c819 373e e9bb 0d3e 7ff0 eb3b b515 753d
000003d0: aaf1 683e abfe e8ba 8795 f53d 500d 263e
000003e0: dedf c13d f66d f23d 3f23 e13d 368a 7b3e
000003f0: 5d10 293d 34a7 dfbc 2748 373e 4107 703e
0.28286508 -0.087970056 0.10104586 -0.026652303 -0.25340354 -0.08852017 0.069344305 0.08944716
0.38388947 -0.03128389 0.247554 0.20185922 0.14630201 -0.11755599 0.03216573 0.009572545
0.38855284 0.35336384 0.28420755 0.1243404 -0.08363092 0.25890684 0.20651355 -0.08444391
-0.082177095 0.18424878 0.33830094 0.19563153 0.16435684 0.085510746 0.15278468 0.02228988
0.2684597 0.2726671 0.0019407723 -0.17123999 0.20888655 0.1013855 0.13974154 0.2028989
0.0711345 0.31463036 0.14256938 0.28172758 0.032454323 0.18062894 0.17090806 -0.096836284
-0.13185766 0.21046285 -0.017027212 0.3360919 0.1250884 -0.21847336 -0.06250596 -0.012703637
-0.053240888 0.24513362 -0.07568336 -0.06775511 0.2413706 0.052392356 0.110873595 0.025098773
0.1865017 -0.017473398 0.079853095 0.17621233 -0.1396952 0.2600057 0.05062273 0.05911742
0.16655052 0.20363942 -0.0493699 0.06407541 0.05658856 0.04309557 0.10807391 0.14591712
0.049073923 0.14497943 0.106916554 0.11484834 0.2634344 0.12235313 0.049703863 0.002091912
0.007171745 0.005276482 0.11101266 0.042065814 0.10945458 0.039352406 0.18195935 0.09133695
-0.0070628137 0.026023805 0.17605828 -0.10258417 0.035254404 0.1612481 0.15463647 0.10652525
0.07039485 0.042572446 0.21912977 0.26551467 0.048540685 0.15174331 -0.00689626 0.11315972
0.2510534 0.058224138 -0.001665994 -0.09316687 0.10706785 0.074166775 0.21304122 0.32012516
0.22838119 0.17458405 0.18115377 0.0177997 0.12653366 0.042618267 0.12114304 0.23981836
0.0028357455 -0.07047982 0.19836734 -0.21739633 -0.2703001 0.10361529 0.21621287 0.24619539
0.16637802 0.15697536 0.23635116 -0.06606452 0.013071469 0.12600766 -0.27091485 0.10094496
0.24953823 0.3307773 0.3935666 -0.11158635 0.11027786 0.15613355 0.31744793 0.020671707
-0.018719038 0.15321137 -0.073204204 0.08687127 0.1894533 0.37855703 -0.07706535 0.3165494
0.15183449 0.07563203 -0.044595655 0.007732948 -0.003822142 0.081015356 0.09154812 0.23828147
0.049433656 -0.1054777 0.28389394 0.1782215 0.26744223 -0.089530215 0.13525978 -0.0112681575
0.038224705 -0.057788644 0.19212675 -0.0013070093 -0.05542189 0.053501893 0.0025052077 0.18082318
0.06860616 0.2751395 -0.17223339 -0.056679387 0.10582916 0.12508628 -0.038942106 0.10317259
0.061658334 -0.06365938 0.25916845 0.2307746 -0.045607116 0.013041656 0.08720581 0.18688211
-0.17129599 0.15632363 0.014015813 0.044976413 0.20597674 0.15597041 -0.04668386 0.06130424
-0.06760567 0.1532987 -0.16112012 -0.03446346 0.05604213 0.21041195 -0.05565456 0.15679607
0.20198792 0.13870645 0.18510441 -0.15299515 0.14851879 0.20355305 0.12305406 0.13139537
0.11268651 0.1317038 0.056342877 0.05647236 0.10437609 0.07521243 0.16952747 0.24127312
0.06783756 0.034866903 0.222736 0.032891687 -0.06749951 0.02641345 0.048990995 0.05245416
0.17880929 0.13841213 0.0072003 0.059835155 0.22748438 -0.0017776092 0.11991411 0.16216016
0.094665274 0.1183738 0.10993051 0.24564442 0.04127537 -0.027301408 0.17898618 0.23440267

actor_direction.0.bias f4 [128]
00000000: 5cd1 ee3c f5d3 a03d b3c1 1c3e dc25 313e
00000010: 0840 d93d eb39 0e3d f126 513e e9ed cc3d
00000020: 2e1a 06bc d21f 573d b964 113e 68bc a23e
00000030: 2023 9f3e ce1f 86bc 3efb 4a3e 072f 723e
00000040: 12e2 123e b4bb 833d d355 113e 9be7 023e
00000050: 3d44 543e 831c 243e c30f 393e 8ca9 703e
00000060: a8d2 813e dae5 583e 792a 9f3d e7d7 1c3d
00000070: 2d88 e23c e0fe 9b3d d826 123e c5f9 6a3e
00000080: d7be ac3d 837b d53d 4c49 423e e21a 613e
00000090: 7f50 a33d 1466 053e 8481 7f3e 6abe 443e
000000a0: 87bf 163d c06d 823d f52f 133e 0f1e 163e
000000b0: f754 c93d 0287 3b3e ef71 613e a767 493e
000000c0: e4e7 743c b31c 893e 864c 473e b71a 3a3e
000000d0: 9b4d 583e f3f9 6b3e fa58 423d 744f 263e
000000e0: 3085 d53d b3df 083e 7c6f 143e 1cac 873a
000000f0: 7473 fc3d d104 8c3d de8d 443e 19ab 043e
00000100: 5c1a 8f3e 0f16 5c3e 0af1 343e e1da 043e
00000110: 2c40 5c3e 9fa9 3f3e d0cd bebc d136 6b3e
00000120: dc19 bc3d 9d45 023e 7959 853e ff9b c03c
00000130: cca3 7e3e 6888 553e 7f22 133d b530 393e
00000140: fb16 a23c 5eb4 993d f845 333e d3aa 523e
00000150: 8482 6c3e 7ae1 573e 9fb3 633e 8751 1a3d
00000160: ffb7 2a3e 2145 443d 2e29 933e 9072 713e
00000170: 52ac 1f3d aa44 6e3e 7921 c73d 42b3 8d3e
00000180: f209 8a3e bf95 de3d ff88 433e 8aed a23e
00000190: b39c 7f3e ef48 e13c acce 5e3e 84ce 1c3d
000001a0: 8360 133e d05d 8a3e ec6d 8a3e 4462 ed3d
000001b0: 83a1 1e3e 95a2 323e 2bc7 0f3e a50e 033e
000001c0: f1c9 833d 9684 353e 5e90 0a3e f453 063e
000001d0: 6419 eb3c edce 2a3e d63f 883d 8b72 303e
000001e0: 7fb9 873e d6ff b6ba f778 6f3e b452 153e
000001f0: 7ce3 323e 069d 383e bb61 393e 28c4 6b3e
0.029152565 0.078529276 0.15308265 0.17299598 0.10607916 0.034723204 0.20425011 0.10006315
-0.008184953 0.05252058 0.14198579 0.31784368 0.31081486 -0.016372588 0.19822404 0.23650752
0.14344051 0.06432286 0.14192896 0.12783663 0.20729156 0.16026501 0.18072419 0.23502177
0.2535603 0.21181431 0.07771773 0.038291838 0.027652824 0.07616973 0.1427263 0.22946842
0.08434837 0.104239486 0.18973273 0.21982911 0.07974338 0.13027221 0.2495175 0.19213262
0.03680375 0.063685894 0.14373763 0.14659904 0.09830659 0.1831322 0.22016118 0.19668446
0.014947865 0.26779708 0.19462785 0.18174253 0.21123354 0.23044567 0.047448136 0.16241246
0.10425794 0.13366584 0.14495653 0.0010350975 0.123267084 0.06836856 0.19194743 0.12955894
0.27949798 0.2149279 0.17670074 0.1297412 0.21508855 0.18717049 -0.023291498 0.2297013
0.0918462 0.12721868 0.26044825 0.023511885 0.24867171 0.20852816 0.03592157 0.18084987
0.019786349 0.075051054 0.1750716 0.20572977 0.23096663 0.21082106 0.22236489 0.037675407
0.16671751 0.04791749 0.28742355 0.23578858 0.038982697 0.23268381 0.09723181 0.27675825
0.26960713 0.108684056 0.19095229 0.31821853 0.2496212 0.027500598 0.21758527 0.038282886
0.14392285 0.27024698 0.2703699 0.11591008 0.154913 0.17444833 0.1404082 0.12798555
0.06435002 0.17726359 0.13531634 0.13117963 0.02869863 0.16680498 0.06652801 0.17231195
0.2650871 -0.0013961743 0.23385988 0.1458233 0.17469591 0.1802865 0.18103687 0.23024046

actor_direction.1.weight f4 [128]
00000000: af6e a33f f22c 853f a979 9b3f 8e8a 723f
00000010: c9a7 963f ff44 9f3f 8a47 973f e8ee 863f
00000020: 895b 8d3f 1830 9a3f 2ab1 903f cf62 8d3f
00000030: 57be a43f af33 953f bfb6 8e3f afe6 9d3f
00000040: 2007 a23f ac1d 8b3f ad5d 933f dc9c 8e3f
00000050: 05f5 8f3f 1ed1 923f 6501 903f ad5e a83f
00000060: d9fc 8c3f 90f7 a03f f83d a23f e2f7 9a3f
00000070: d3a4 953f 8b69 933f 6135 923f 4666 9c3f
00000080: 015c 993f 9dc1 933f c855 b13f da4a 8e3f
00000090: a5fd 863f aad1 923f 3438 823f fb69 8b3f
000000a0: 8dfa 9b3f a46b 843f 3175 973f 5f3b 9f3f
000000b0: 36ef 8f3f e587 893f 7afe 943f 0a79 943f
000000c0: 8d70 873f e289 a43f e225 9d3f db51 a43f
000000d0: 7cce a13f cc50 a13f 63c6 893f a38e 9e3f
000000e0: 6b32 773f 67f1 973f ddef a33f 0147 913f
000000f0: b4ed 773f c433 923f aaff 8d3f 28e4 9b3f
00000100: c362 903f aa7c 993f 8054 923f 760f 963f
00000110: 6a9d c43f 97a3 8a3f c5b8 973f 9e28 8c3f
00000120: 6370 8b3f df2f 9d3f c282 8e3f e269 993f
00000130: 3602 9c3f acf9 8e3f 2c31 b53f b699 913f
00000140: 5910 973f 9cef 7c3f b07b 813f cf48 983f
00000150: 37df 903f 79a8 893f 6d60 963f 14e6 b73f
00000160: 36e5 8c3f df1d 933f a44b 9b3f f323 903f
00000170: a5f5 993f 27e3 783f 941a a23f 3f3d 883f
00000180: 59f0 853f 2498 8f3f 3534 9d3f 4d25 8a3f
00000190: af39 933f 82d9 a33f 9769 9d3f 5fa2 8c3f
000001a0: ad6c 863f 7cf1 8b3f 422f 953f abf7 8a3f
000001b0: 19a0 823f 2149 ae3f d486 a23f b52f 893f
000001c0: e95a 703f af86 963f 9b1f 9b3f 4682 853f
000001d0: 6854 853f 25b1 7f3f ebbe 943f 307e a23f
000001e0: 5ad2 a43f 37d9 b13f dcf3 9b3f 11f2 9d3f
000001f0: 14d2 9c3f 95a7 9b3f 36e0 ad3f 8331 983f
1.2768153 1.0404341 1.2146503 0.9474267 1.1769954 1.2442931 1.1818707 1.0541658
1.1043559 1.2045927 1.1304066 1.1045779 1.2870587 1.1656398 1.114952 1.2336024
1.2658424 1.086843 1.1512963 1.114162 1.1246649 1.1470068 1.1250426 1.3153893
1.1014663 1.257555 1.2675161 1.2106898 1.1690925 1.1516584 1.142254 1.2218711
1.1981202 1.1543461 1.3854303 1.1116593 1.0546156 1.1470234 1.0173402 1.0891718
1.2185837 1.0345349 1.1832639 1.2439994 1.1244876 1.0744597 1.164016 1.1599438
1.0581223 1.2854578 1.2277186 1.283748 1.2641139 1.2602782 1.0763668 1.2387279
0.96561307 1.1870545 1.2807575 1.1349794 0.9684708 1.1422048 1.1093647 1.2179003
1.128014 1.199117 1.1432037 1.1723468 1.5360539 1.0831174 1.1853262 1.0949895
1.0893673 1.2280234 1.1133654 1.1985438 1.2188175 1.1169944 1.4155631 1.1375034
1.1801864 0.98803115 1.0115871 1.189722 1.131812 1.0754539 1.1748177 1.4367089
1.100745 1.1493491 1.2132459 1.1260971 1.202809 0.97221607 1.2664361 1.0643691
1.0463973 1.1218305 1.2281557 1.0792633 1.1501979 1.2800753 1.2297848 1.0987052
1.0501915 1.093307 1.1655047 1.0856832 1.0205108 1.3616067 1.2697396 1.0717684
0.9388872 1.1759852 1.211902 1.0430381 1.0416384 0.99879676 1.1620764 1.2694759
1.2876694 1.3894414 1.2183795 1.2339498 1.2251611 1.2160517 1.3584049 1.189011

actor_direction.1.bias f4 [128]
00000000: 8632 133e 614b 1ebd c135 c33d e35f b4bc
00000010: 7c1e 9a3d 3663 963d 3884 193d 1fb3 d2bc
00000020: 23eb 81bb 14c7 3b3d 01ac bfbb 174d 0b3d
00000030: 72f6 f73c 7477 943d 6aad 093d c1e4 7c3d
00000040: bae0 e93d 0bb5 ae3c 3ee2 ccbb 89db 883d
00000050: cd6c 93bd d87f bbbc ad65 0e3d 823b 693d
00000060: a7f8 753d 1034 b33c 59c4 043e 7901 dc3d
00000070: 9c7a ce3d dba3 263d 7fbf 913c cccd ce3d
00000080: 3522 bcbc 9b6b a8bc e2f1 f53d cbe2 cbbd
00000090: 6d96 a93d cf32 c2bc e8bb 0f3d 45ed 033e
000000a0: e146 b5b7 03bc 923c 2e2f 743c 095d acbc
000000b0: f888 703d eeb1 9f3d 411b f6bc 17e6 453e
000000c0: 9a4e 013d b39d 483d f096 293d a691 68bc
000000d0: 48b6 c53d 0c90 a43d 58dd 3fbc 37b8 953d
000000e0: 92d1 62bd 22be de3d 233f 9f3d 78a9 73bb
000000f0: 58fb a2bd 62c6 363d 7710 cd3d b34a 483e
00000100: 8a5e 4cbb 9974 be3d 7292 403d 6c81 1a3d
00000110: 72bc 2a3e b963 4abd 6c18 c3bc 41a3 cebb
00000120: bba0 8d3d 7f90 a53c 218a 103e 4e7a adbc
00000130: 4ebb e93d 3954 603d 0ed2 163e f2d5 533e
00000140: 56f5 d9bb a6b3 033e 4a0e 103d 8258 783d
00000150: 1152 b93d ec70 833d b4b5 9a3d 9ccf de3d
00000160: 4c84 d13d 0534 ac3d 4a53 96ba d8cc 953d
00000170: b056 e93d c8e2 983d 8cd4 443e c718 acba
00000180: 030f f0bc 5c13 523c 7eff 043e d987 fb3c
00000190: e454 953c 8f6a d13d 85a5 f33d a1b4 3d3d
000001a0: 69d6 d23d c8d8 7f3d 00ea 803d 7931 fc3d
000001b0: b08e 68bd 6fb7 d63d 1583 263d 88d3 363d
000001c0: 85d4 a4bd 1b58 1c3d ae30 973d b82c b13d
000001d0: 3dd0 a8bb 5684 003c 4804 813d 300b 3b3d
000001e0: f0a5 f43d 1a61 0b3e 903a bf3d 6fd7 e63c
000001f0: a815 473d 2b72 623d be0e 363e d226 d93d
0.14374742 -0.038646106 0.09531737 -0.022018379 0.07525346 0.07343142 0.03747961 -0.025720177
-0.003964798 0.045844153 -0.005849362 0.034009065 0.030268881 0.072493464 0.033612646 0.061741594
0.11419816 0.021326562 -0.006252556 0.06682498 -0.071984865 -0.02288811 0.034764934 0.056941517
0.060051586 0.021875411 0.12965526 0.107424684 0.1008198 0.04068361 0.017791508 0.100978464
-0.02296553 -0.020559123 0.12009026 -0.09955367 0.082806446 -0.023705868 0.03509131 0.1288348
-2.1609887e-05 0.017911917 0.014903827 -0.021040456 0.058724374 0.07797609 -0.030042293 0.19326054
0.0315691 0.04897852 0.04140371 -0.014194882 0.09653908 0.08035287 -0.011710487 0.07310527
-0.055375643 0.10876109 0.07775714 -0.0037179869 -0.07958096 0.044622786 0.10012906 0.19559745
-0.003118428 0.09299583 0.04701466 0.037721083 0.16673449 -0.04941151 -0.023815356 -0.0063060825
0.069154225 0.020210503 0.14115192 -0.021176483 0.11412679 0.05476782 0.14728567 0.20687082
-0.006651561 0.12861499 0.035169877 0.060631283 0.09048856 0.064180225 0.07554188 0.10879442
0.10230312 0.084083594 -0.0011468914 0.073144615 0.113934875 0.0746513 0.19221705 -0.0013129943
-0.029304033 0.012821998 0.12988088 0.030704426 0.018228956 0.102254026 0.11896805 0.04631484
0.10294802 0.062462598 0.06294632 0.12314124 -0.056776702 0.10484206 0.040652353 0.044635326
-0.080483474 0.03816996 0.07382332 0.086511075 -0.005151777 0.007844051 0.06299645 0.045664966
0.119457126 0.1361126 0.09337342 0.028178899 0.048604637 0.05528466 0.17779061 0.106031075

actor_direction.4.weight f4 [64, 128]
00000000: c1f5 67be 91f9 dc3c 939b 17bd 07f4 d13d
00000010: 7a7d 2bbe 5d13 ca3c 39f0 42bc bcf7 5cb9
00000020: b534 533d dddd 8bbd d558 a5bd db35 4f3d
00000030: a788 0e3d 0f23 003e 418d 783e a99c 6bbc
00000040: bb35 e23d 83ce 163e 541b b53b 9556 823d
00000050: 2051 023e a864 acbd a6bb 993e 2e3f 26be
00000060: 89d3 3fbe d493 03be ad0e 56be ccb5 c4bd
00000070: ac6e 6cbe 7a09 32be bf9b 173d 72f9 193e
00000080: c0bf a93c 1dd5 68bd 00cc 5a3d 1397 003e
00000090: 8a8f 2bbd 1442 34bc cd5a d53d 837a 2bbe
000000a0: c579 81be ae91 d4bd 3861 863d 0ad3 aa3e
000000b0: 0814 38be 34e8 1fbe 9d2b 513c 8b20 58be
000000c0: 022c 9abd d68a d3bd 0ad8 0d3e 6826 d6bd
000000d0: 331d 9e3e a8fd 1fbe 2813 9f3d 7600 3f3e
000000e0: 77fe ecbd 38cc 20be e08f 4a3d ca6c 073d
000000f0: 6ec3 ff3d de7b f8bd 33ac 12be 512d e43c
00000100: 306b 4d3e eaca 0dbe 391e 983e 095b 7c3e
00000110: 473d 4cbe 7ec2 7d3e 2fe0 cb3d bf9b 113e
00000120: 012a 47be 4e25 05ba ed86 2fbe 427f 213d
00000130: a93d 2c3e b380 76bd c70d 37be a8bb febc
00000140: 0e22 0dbb 5af5 1bbc a930 03bc 6506 53bc
00000150: 9d7d 46be 7b9d 843c de3f 9f3e 95fc 9ebd
00000160: 38a6 8e3d aa37 773d 0056 bc3e 5b17 423d
00000170: b65f ae3b aba5 723d 9629 95bd 42fc 6c3d
00000180: 25ae 05bb 9ae7 d83c 88b5 183e 0e7c b5bb
00000190: c3f0 323e ad92 5b3d 606b 04be 8bff 1d3e
000001a0: 0c63 a13d cb17 cf3d 20cf d7bd 450b e1bd
000001b0: e24c 2b3e 4fb9 44be 61d5 b73e fec2 aabc
000001c0: cab2 cfbd aae7 e7bd 95b7 2ebe 6ff6 a2bd
000001d0: 512f cc3c ccc7 93be 5ea2 083d 52ee 98bd
000001e0: 53c5 383e c0d1 a1bd 53b6 c1bd 0f97 0bbe
000001f0: a554 923d a2a6 083d 2bed 73bd 8b9d ec3d
00000200: 8c68 68bc fcb7 a53d fd9c 89be d398 1f3d
00000210: c94b d4bb 697e c33d 0566 e03d a04a 9e3d
00000220: 45db 323e 60b6 d7bd b84c 5e3d c909 b23d
00000230: cbc6 f2bc 9251 363e cfdd eb3c 8c3e 0c3e
00000240: 6892 523e 5251 003e 112e 0bbe 1ebf e03d
00000250: 2356 0d3d 40c3 2c3e 30a9 c83d ae79 6fbe
00000260: 6930 e23d 94dd 953d 2143 f03d e708 753e
00000270: 1fec abbe 89ac b9bd c452 423e 0fd7 ee3d
00000280: 0817 633b e79d 203e 03a2 7e3e 3258 35be
00000290: 083c 17be 9aba 1f3e ea83 f33c 1abd 133e
000002a0: 569a dabd 7794 893d 4c92 1ebe b301 453c
000002b0: 226c c13c 08a7 5abd 336b d73d eacd 0abd
000002c0: cd9e 933d bffa 4e3e 1c75 a23b a4e5 0abe
000002d0: 358b 4d3e b53d 64bd ab74 d13d 71ee ccbd
000002e0: ae08 86be 001b 253e e6b5 203e a9bc 413e
000002f0: 4141 5b3e 2b26 5d3d 6888 243b 32d5 9ebc
00000300: dee6 ba3c 890b dcbd ca7b 953d 5abd 4d3e
00000310: ae8a c53e be85 a5bd 58a2 063e 124b 6a3e
00000320: ffba 06bd 7208 803d 386c 4bbe 94b1 2b3e
00000330: 8ad4 273e 6ad1 3ebe d68c 8dbe 0629 8cbe
00000340: 489c db3d 9e08 09bd 6afa 1ebe 8f13 2c3e
00000350: 7045 513e 9713 c43d f610 243d 9a10 213e
00000360: 26cf 28be abd5 093e 4925 e5bd 34ec 823e
00000370: 8c9d e53d 88b8 05bd e5d8 b53d ba67 a03d
00000380: 1d76 1e3d f835 b6bd 631e 753e c650 abbd
00000390: 0d08 833d b275 693e c27b 553c 6e35 f53c
000003a0: c7bd 323e eacf 80be db82 73bd 6a63 9abe
000003b0: d098 6a3d 0067 8cbe 8f47 1f3d 60fa 43bd
000003c0: fdd6 503d 0971 c6bd 4e0a c13d df87 55bd
000003d0: d6d4 bdbd 7404 5ebe 34df ae3d b328 263e
000003e0: 0807 2a3e b12e 9ebd 8031 613d beeb 603e
000003f0: 2ad4 b03d 9758 3c3e f160 97bd b175 8dbd
-0.22652341 0.026974471 -0.0370136 0.10251623 -0.16747084 0.024667436 -0.011898094 -0.00021073123
0.051563937 -0.068294264 -0.08073584 0.05058847 0.03479829 0.12513374 0.24272634 -0.014380612
0.110454045 0.14727215 0.0055269394 0.063641705 0.12726259 -0.08417636 0.30025977 -0.16235039
-0.18733038 -0.1284936 -0.20904036 -0.096049875 -0.23089093 -0.17386428 0.037013765 0.15036562
0.020721316 -0.056843866 0.053417206 0.1255763 -0.041884936 -0.011002082 0.104177095 -0.16745953
-0.25288215 -0.10379349 0.06561512 0.33364135 -0.17976391 -0.15615922 0.012766746 -0.21106164
-0.07527925 -0.10329215 0.13851944 -0.10456544 0.30881652 -0.15624106 0.07767326 0.1865252
-0.11571973 -0.15702903 0.049453616 0.033062734 0.12488447 -0.12133001 -0.14323501 0.02785364
0.2006042 -0.13846937 0.29710558 0.24644102 -0.1994525 0.24781224 0.09954869 0.14219569
-0.19449617 -0.0005079106 -0.17141314 0.039428003 0.16820396 -0.06018133 -0.1787635 -0.03109534
-0.002153519 -0.009518946 -0.008007207 -0.012879943 -0.19383855 0.016188374 0.31103414 -0.0776302
0.069652975 0.06035582 0.36784363 0.047385555 0.005321468 0.059240025 -0.072833225 0.05785776
-0.0020397988 0.026477624 0.14912999 -0.00553847 0.17474656 0.053606678 -0.12931585 0.15429513
0.0788022 0.1011196 -0.10537553 -0.109884776 0.16728547 -0.19211315 0.35904983 -0.020844933
-0.10141523 -0.11323483 -0.17062218 -0.0795716 0.024924906 -0.2886337 0.03335797 -0.07467331
0.18044023 -0.07901335 -0.09458604 -0.13631843 0.07145051 0.03336204 -0.059552353 0.115534864
-0.014185082 0.08091733 -0.26877585 0.038964104 -0.006478761 0.09545595 0.10956959 0.07729077
0.17466457 -0.10532832 0.054272383 0.086932726 -0.029635807 0.17804554 0.02879229 0.13695735
0.20563662 0.12531021 -0.13591792 0.10973953 0.034505975 0.16871357 0.09797895 -0.23386261
0.1104439 0.07317653 0.11731554 0.23929177 -0.33578584 -0.090661116 0.18976885 0.11662113
0.003465118 0.15685235 0.2486649 -0.17709425 -0.14768994 0.15598527 0.029725987 0.14427605
-0.106739685 0.067177705 -0.15485495 0.012024331 0.023611132 -0.05338195 0.105184935 -0.03388778
0.07208023 0.2021284 0.004957808 -0.13564163 0.20072635 -0.05572291 0.10227331 -0.100064166
-0.26178497 0.16123581 0.15694389 0.18919624 0.21411611 0.053991478 0.0025105719 -0.019388769
0.022815164 -0.10744388 0.072990015 0.20091763 0.38582367 -0.0808215 0.13147867 0.228802
-0.032893177 0.06251611 -0.19865501 0.1676696 0.16389671 -0.18634573 -0.27646512 -0.27375048
0.10723168 -0.033455484 -0.15525213 0.16804336 0.20436645 0.09574049 0.040055238 0.15728989
-0.16485271 0.13460414 -0.11188752 0.25570834 0.1121169 -0.032646686 0.0887926 0.07832284
0.03868686 -0.088970125 0.23937373 -0.08365016 0.0639802 0.22798803 0.013029994 0.029932704
0.17455207 -0.25158626 -0.059450965 -0.30153972 0.05727464 -0.27422333 0.038886603 -0.047846198
0.05098628 -0.096895285 0.094257936 -0.05213153 -0.09269111 -0.21681386 0.08538666 0.16226463
0.16604245 -0.077237494 0.054978848 0.21964929 0.08634217 0.1839317 -0.07391537 -0.069072135

actor_direction.4.bias f4 [64]
00000000: 15e7 0d3e 3ffe a33d d224 043e 5dd1 403d
00000010: bfd4 ad3d 549c e03d 3d68 8c3d 8010 e93d
00000020: 2aa7 853e 1d56 323e fb78 bb3d 76cc 4ebc
00000030: 4e84 be3d f0c3 283e 4a1b e33d 7d32 0e3e
00000040: 1727 f03c 2410 343e e10a 193e 69f6 733c
00000050: b191 8d3e 3e24 883d d746 3f3e 4566 cd3d
00000060: 2beb b83d 7f26 1a3d eb90 1a3e 6399 9a3d
00000070: a6af d73c fa28 263e da7c c43d 305b c63d
00000080: 7eae a63d bf02 b13d 9626 863e 621a 093d
00000090: 4107 86bb 55f9 4b3d fb50 d53d ad17 253d
000000a0: f5cb 843d bd9d 3a3e 3c88 5f3e 99ba c63c
000000b0: 70ef d83d 11c1 463e 9fd2 ae3d ebf4 bb3d
000000c0: ba7b 313e 44bf 723d 1a9a 3e3e 482a 2b3e
000000d0: 0f53 0f3e 1338 4a3e dd00 7c3d 4d25 223e
000000e0: ad45 d13d d061 dd3d d8c9 ee3d 59f7 3f3e
000000f0: d183 e33d a8a0 773d cebf f23d 2abf 663e
0.13857682 0.08007478 0.12904671 0.047074664 0.08487844 0.10967317 0.068558194 0.113801
0.261041 0.17415662 0.091539346 -0.0126219895 0.09302579 0.16480994 0.11089189 0.13886447
0.029315514 0.17584282 0.14945556 0.014890292 0.27650216 0.06647538 0.18679367 0.10029272
0.0902923 0.03763437 0.15094344 0.075487874 0.026328873 0.16226569 0.09594126 0.096853614
0.081387505 0.08643102 0.26201314 0.033472426 -0.00409022 0.04979833 0.104158364 0.040305782
0.06484214 0.18224235 0.21829313 0.024258899 0.10592544 0.19409586 0.085362665 0.09177574
0.17332354 0.059264436 0.18613473 0.16715348 0.13996528 0.19747953 0.06152426 0.15834542
0.10218368 0.10809672 0.116595924 0.187467 0.11109126 0.060455948 0.1185299 0.22533861

actor_direction.5.weight f4 [64]
00000000: 4724 923f ccb1 803f a3b9 9c3f dc15 743f
00000010: 1e3c 8b3f ff79 893f e913 843f 2cf6 8a3f
00000020: 7e5f 8b3f 6789 913f 686a 663f 5cf3 713f
00000030: 7489 893f 2f6b 9b3f 3221 983f 185f 923f
00000040: 580a 8c3f f0fc 953f f533 823f 48a8 973f
00000050: 5b07 8a3f ad7d 9b3f 9aef 803f d6ba 943f
00000060: 063c 9c3f 9ece 773f a9ec 883f b846 8d3f
00000070: f493 7e3f 30ff 823f cf06 993f 96b1 9c3f
00000080: e48b 7b3f 28fb 843f 6d8f 973f 6ad3 8d3f
00000090: fd1e 5d3f 3a6b 7e3f cbea 7f3f 3b90 833f
000000a0: 6688 743f 1aa9 863f 507d 9a3f 1145 8f3f
000000b0: 847c 863f 39bb 903f 599e 973f d97d 793f
000000c0: fe7f 873f 5184 883f 5dbd 813f db5a 993f
000000d0: 432a 883f e1e1 763f 9fc3 8c3f 250a a53f
000000e0: 0eb0 883f 7e98 853f 5bb4 9d3f ffef 953f
000000f0: 3fe3 833f 96ee 893f 89ad 9e3f ddd7 723f
1.1417321 1.0054259 1.2244152 0.95345855 1.0877721 1.0740355 1.0318576 1.0856376
1.0888517 1.1370057 0.90006113 0.9451196 1.0745072 1.2142085 1.188513 1.143527
1.0940657 1.1717815 1.0172106 1.184823 1.0783495 1.2147728 1.007312 1.1619518
1.2205818 0.9679965 1.0697223 1.1037207 0.9944451 1.0234127 1.1955203 1.2241695
0.9826033 1.0389147 1.1840645 1.1080143 0.8637541 0.99382365 0.9996764 1.0278391
0.9552063 1.0520356 1.2069492 1.1192952 1.0506749 1.1307136 1.1845199 0.97457653
1.0585935 1.066538 1.0135914 1.1980852 1.0637897 0.96438414 1.0997199 1.2893721
1.0678728 1.0437162 1.2320665 1.1713866 1.0303725 1.0775936 1.2396709 0.9486063

actor_direction.5.bias f4 [64]
00000000: 4331 ab3d f9b0 d93d 5d7d 143e b2eb e4bd
00000010: e5bc 833d ed54 803c 7706 973d 20fd b53d
00000020: a0b6 cd3d bc8e 5c3d 90fc e3bd 169e ffbd
00000030: 863a 703c fc8a 363e d273 5c3c 83bc d13d
00000040: eda0 30bc 853d 203e c4f2 03bb c9d3 153d
00000050: 078f d73c 923c 0f3e ce85 09bd 9217 e63a
00000060: be8e 093e 2ff2 a9bd d22d 253d 98a8 213d
00000070: c8ff a73c 6ab7 9abd 88b4 27bd 4d65 b03d
00000080: a18c 08be 56ed bb3c 4900 3b3e 1628 1c3d
00000090: 2557 a5bd 6b3b 753d 250a 0cbe e081 77bd
000000a0: 4776 09bd 1568 8b3d 59ec b03d b4d4 a13c
000000b0: 08ec 4ebd 90dc 503d 17b1 4c3b 0d85 133e
000000c0: 00db 8a3d ccb2 1f3d cded 0c3d 7ae6 6b3d
000000d0: 877a bcbc 42bb 263d 9df8 843d fe5f c03d
000000e0: ce92 053d 889e d63c 7512 eb3c f202 7a3e
000000f0: d11d 9abc ee2a a93c 45e1 863d 53a8 743d
0.08359005 0.10629458 0.14500947 -0.11177768 0.06432513 0.015665496 0.0737428 0.088861704
0.100445986 0.05384706 -0.11132157 -0.124813244 0.014662391 0.17826456 0.013455348 0.10241034
-0.010780555 0.15648468 -0.0020133713 0.036578927 0.026313318 0.1398795 -0.03357487 0.0017554632
0.13433358 -0.08298146 0.0403269 0.039467424 0.020507708 -0.07554515 -0.040943652 0.086130716
-0.13334896 0.022940319 0.18261828 0.038124166 -0.08073262 0.05987112 -0.13675745 -0.060426593
-0.033560064 0.068069614 0.0863883 0.019754745 -0.050518066 0.050991595 0.0031233483 0.14406224
0.06780052 0.038988873 0.034406472 0.057592846 -0.023007644 0.040705927 0.06492732 0.09393309
0.032610707 0.02619864 0.028695324 0.24415186 -0.018813046 0.020650353 0.065859355 0.05973084

actor_direction.8.weight f4 [32, 64]
00000000: 7164 acbe 7196 97be 08c8 8dbe ef63 633e
00000010: fc0e a5be 81c9 4b3e a69f fa3d f931 843c
00000020: deda 043d 829c bf3d f61b 1bbe 324a 203e
00000030: d570 bfbc 5bdf b5be 2502 32be 1827 4abc
00000040: bbd3 29bd 5ac7 b9be 2330 a23c b77f 8b3d
00000050: 3f78 d63d a25a 45be c510 cabc 116d 073e
00000060: 244e d5be 53ba a23d 70cc eabd 906d e03d
00000070: 8347 c2bd 1634 8a3b 8557 72be bfde 1abc
00000080: fee2 6cbd 1469 7a3c 5c1c d6be cfe0 293e
00000090: c55b 243d e637 d13c ac1c 113e dd71 8e3e
000000a0: 7f2a 3bbe 7398 7abd ba58 acbe ca8c 093e
000000b0: c751 e73d 4311 fcbd b97f 43bb 814c 92be
000000c0: d53c 32be c100 a4bd 39f9 1cbe 38d7 7b3d
000000d0: 0b47 a8bc 153e 77bd 1d01 81be 4191 973d
000000e0: 7b9a 823e b763 253e d67a a7bd 8cc8 4f3e
000000f0: fae4 d23c e70f 1cbd 1120 b9be 614e ce3d
00000100: f46d a23c c64b 4fbe bb1d 3a3e 147c 883c
00000110: 6cb6 923d 6d06 02be da8a ad3d b4a6 ab3d
00000120: d481 0e3d efcf d2bd b8a0 463d ac59 fdbb
00000130: f40e bfbd 98c6 073e 8896 47bd 8c6a 81bd
00000140: 7d70 33be 2e24 543e 385f 133d 1b89 5b3d
00000150: c525 303c 46cd e13d 2700 f43d ea99 453b
00000160: 8281 703b e67d d73d 5463 d93d 043f 3d3d
00000170: 6976 06be 00e5 9c3d e07c 9bbd 3a25 2b3d
00000180: 7d41 94bd c9d5 e6bd 23d9 153e 1de4 00be
00000190: 4d4f 9fbd a3d7 bebd 4e94 f9bc 2c0c 1b3e
000001a0: 4111 bf3d 0d83 203e fc3c 983d 4b10 ca3d
000001b0: 5007 063d 7a33 93bd 5564 1d3e 08d5 89bc
000001c0: 3fad 3f3d fab8 edbd 79d7 8d3d 505c 0dbd
000001d0: 8bec 363e 1d4d 13be 0af2 8abe b794 e33d
000001e0: a9dc f03d 261e 003e 25fd 873d 4ccf 5cbd
000001f0: 2576 97bc c415 42bc a14b e3bd 5e8c d0bd
00000200: 893d 663d 1521 303d 2740 383d 137d 1a3e
00000210: 7573 843c 7bd3 ea3d e7e3 493e 39b9 f53b
00000220: 20e8 8d3d a7f6 603d a228 ecbc 6ef1 9b3d
00000230: 0193 873d 73b3 063e dcbe 42bc 3274 88bd
00000240: 3dd7 3a3e 2ca8 de3d 30cb 3f3d 24be 66bd
00000250: 8561 39bc ec81 fa3d d914 433d e456 43be
00000260: a07b 543e 686b 083e 861e 07bc 3d21 bcbc
00000270: b522 12be 3c3e a73d 85c0 66bc 3ff1 9bbc
00000280: 5114 90be 5edc 1dbd 8976 d33d fff7 b0bc
00000290: 5ee7 38bd 995c d7bc 5bd7 dcbc 056f afbd
000002a0: 72be c13d ed95 9bbd 79d1 4b3c e277 383e
000002b0: 1ce6 c1bd bc2e 36bd 1e62 cbbd d43d 0ebe
000002c0: b7d4 6dbd 6a55 9f3d 5444 be3d 0a62 ce3c
000002d0: 03ae 60bd 631d f0bc 54ac 9d3d 4db1 ab3b
000002e0: 8bb0 13bd 7e9b 393c 4702 38bd 87fa a53d
000002f0: fc9e 41bd c321 2e3e a2d5 9b3d 0e4d 8abd
00000300: c44f 08bd 5cc7 883d 962e e4be 37e1 993d
00000310: 0bc2 37be 387c acbe ecf5 d4be ec25 01bd
00000320: 44c4 c8be 8e03 0d3d 5d8d 9fbe 004a 79bd
00000330: cc41 5bbe c7cd 0fbf b1ec cabe 1666 163e
00000340: fef0 9c3c ea02 ecbe 8acb 9cbe 22b4 5bbe
00000350: cf37 c43d ffaa b9be ea7e 963d d38c a7be
00000360: 803f 04bf 3247 a2bd 709a 84bd 8412 0fbf
00000370: 3651 75be af9b 77bd 8563 11bf 7ac9 a3bd
00000380: 0a43 033e b0b8 793d fbcb eebe 51a2 0abe
00000390: f3d5 533e fb03 30be bc5b 0d3d 234e 8bbe
000003a0: acf4 52be d6f4 81be 5566 f7be 8964 81be
000003b0: 3a3c 09be e752 923c 89bc 67be efe7 b7be
000003c0: d685 c0bd e9c0 99be bc24 fdbe ec76 b7bd
000003d0: 8501 c1be efea 4c3d 19d2 9bbe 79d0 1abf
000003e0: 09fa 83be cb76 01bf bfd5 29bf 4978 933d
000003f0: cc1c 243e 1076 64be 7c18 b7be 5279 743e
-0.3367038 -0.29606965 -0.27691674 0.2220609 -0.32237995 0.19901086 0.12237482 0.01613711
0.03243529 0.09356023 -0.15147385 0.15653303 -0.023369232 -0.3552197 -0.1738363 -0.012338422
-0.041461688 -0.36284906 0.019798344 0.06811469 0.10472154 -0.19272855 -0.0246662 0.132252
-0.4166118 0.07945695 -0.114647746 0.109583974 -0.09486296 0.004217635 -0.23666199 -0.009452521
-0.057833664 0.015283842 -0.4181851 0.16589664 0.04012658 0.02553935 0.14171094 0.27821246
-0.1827793 -0.061180543 -0.33661443 0.13432613 0.11294895 -0.1230798 -0.0029830767 -0.28573993
-0.17406018 -0.08007956 -0.15329446 0.061484545 -0.020541688 -0.06036194 -0.25196162 0.07400752
0.25508484 0.1615132 -0.08177726 0.20291346 0.02574395 -0.038101103 -0.36157277 0.10073543
0.01982782 -0.20243749 0.18175404 0.016660728 0.071637005 -0.12697764 0.084737495 0.083814055
0.034791782 -0.102935664 0.048493117 -0.007731637 -0.09329024 0.13259351 -0.048727542 -0.0631915
-0.1752338 0.20716926 0.03597948 0.05359755 0.010751192 0.11025481 0.119140916 0.0030151554
0.0036698286 0.1052206 0.106146485 0.046202675 -0.13131107 0.07660866 -0.075921774 0.04178355
-0.072390534 -0.11271245 0.14633612 -0.12587018 -0.07778797 -0.09318473 -0.030466225 0.15141362
0.09329463 0.15674992 0.07433507 0.09866389 0.032721817 -0.07187553 0.15370305 -0.016825214
0.04679608 -0.11607547 0.06925864 -0.034511864 0.17863671 -0.14384885 -0.27137786 0.111123495
0.117608376 0.125115 0.0664008 -0.05390863 -0.018488953 -0.01184601 -0.110984094 -0.10183023
0.05621103 0.0430003 0.044983055 0.15086775 0.016168335 0.11466118 0.19715844 0.007498887
0.0692904 0.054922726 -0.028827969 0.076144084 0.06619836 0.13154392 -0.011886325 -0.066627875
0.1824617 0.1087192 0.046824634 -0.056333676 -0.011314754 0.12231812 0.047627304 -0.19076115
0.20750284 0.13322222 -0.008247023 -0.022965068 -0.14271052 0.08166167 -0.014083986 -0.019035934
-0.281405 -0.038540237 0.10325343 -0.021602629 -0.045142524 -0.026289271 -0.026958158 -0.08566097
0.09460153 -0.075969554 0.012440079 0.18014482 -0.09467718 -0.044478163 -0.09930824 -0.13890773
-0.05806419 0.07779963 0.09290376 0.025193233 -0.05485345 -0.029310888 0.076988846 0.0052396418
-0.036057036 0.011328576 -0.044924047 0.08104425 -0.04727076 0.17005067 0.076091066 -0.06752978
-0.033279195 0.0667865 -0.44566792 0.075136594 -0.17945115 -0.3368852 -0.41593874 -0.031530306
-0.3921224 0.03442722 -0.3116254 -0.060861588 -0.21411818 -0.56173366 -0.39633706 0.1468738
0.019157883 -0.46095973 -0.30624038 -0.21455434 0.09580957 -0.36263272 0.07348426 -0.32724628
-0.51659393 -0.07923736 -0.06474769 -0.5588763 -0.23956761 -0.060451206 -0.5679248 -0.07997413
0.12818542 0.060967147 -0.4664 -0.13538481 0.20687084 -0.17189018 0.034511313 -0.2720805
-0.20601147 -0.25382107 -0.4832026 -0.25272015 -0.13401881 0.017861797 -0.22630514 -0.3591914
-0.09400527 -0.3002999 -0.4944209 -0.089582294 -0.37696472 0.050028738 -0.3043373 -0.60474354
-0.257767 -0.5057189 -0.66341776 0.07200677 0.1602661 -0.22310662 -0.35760868 0.23874405

actor_direction.8.bias f4 [32]
00000000: 99c4 3cbe f060 003d 7173 233e 0e56 28bf
00000010: 216e 213f 182d a23e d7ec 11bb 46f2 eb3c
00000020: befc b83d 7331 f83e 4830 423e 59fb 463b
00000030: 311a e93b 9a2a 613e eef0 6cbe 43f6 b63d
00000040: 2569 0e3e ad1b e13d 159d c53d 704f 1bbc
00000050: d0c2 21bf 8ac3 183e 3443 fb3c b98c 7f3d
00000060: 1455 113e 9adf f93d aba6 ae3c 7497 ca3d
00000070: 03a1 1c3e 098f 403e e71f 143e 658c 963e
-0.18434371 0.031342447 0.15962006 -0.6575631 0.6305867 0.3167503 -0.0022266412 0.028802048
0.09032582 0.48475227 0.1896373 0.0030362217 0.007113718 0.21988907 -0.23138782 0.089336894
0.13907297 0.10991607 0.09649102 -0.009479389 -0.63187885 0.14918342 0.030671693 0.062390063
0.14192611 0.12200852 0.021319708 0.09892169 0.15295796 0.18804564 0.14465295 0.29403988
