saved_model/PPO_20250525_15-05-22.pth (torch, 205440 bytes, 61 tensors)

feature_extraction.0.weight f4 [128, 8]
000000 b3 d0 b5 3d b6 df 89 3e 5e 26 e2 bd 21 24 2b 3d
       0.08877697 0.2692849 -0.11042474 0.041782502
000010 c2 05 9e bd 9e 0f c4 bd 36 19 d4 3d e9 4f 0b be
       -0.07715942 -0.09573291 0.10356371 -0.13604702
000020 d6 cf a9 bd a7 01 5d be c2 50 c4 3d 89 39 70 bd
       -0.08291595 -0.21582662 0.09585716 -0.05864862
000030 c0 2d 77 be 06 09 21 3e 50 ba b4 3d f3 10 36 3e
       -0.24138546 0.15726098 0.08824599 0.17779903
000040 48 08 25 be 39 43 fd bd c5 1c 47 3e 35 d7 88 3d
       -0.1611644 -0.12366337 0.19444568 0.066816725
000050 62 74 c6 ba 90 5a bb 3d 98 f7 bc bb dc e5 2a 3e
       -0.0015140886 0.09148133 -0.00576682 0.16689247
000060 09 c9 2f 3e 30 b5 77 bc dd 39 3f 3e d8 5e 5f 3a
       0.17166533 -0.015118882 0.18674417 0.0008520908
000070 a5 70 a4 ba 8b ff e1 37 5b ee cf 3c c2 ac 12 3e
       -0.0012545778 2.6941087e-05 0.025382211 0.14323714
000080 59 63 84 bb c6 18 3b be ce 17 ca 3d 74 97 12 be
       -0.0040401635 -0.18271169 0.09867822 -0.14315587
000090 47 a9 e2 bd 8b ca 28 be ab 49 25 be 43 cd 80 bc
       -0.11067443 -0.16483514 -0.16141383 -0.015722876
0000a0 51 9a 45 be 65 31 0e 3d 3f 6d 8f 3d 02 f1 6f 3e
       -0.19297148 0.034715075 0.07003259 0.23431781
0000b0 67 0c 8e bb b0 4b 1b bd 73 27 3f be 48 69 aa 3c
       -0.0043349746 -0.037913978 -0.18667392 0.020802155
0000c0 fe 7c 75 3e 7d c8 5f 3e 8d 4b c2 bd 84 58 77 3e
       0.23973462 0.21853824 -0.094870664 0.2415486
0000d0 f7 ef 00 3e 40 84 1f be e4 23 1a bd 61 11 78 3e
       0.1259154 -0.15577793 -0.037631884 0.2422538
0000e0 36 bc 47 be 43 49 b2 3d bd 5d 66 3d 2c 13 8d be
       -0.1950539 0.0870538 0.05624174 -0.2755369
0000f0 f6 f9 0f bd a0 f0 ec 3a f5 56 4b be d5 ac 83 bd
       -0.03515049 0.0018077083 -0.1985739 -0.064294495
000100 a0 4b 39 bd c5 ed 83 3d 88 8e 01 3e 67 61 a7 bd
       -0.045238137 0.06441835 0.12652028 -0.08172875
000110 ed 60 3c bd e9 a2 9f bd c4 65 b2 3d a7 bb 8f 3d
       -0.045990873 -0.077947445 0.087108165 0.07018214
000120 95 91 27 be 53 f9 b8 3d ac e9 fb bc ab 54 6f bd
       -0.16364129 0.0903193 -0.030751072 -0.058430355
000130 26 e8 f0 3d 52 f6 ef bd 09 9b 34 bd e5 2f f3 bb
       0.11763029 -0.11716904 -0.044093166 -0.007421481
000140 b5 09 30 bd c3 cf 73 3e f7 a1 f0 3d 48 42 95 be
       -0.042978007 0.23809724 0.11749642 -0.2915213
000150 08 06 e7 bd d4 7b 54 be 64 7b 0c be fb e8 45 be
       -0.11280447 -0.20750362 -0.13718945 -0.19327156
000160 69 16 68 3e 01 ad 3d 3d 73 d6 42 3c 1d 6c 11 3e
       0.22664799 0.046307568 0.011891949 0.14201398
000170 3b e3 14 bd 53 79 d5 3d b2 74 c1 3d b0 a4 aa bd
       -0.036349516 0.104235314 0.09446086 -0.08332193
000180 b8 45 91 3d 17 7c 70 bd f1 ec c1 bd d2 42 0b 3e
       0.07093376 -0.05871209 -0.09469021 0.13599709
000190 af 66 f7 bd 7d 44 2e be 32 a3 09 3e 98 f3 ad bc
       -0.12080132 -0.17018314 0.1344116 -0.021234319
0001a0 7e 61 26 3c 1c d7 22 be f3 91 7e bd 85 67 27 3e
       0.01015508 -0.1590237 -0.062150907 0.16348083
0001b0 52 11 31 3e 1b d7 80 3d d7 3e ad 3d a9 a1 4b be
       0.17291763 0.06291028 0.084592514 -0.19885887
0001c0 99 9f b3 3d 53 8d 46 3e 83 0b f5 bc d1 14 37 be
       0.08770675 0.19389848 -0.029912716 -0.17879035
0001d0 32 76 af bd 95 35 00 3d d3 3a 3a be 1a 7b f1 3d
       -0.08567466 0.0313011 -0.18186502 0.11791058
0001e0 67 e9 58 3e f3 07 cc 3d f7 ea 0c 3c 48 b6 66 3e
       0.21182786 0.09962454 0.008600942 0.22530472
0001f0 76 70 0f be 54 5b ad 3d aa a6 f2 3d 41 68 10 3d
       -0.14007744 0.08464685 0.11848195 0.035255674
000200 85 b0 83 be 22 da 67 bd 90 63 ea 3c 68 b6 64 be
       -0.2572061 -0.056604512 0.028611928 -0.22335207
000210 64 9d f4 3d f2 01 84 3c f8 43 94 3d ac db 93 3d
       0.119440824 0.016114209 0.072395265 0.072196335
000220 8d 90 3c 3e ad f6 05 3d f5 00 37 3d 33 82 12 be
       0.18414517 0.03270595 0.044678647 -0.1430748
000230 9f e4 a9 3d df 9b 2e 3e 09 21 44 3c dc e1 00 3e
       0.08295559 0.17051648 0.011970767 0.12586159
000240 71 bc 06 be c5 6e 19 be c3 8d 4b 3c 82 5c fb 3d
       -0.13157822 -0.14983661 0.012423935 0.12273504
000250 f8 e1 55 3e ec 7d 42 bd 31 bf ce bd 20 ef 92 3d
       0.20886981 -0.04748337 -0.100950606 0.07174516
000260 d0 4e 07 3c ce cd a2 3d fb 9f 1e bd 12 e3 64 3d
       0.008258536 0.079494104 -0.038726788 0.055880614
000270 54 c3 1b 3e 2c f5 a6 3d 6a 1f 9a 3b 2d 1f 7a 3c
       0.1521123 0.081522316 0.004703452 0.015266222
000280 bb 54 b4 bd 9e 13 1f be 32 e5 3b 3e 28 3a b3 bd
       -0.088052236 -0.15534827 0.1834915 -0.08751327
000290 34 2b 34 bd 1b b7 27 bc 81 72 2a 3e cc b6 8a bd
       -0.043986514 -0.010236527 0.16645242 -0.06773147
0002a0 b5 6e b4 bd b8 fc 67 3d 26 ad e2 3d b3 07 7e be
       -0.08810178 0.056637496 0.11068182 -0.24807625
0002b0 9e 68 14 3c 5e 0f 8c 3d 36 22 14 bd 0f 2d c6 3b
       0.009058146 0.068388686 -0.03616544 0.006047852
0002c0 d8 9c e6 3d e8 8e 88 3e 7f 95 39 be 74 5a 87 bd
       0.11260384 0.2667153 -0.18123434 -0.066090494
0002d0 7e e7 33 bb 98 73 b5 bc 34 3b d6 3d 56 75 a6 3c
       -0.0027451213 -0.022149846 0.10460511 0.020319622
0002e0 a1 0a 02 3d e8 84 64 be 9a c6 3f be f4 d4 80 3d
       0.031748418 -0.22316325 -0.18728104 0.062906176
0002f0 a2 17 d3 bc 39 84 a0 3d 15 1c f0 bd 6c e8 4a be
       -0.025768105 0.078377195 -0.11724106 -0.19815224
000300 4f c6 db bd fb bf fd bc 80 9b 16 3e cf 90 5a bd
       -0.10731184 -0.030975332 0.14707756 -0.053360756
000310 29 37 88 bd 4b 68 af bd 94 51 0b be 82 0e 15 bd
       -0.06651146 -0.08564814 -0.13605338 -0.03639079
000320 63 93 6d bd 8f 03 ba 3c 0e b0 f8 bc 16 d7 7b 3d
       -0.058001887 0.022706775 -0.030357387 0.06148442
000330 57 75 1b 3e 74 e9 00 be f2 56 c4 3d 90 64 f7 3d
       0.1518148 -0.12589055 0.09586896 0.12079728
000340 3e cc 01 3e 5a 80 3e be bb c0 70 bd 9e 62 23 3e
       0.12675568 -0.1860365 -0.058777552 0.15955588
000350 c0 68 2d bb 6c 66 88 bd 38 93 37 3e 3a 94 42 be
       -0.002646014 -0.066601604 0.17927253 -0.19001856
000360 50 9a 11 be c6 17 fe bd fe 47 ce 3d 34 71 a1 3c
       -0.14219022 -0.12406878 0.10072325 0.0197073
000370 cf b1 d4 3d 0b 35 8d 3d e6 52 21 3c 32 bd ca bc
       0.10385477 0.06894883 0.009846425 -0.024748418
000380 69 88 04 3e c2 b9 50 3e af 26 f1 bc a0 2c 64 3e
       0.12942661 0.20383361 -0.029437391 0.22282648
000390 8a c5 06 3a 19 2d 1b be 8f 15 17 3e aa be a4 bd
       0.000514113 -0.15153922 0.14754318 -0.08044179
0003a0 80 e6 b0 bd 00 25 23 be f2 6d 26 3e 64 b7 0f 3e
       -0.086377144 -0.15932083 0.16252878 0.14034802
0003b0 64 b1 34 be 7d a5 07 3d 5b 25 49 3e 51 98 ca bd
       -0.17645794 0.033116806 0.19643156 -0.09892333
0003c0 87 6d 0f be 8a 66 0a 3e 0f 07 66 3e ac 96 a8 bd
       -0.14006625 0.13515678 0.2246363 -0.082318634
0003d0 14 74 c1 bd f5 01 f3 bd 95 a7 be 3d 26 ff 00 3e
       -0.09445968 -0.11865608 0.093093075 0.12597331
0003e0 ac 28 c3 bd 0e d0 4d be 18 b5 f0 bd c6 82 5d 3e
       -0.09529242 -0.20098898 -0.11753291 0.21631917
0003f0 24 dc 26 3e 31 90 05 be 7c 84 d4 bd 1b 36 f4 3c
       0.16294914 -0.13043286 -0.10376832 0.029810956

feature_extraction.0.bias f4 [128]
000000 47 38 3d 3d bd a3 95 3d 8d 4d d9 3d 7e f8 7c 3d
       0.04619625 0.07306621 0.10610495 0.061760418
000010 4b fa 6c 3c fb f8 6f 3d cc 13 d1 3d 2e de d9 3d
       0.014463971 0.058587056 0.10208854 0.106380805
000020 7a c1 36 3d 5d 5d 89 3d 41 78 00 3e a6 96 3f bb
       0.044618107 0.06707261 0.12545873 -0.002923408
000030 2c b3 64 3d 9f 77 72 3c 25 37 45 3d 16 8f f7 bb
       0.055834934 0.014799028 0.048148293 -0.007554899
000040 03 f7 bc 3d 2d 77 1a bd 4b 7d 2c bd 23 a8 76 3d
       0.09226801 -0.03771131 -0.042111676 0.06021894
000050 0e ec a7 3d d1 29 1b 3d 12 7d 01 3d 53 e2 13 3d
       0.08199321 0.037881676 0.031613417 0.03610451
000060 31 dc 64 3b 6b ba e0 3c 3b 30 87 3d 8d bb 10 3d
       0.0034921283 0.027432641 0.06600996 0.035335112
000070 8d 5f aa 3d 6b fb 59 3d 09 fe e8 3c dd b0 28 3d
       0.08319006 0.053218286 0.028441446 0.041184295
000080 ac 44 c5 3d e6 39 e1 3d c9 00 e6 3c ac 9a d7 3d
       0.09632239 0.109973714 0.028076546 0.10527548
000090 4c 23 d7 3d 90 56 61 bc 2f a3 92 3d f1 33 84 3c
       0.10504779 -0.013753548 0.07160031 0.016138049
0000a0 be 8d 8e 3c 24 26 6a 3d 58 4c f1 bc 61 d2 85 3c
       0.017401572 0.05716528 -0.029455349 0.016335668
0000b0 2b 8f 58 3d 1a 6a bb 3d b2 23 63 3c 8f fd 11 3d
       0.05287091 0.09151097 0.013863491 0.035642203
0000c0 af 9f 09 3d 72 54 ea bc 93 5f 12 3d dd f7 21 3d
       0.03359955 -0.02860472 0.035735678 0.03954302
0000d0 3f ad 8f 3c 96 7f 62 3d d7 77 1e 3d 32 46 cc 3c
       0.017538665 0.055297457 0.038688507 0.024935815
0000e0 45 4d 80 3d 52 da d8 3c 99 38 e9 3d 68 a0 fb 3a
       0.06264738 0.02647129 0.11387748 0.0019197585
0000f0 0e 6e 5d 3d a1 f8 e6 3d 09 00 ce 3c af 43 fc 3d
       0.054060034 0.11277891 0.025146501 0.12317597
000100 94 ef aa 3c 42 27 2c bd e7 4a b8 3d f8 eb db 3c
       0.020866193 -0.042029627 0.089986615 0.026845917
000110 26 3c 69 3d 1b 2f 86 bd 66 4e 72 3d f4 35 0b 3e
       0.056942128 -0.065519534 0.059156798 0.135948
000120 a1 fb 81 bd e1 d4 ca bc 18 ea 1b 3c eb 92 91 3d
       -0.063468225 -0.024759712 0.0095162615 0.071081005
000130 cd 68 8a bb ad 4c 75 3d c9 16 1e 3d 47 cd 94 3d
       -0.004223919 0.059887577 0.03859595 0.07265716
000140 61 7a 79 3c a7 c7 df 3d c2 61 e4 3d 0f dd 60 3d
       0.015226931 0.109267525 0.11151458 0.054898318
000150 8d c4 8d 3d 24 62 d6 3d 8f 02 93 3d 1c c1 97 3d
       0.06922255 0.104679376 0.071782224 0.074098796
000160 32 b2 83 3d 81 1f 9c 3d 08 ad b2 3d 46 6f db 3c
       0.064304724 0.076231964 0.08724409 0.026786458
000170 ab 20 02 3d 11 67 9e 3d 9c d2 9c 3d 46 c0 0e 3c
       0.031769436 0.07734502 0.07657358 0.008712834
000180 a6 35 81 3d a9 ed d2 3d 2b 01 51 3d 56 6d 4d 3b
       0.06309061 0.10299236 0.051026504 0.0031345687
000190 7f 7a c9 3c 95 96 a4 3d dc 7e 28 bd 5b 24 f2 bc
       0.024594544 0.08036534 -0.041136608 -0.029558351
0001a0 94 da 4a 3d a2 47 28 bc 9c 93 c0 3c d7 3e 21 bc
       0.04952486 -0.010270985 0.023507886 -0.009841642
0001b0 53 5f 7b 3c fd 4f 4e 3d 2d 51 75 bb 55 f1 13 bd
       0.015342551 0.05036925 -0.0037432418 -0.036118824
0001c0 50 a2 0b bd a1 60 61 ba 9c 0c 5b 3d 8f a7 49 3d
       -0.03409034 -0.00085974677 0.053478822 0.049232062
0001d0 33 de 89 3d 9f f7 56 bd 02 0a 9e 3d b3 c5 8b 38
       0.06731834 -0.052482244 0.077167526 6.664861e-05
0001e0 ef 1b 8f bc 36 74 92 3d f3 4e ef bc a5 2f 93 3c
       -0.017469374 0.07151072 -0.02921245 0.017967055
0001f0 43 aa a6 3d 19 5e 55 3d 90 e0 e3 3d cc 7c 0a 3d
       0.081379436 0.05209169 0.11126816 0.03381042

feature_extraction.2.weight f4 [64, 128]
000000 f0 3e 4b 3e 6b e0 04 3d 23 1c 67 3e 11 dd 5e 3c
       0.19848228 0.032440584 0.22569327 0.013602511
000010 a0 f9 2b 3c dc 79 f1 bd 0b 64 ec 3d e1 8d 01 3e
       0.010496527 -0.11790821 0.11542519 0.12651779
000020 bd 17 43 3e a2 9a af bd f9 bf 3b 3e a8 aa cc 3d
       0.19052024 -0.08574416 0.1833495 0.099934876
000030 c1 9d 34 3e 76 b4 f1 bd 39 ec 00 be a0 34 cb 3d
       0.17638303 -0.11801998 -0.12590112 0.09922147
000040 f9 aa 21 3e c4 f8 44 bd 1c 62 56 3e d9 0f a1 bd
       0.15787877 -0.048088804 0.20935863 -0.07864351
000050 cb ea c3 bc da 8c 5c bd a3 3f 84 bd 7b f0 ea 3d
       -0.023915669 -0.053845264 -0.0645745 0.11471649
000060 ba 5b cf bd 6b ab 76 3d c1 95 cc bd d6 70 dc 3d
       -0.10124917 0.06022207 -0.09989501 0.10763709
000070 e0 ef 2c 3e 42 87 c9 bd 65 69 e9 bc 20 5e 8f bd
       0.1688838 -0.098402515 -0.028492639 -0.07000375
000080 b5 7e 6d bd f0 c1 47 3e 74 7f ce bd c9 0e af 3d
       -0.057982165 0.19507575 -0.100829035 0.08547742
000090 3b cf e3 3a a7 21 ea 3d cb 5d 62 3c 9f ea dc bd
       0.0017380485 0.114322 0.013816307 -0.10786938
0000a0 7a 8a da 3c b1 45 f4 3d 71 aa 03 3b c1 2f 10 be
       0.026677359 0.11927355 0.0020090605 -0.14080717
0000b0 80 74 2a 3d 4b a3 26 3e 9d 14 14 be b2 84 51 bd
       0.04161501 0.16273229 -0.14460988 -0.05115194
0000c0 0c cc c9 3d 3a 1e 0f be 27 cd 61 3d 8e 9e 82 3d
       0.09853372 -0.13976374 0.05512729 0.06377898
0000d0 ae 69 b0 3d 32 e5 8c bc 61 4a f5 bd 63 c4 9e bd
       0.08613907 -0.017199133 -0.11977077 -0.077523015
0000e0 46 7b 5c 3d 05 df dd bd 07 de e2 bd 8d 06 24 bd
       0.0538285 -0.10833553 -0.110775046 -0.04004531
0000f0 cf c2 99 3d 12 2e e9 bd cb 3c 87 bd f1 05 99 3d
       0.0750786 -0.1138574 -0.06603392 0.07471836
000100 34 ef a2 3d 44 18 ec 3d 51 fe 1d 3e 21 24 e9 3c
       0.079557806 0.11528066 0.15429045 0.02845961
000110 7d 60 96 bc b7 7e 37 bd c1 52 16 3e 89 dc 22 bd
       -0.018356556 -0.04479858 0.14680006 -0.0397611
000120 77 e8 2b 3c ae 84 01 bd ab fb 7d 3d 62 2b 80 bd
       0.010492436 -0.031620674 0.062007587 -0.062582746
000130 16 a3 58 3c 2e 52 88 bd 17 ce e4 bd 05 cc 9a 3d
       0.0132224765 -0.066562995 -0.11172121 0.07558445
000140 46 c1 5c 3d bf c6 b8 bd ac 46 23 bd 6a b1 f5 bd
       0.053895257 -0.09022283 -0.03986232 -0.1199673
000150 02 2e db 3d 54 c7 ac 3c cd db 48 3e bb 61 05 bd
       0.10702135 0.02109114 0.19615097 -0.032563906
000160 04 49 61 bd 08 44 91 3c 84 f7 ae bd 41 2f 6d bd
       -0.055001274 0.017732635 -0.085433036 -0.057906393
000170 41 84 72 bd 44 04 5b bd 6c f9 91 bd 84 f6 09 be
       -0.05920816 -0.053470865 -0.071276516 -0.13472944
000180 e7 4a 4e 3d 01 e5 a0 bd e2 b8 7d bd 01 6a 43 3e
       0.0503644 -0.07856179 -0.061943896 0.19083406
000190 06 d1 fb 3d f8 c8 bf 39 ea 1b 3c 3d 81 c0 08 be
       0.122957274 0.00036580092 0.04592506 -0.13354684
0001a0 5d f6 35 3e db 7c 08 3c 59 29 fa 3d 26 a0 85 bd
       0.17769761 0.008330549 0.12214918 -0.065246865
0001b0 89 69 2b 3d ad f9 03 3e b5 d1 1e bd 87 82 d0 bd
       0.041848693 0.12888213 -0.03877421 -0.10181146
0001c0 01 92 06 be cb 46 19 3e 34 23 44 3e 5f 70 ca 3d
       -0.13141634 0.14968412 0.19154054 0.09884714
0001d0 2f 1e 45 bd 44 90 fd bd a8 7d a6 3d c2 1f 19 be
       -0.04812449 -0.12381032 0.08129436 -0.14953521
0001e0 95 63 94 bd 0f b7 ff 3d 3c 20 d6 3d 28 b7 d6 bd
       -0.07245556 0.124860875 0.10455367 -0.10484153
0001f0 11 55 5f bd 6e e6 bc 3c 6b 95 97 3c b8 01 a0 3d
       -0.054524485 0.023059096 0.018503865 0.07812828
000200 cd e7 05 3e 50 65 d0 bd b4 97 6b bd 72 82 36 3e
       0.13076706 -0.10175574 -0.057517722 0.17823198
000210 f3 d4 fa bd a1 60 1c 3d 8e 3d a7 3b 3d c4 07 3e
       -0.12247648 0.03817809 0.0051037734 0.13258453
000220 d4 c0 20 3c eb 50 8a bd cf b6 f4 ba 84 0c c3 bd
       0.009811599 -0.06753715 -0.0018670204 -0.095238715
000230 ee 03 93 bd 5c ec 54 3d 34 40 a1 bd e0 d3 12 3e
       -0.07178484 0.051983222 -0.07873574 0.14338636
000240 f6 78 81 3d 8c bd d1 3b 71 6b 78 3d b9 a7 f4 bd
       0.063218996 0.0064007696 0.06064934 -0.11946053
000250 55 7f ba 3d b0 ad 02 be 77 33 c5 bd 58 23 49 bd
       0.09106318 -0.12761569 -0.09628957 -0.049105972
000260 72 03 f5 bd 16 d9 59 bc 25 14 de 3c a6 6e 66 bd
       -0.11963548 -0.013296386 0.027109215 -0.056257866
000270 d0 b0 d2 3d d9 84 01 be 9c e6 a4 bd e6 73 20 be
       0.102876306 -0.12648334 -0.08051798 -0.15669212
000280 52 65 89 bd 2a 98 72 bd b6 49 8b 3c 3c 5d 37 3d
       -0.067087784 -0.059227146 0.017002922 0.04476665
000290 19 f5 7b bd 91 c8 0a bd b8 d5 1a bd 29 76 1d 3e
       -0.06151304 -0.03388268 -0.037801474 0.15377106
0002a0 b3 8a 3a bd 09 35 4b bd 9d af f4 bd 85 46 2b 3e
       -0.04554243 -0.049611125 -0.11947558 0.1672612
0002b0 8d 1d f8 bd e7 bf 55 3d 24 dc 0b 3e bd fc d1 3d
       -0.12115011 0.052184965 0.13658196 0.10253284
0002c0 95 11 47 3e 79 12 36 3e 7c 81 05 be c3 03 e2 3d
       0.19440301 0.17780484 -0.13037676 0.11035874
0002d0 2b db 4e 3d bc 3b 89 3d a7 1f 27 3e 1e 96 09 3e
       0.050501984 0.067008466 0.16320668 0.13436171
0002e0 d7 a8 1b be b8 32 52 3e 69 e3 52 3d b0 39 89 bc
       -0.15201126 0.2052716 0.051486406 -0.01675114
0002f0 fc 5c a5 3d c4 f2 0c be 83 1f 61 bd 40 fa 10 be
       0.08074376 -0.13764483 -0.054961693 -0.14157963
000300 f7 21 a1 bd 7e 39 e2 3d 73 ce 29 3d 1d 78 49 3e
       -0.078678064 0.11046122 0.04145665 0.19674726
000310 87 1a 42 bc 89 d3 a9 3d e7 98 03 be 6a 0c 2d be
       -0.011847145 0.082923 -0.12851296 -0.16899267
000320 33 19 c7 3d d6 38 1f 3e 87 09 ec 3d 17 df fd 3d
       0.09721603 0.15549025 0.11525255 0.12396067
000330 13 a8 97 3d 18 60 43 3e f5 c2 f5 bc ea f5 c2 bd
       0.074051045 0.19079626 -0.03000019 -0.09519561
000340 9b c6 e4 3d e7 68 02 3d 23 b5 6f bd 4a ab 44 3e
       0.111706935 0.031838324 -0.058522355 0.19205967
000350 10 99 07 bd d5 8b 43 3e 1e 95 fc 3d 3c f4 e4 bd
       -0.033104956 0.1909631 0.12333129 -0.111793965
000360 24 0e 2c 3e 8a 63 16 3e 4b 1a 1e 3e 57 06 13 bd
       0.16802269 0.14686409 0.15439717 -0.035894718
000370 a0 61 91 bb 08 cc bd 3d f6 5c 05 be 17 db 56 3d
       -0.0044366866 0.092674315 -0.13023743 0.052455034
000380 35 0d 68 bd 2e c8 d5 bc 96 cb 7a 3d 91 be 65 3d
       -0.05665322 -0.02609643 0.06122931 0.05608994
000390 6e fe 02 3d d4 b0 82 3d f5 d7 09 3e 54 a9 18 39
       0.031980924 0.063813835 0.13461287 0.00014558929
0003a0 37 34 15 bd a2 4f dc bd e1 77 9d 3c a3 9c 8b 3d
       -0.03642675 -0.10757376 0.019222202 0.068169855
0003b0 f2 75 82 3d 71 95 b7 3d 53 68 f5 bd ab 95 f7 3c
       0.063701525 0.089640506 -0.11982789 0.030222734
0003c0 cf 8a c6 bd fe 9b 0a be b8 24 03 be 95 31 94 3c
       -0.096944444 -0.13536069 -0.12806976 0.018090049
0003d0 59 64 d3 3d a2 1b 18 3e 99 f0 12 bd 02 8f 31 3e
       0.10321874 0.14854291 -0.035873983 0.1733971
0003e0 ab 99 08 be b1 1c 0b be 6b c3 cb 3d ab e5 10 be
       -0.1333987 -0.13585164 0.099493824 -0.14150111
0003f0 5c 28 88 bc 08 e0 05 3e 86 33 29 3e 87 e8 c9 3d
       -0.016620807 0.13073742 0.16523561 0.09858804

feature_extraction.2.bias f4 [64]
000000 46 c8 90 3d 08 d6 0c 3d 8e 8b a4 3d 1b 21 3c ba
       0.07069449 0.034383804 0.080344304 -0.0007176564
000010 c3 8e 83 3d cd 0d d2 3d cf 1d 2d 3d 81 79 39 3d
       0.06423714 0.102565385 0.042264756 0.04528189
000020 b1 72 26 3d 81 32 90 3d 9e 95 6c 3d 13 ff 6b 3d
       0.040636722 0.07040883 0.057759874 0.057616305
000030 c7 18 42 3c ca b6 bd 3d 72 49 30 bd 08 0a cc 3b
       0.011846728 0.0926338 -0.043038793 0.0062267818
000040 5d 10 80 3d 78 8d 76 3d d6 8e 8e 3b 32 0a bd 3d
       0.06253121 0.06019351 0.0043505235 0.0923046
000050 90 53 7c 3d e7 c0 d1 3c 86 ef 8e 3a e9 11 6b 3d
       0.06160313 0.025604678 0.0010905124 0.057390127
000060 19 06 5c 3d fd 4f cf 3c d2 e1 59 3c 73 6e 97 3d
       0.053716753 0.025306696 0.013298469 0.073941134
000070 8f 84 1a 3d 35 5a 5f 3d ed b4 9e 3d 0b c6 24 3d
       0.037724074 0.054529388 0.077493526 0.04022793
000080 f1 73 7c 3d 9a b3 38 3d ce 87 e7 3b f4 c2 a0 3d
       0.061634008 0.045093156 0.0070657497 0.07849684
000090 e9 b9 43 3c 24 fc 99 3d 3b ce 34 3d 4c 3c cb 3c
       0.01194618 0.07518795 0.04414199 0.024809025
0000a0 0a 49 30 3d c2 96 96 3d 38 e9 74 3d 87 d5 a5 3d
       0.043038405 0.073529735 0.059792727 0.08097368
0000b0 2d 43 2c 3d aa 85 b4 3d fd d2 c9 3c 49 78 dd 3c
       0.04205625 0.08814557 0.02463674 0.027034895
0000c0 69 3b 97 3d df 88 7a 3d 1e d6 3e 3d 68 c5 82 3c
       0.073843785 0.061165687 0.046590917 0.015963271
0000d0 36 fb ca 3d f6 d3 5e 3c 5b eb 08 3d 94 49 c2 3d
       0.09911196 0.01360034 0.033427577 0.0948669
0000e0 05 29 3c 3d 54 53 8f 3d 1d 93 96 3d 7c 59 26 3d
       0.045937557 0.069983155 0.073522784 0.040612683
0000f0 1c ea 5b 3d 22 74 9c 3d 4f c2 37 3d fc 1f 0a 3d
       0.05369006 0.07639338 0.04486304 0.03372191

actor_direction.0.weight f4 [32, 64]
000000 3c 95 51 3e 54 78 1a 3e 8c fe 75 be 08 c3 61 3e
       0.20467085 0.15084964 -0.24022883 0.22047055
000010 de f0 e6 bd de 01 f9 ba 83 5a 7a 3e dc f0 99 3d
       -0.112764105 -0.0018997749 0.2444859 0.075166434
000020 f6 10 c5 3b 4f 4f 53 3e e4 66 ae 3d ed b9 16 3e
       0.006013985 0.20635723 0.085157186 0.14719363
000030 4e 83 2b be c9 af 1b 3e 56 64 d2 3c 6a 5a 9f bd
       -0.16749308 0.15203775 0.02568261 -0.07780917
000040 d2 9b 9d 3c e4 11 ca 3c 32 fd 9b 3b e8 8f e7 3c
       0.01923934 0.024666734 0.004760408 0.028266862
000050 25 6a 24 be 94 7d 25 3e 03 38 bc bc e9 90 fd bd
       -0.16056116 0.16161186 -0.022975927 -0.12381155
000060 53 b3 9e bd 8c f3 a0 bd 26 cc 07 bd 99 c9 89 3b
       -0.07749047 -0.07858953 -0.033153675 0.0042049405
000070 de ba 22 3e 7b 5a 7c 3e e0 6b b1 3d 19 fd 66 be
       0.15891597 0.2464389 0.08663154 -0.22557487
000080 7d ff c2 3d 89 fa 2f 3e 83 91 af 3d 74 db ed 3d
       0.09521387 0.17185415 0.08572676 0.11614123
000090 3b 30 58 3d 8b 58 62 3e ad 4e 57 be a9 98 69 3e
       0.05278037 0.22104089 -0.21026106 0.22812141
0000a0 c8 0d b7 3d 95 cb 57 be f8 d4 51 be 8c 2f 27 bd
       0.089381754 -0.21073754 -0.20491397 -0.04081683
0000b0 83 20 37 3e 32 28 55 3e 18 e9 1f bc 09 32 50 be
       0.17883496 0.20816115 -0.009760164 -0.20331587
0000c0 99 0d 5d 3e 44 8c a8 bd 4a fe 1b be a5 39 65 bd
       0.21587218 -0.082298785 -0.15233722 -0.055963177
0000d0 94 df a8 3d b9 a5 84 3d 05 a8 b9 bc 85 87 54 3d
       0.08245769 0.064769216 -0.022663126 0.051887054
0000e0 a7 a2 55 be bc 38 59 be 40 76 24 be 88 f3 18 3e
       -0.20862828 -0.21213049 -0.16060734 0.1493665
0000f0 54 74 50 be 1f 38 b4 3d cc 82 61 3e 5a f8 f7 bd
       -0.20356876 0.08799767 0.22022551 -0.12107916
000100 88 75 58 3d 6a 5b 04 bd 72 6b 80 3e 86 1c 1c 3e
       0.05284646 -0.03231374 0.25081974 0.15245256
000110 9b 16 4e be 08 fc 89 3e cc c1 f3 3d a1 f8 2e be
       -0.20125811 0.26950097 0.11902198 -0.17087032
000120 cf ad 38 3e 21 9b 12 3e 03 ff 3a be 50 8b 26 3e
       0.18035053 0.1431699 -0.18261342 0.16264081
000130 c3 44 03 be 17 3b c2 bd 84 1e 76 bd 94 6f 17 ba
       -0.128192 -0.09483927 -0.060087696 -0.00057768193
000140 62 db b3 3d 56 74 c1 3d b6 43 c9 3b 47 4c 03 3e
       0.08782078 0.094460174 0.006142105 0.12822066
000150 80 f3 66 3e 64 24 74 be 3e a2 07 be f5 c3 6a be
       0.22553825 -0.23842007 -0.13245484 -0.22926314
000160 68 7a ad bd 54 da 16 bd a4 3d 01 be d2 92 53 be
       -0.08470613 -0.036829308 -0.1262117 -0.20661476
000170 d0 b1 60 be 30 a5 3c bd df 5f 53 3e 9f d5 ab bd
       -0.2194283 -0.046055973 0.2064204 -0.08390354
000180 ee ac 5e be 80 c3 45 be 38 e1 0b be ec 2b 66 bb
       -0.21745655 -0.19312859 -0.13660133 -0.0035121394
000190 68 9f 7e 3e 55 d0 90 bd 90 89 a1 bd 2f 9e 57 3c
       0.24865496 -0.07070986 -0.07887566 0.0131602725
0001a0 4b 91 2b be e5 8e 1c 3e 76 a9 2a 3d 8e 74 1f 3e
       -0.16754644 0.15288885 0.041665517 0.15571806
0001b0 2d 88 8a 3d db 81 9e bc fc 2d 49 be 34 8c 1e be
       0.06764255 -0.01934903 -0.19646448 -0.15483171
0001c0 b9 67 7a 3d 2a 3d 29 3e 5e e4 62 be ab 57 25 3b
       0.061134074 0.16527238 -0.22157428 0.0025229256
0001d0 7e b2 80 3e 4e a0 05 3e 10 d8 ae bd 80 be 0a 3e
       0.2513618 0.13049433 -0.085373044 0.13549232
0001e0 c7 94 d5 bb 2e 76 98 3d a0 99 09 be f9 fb 12 be
       -0.00651798 0.07444416 -0.1343751 -0.14353932
0001f0 82 99 28 be 08 7c 1f 3e 7c 58 12 3e ce 58 92 3d
       -0.16464809 0.15574658 0.14291567 0.071458444
000200 70 4e 5e 3e a2 a5 b3 bd 1d c5 c9 3b ff 58 7d 3d
       0.21709609 -0.08771826 0.006157531 0.06185245
000210 bf 72 9e ba f9 cb 93 bd 04 a9 45 be 01 05 20 3e
       -0.001208864 -0.07216639 -0.19302756 0.15626909
000220 29 85 12 be a8 ce f9 bc 78 f3 5a be 0a 9f 97 bd
       -0.14308609 -0.03049405 -0.21381938 -0.07403381
000230 8d 2a 61 3e c4 60 5d be a0 fc e2 bd a0 98 53 3e
       0.21988888 -0.21618944 -0.11083341 0.2066369
000240 3c 7b 42 3e 5a 4f ce bc ac 12 6c be de d1 28 bc
       0.18992323 -0.025184322 -0.23053998 -0.0103039425
000250 00 d1 84 be 8c d1 5c 3c df 70 80 be 21 2c 1a be
       -0.25940704 0.013477694 -0.25086114 -0.15055896
000260 97 a6 0d be 30 e2 1b 3e 0f 24 42 be 9f f2 85 3e
       -0.1383308 0.15223002 -0.18959068 0.26161668
000270 87 bd 1c 3e a8 9b 77 3e 07 3e 20 be b0 81 29 3e
       0.15306674 0.24180472 -0.15648662 0.16553378
000280 7b a2 26 3e ea 31 b8 bd 99 f6 39 3e 76 ff 06 be
       0.16272919 -0.08993895 0.18160476 -0.13183388
000290 38 18 c7 bd 89 32 5a 3e b1 eb 61 3d b8 01 4e 3e
       -0.09721416 0.2130834 0.055156413 0.20117843
0002a0 46 36 6c bc 76 fa 4d be fb a9 e2 bd ca 95 4b be
       -0.014417237 -0.20115075 -0.110675775 -0.19881359
0002b0 0a 1c 0e bd 18 a5 a7 3d 2e a4 bb 3d cb 9c 7f 3e
       -0.03469471 0.08185786 0.09162174 0.24962156
0002c0 22 a2 21 3d 62 97 5e be 5c a8 36 3e da 00 bf 3d
       0.039461263 -0.21737435 0.17837662 0.09326334
0002d0 c9 84 17 be df 46 6e bc 4c 77 6d 3e e4 a9 a1 3d
       -0.14796747 -0.014543264 0.2319004 0.07893732
0002e0 33 91 33 be 3d 70 02 bd e6 aa 21 bd be c8 59 be
       -0.17535858 -0.03184532 -0.039469622 -0.21267983
0002f0 d5 c5 2f 3d 39 67 46 3e 48 ef 79 be a4 03 80 3e
       0.042913277 0.19375314 -0.24407685 0.25002778
000300 64 1a 83 bd ba 6e 7e 3e 8c 36 6e 3e 32 ea f5 3d
       -0.06401518 0.24846926 0.23262995 0.1200756
000310 59 c3 f4 3b 51 e2 81 3e f6 8c 15 be e8 e6 ba bd
       0.0074695763 0.25367978 -0.14604554 -0.09126073
000320 06 25 6c 3e ab 60 7d bd 0b ae 5c 3e 57 6e 72 3c
       0.23060998 -0.061859768 0.21550767 0.014796815
000330 84 0b c1 bd a3 d9 83 3e fe 82 27 3e 2b 4b 0c 3e
       -0.094260246 0.2575198 0.16358563 0.1370055
000340 28 da 43 bd 19 b2 cc 3d 80 c8 ee bc 84 cb 98 3d
       -0.047815472 0.09994907 -0.02914834 0.074606925
000350 25 dd 2a be 45 fe bc bd eb 5c 5b 3e 8b e2 1c be
       -0.16685922 -0.092281856 0.21422164 -0.15320794
000360 06 42 73 3e 1e a2 11 3c 4e 67 42 3e ee 2f de 3d
       0.23755655 0.008888749 0.1898472 0.108489856
000370 ab b6 d6 3d 33 9c 7f bd dc 8d 47 be 5a 1b 21 be
       0.1048406 -0.062404823 -0.19487709 -0.1573309
000380 5c 85 64 be f9 83 3e 3e 9b 91 20 3d 59 f5 f0 bc
       -0.22316498 0.18605031 0.03920136 -0.029413866
000390 f8 32 3e be e7 be 4e be 40 af 8b 3d 69 7e 11 3e
       -0.1857413 -0.20190011 0.06820536 0.14208378
0003a0 16 c0 21 3e d0 2e 94 bd 07 68 1b 3d 40 6e 79 be
       0.15795931 -0.07235491 0.037941005 -0.24358463
0003b0 16 39 ee 3d 95 d0 b4 bd ef 2d 8d bd 0b 6c df bd
       0.11631982 -0.08828846 -0.06893527 -0.109092794
0003c0 0c 09 ff bd 5b 05 f6 ba 7a b5 78 be f1 7e 7a 3e
       -0.124528974 -0.0018769907 -0.24287978 0.24462487
0003d0 a7 11 4f 3d c1 17 47 be 4e 16 4f be 47 7b 14 be
       0.050553944 -0.19442655 -0.20223352 -0.14500152
0003e0 fd b2 c6 3d a4 4e 8d 3e 21 d7 18 3d bf fc 21 be
       0.09702108 0.2759906 0.037314538 -0.15819071
0003f0 14 29 64 be 18 e2 0b 3d a5 82 44 3c 8d 5d 4d be
       -0.22281295 0.034151167 0.011994039 -0.20055218

actor_direction.0.bias f4 [32]
000000 2a 1b d2 3c 9d f2 dc 3c ac df bb ba bd 2b da 3c
       0.025647718 0.026971156 -0.0014333627 0.026632184
000010 be d0 aa ba f0 42 97 bb 6d be c5 bc c0 61 14 bd
       -0.0013032181 -0.004616134 -0.024138654 -0.036226034
000020 9c 59 c9 bc a9 99 e7 bb ae bf f1 3c 3f 07 b3 3c
       -0.024578862 -0.0070678783 0.029510345 0.021854041
000030 ac 71 4b 3a 93 78 30 3c 7f dd 8b bc 28 9b 72 bb
       0.0007760774 0.010770935 -0.017073391 -0.003701875
000040 20 c8 c6 3c 6c 31 4d bc b3 3f 0d 3c db 80 10 bc
       0.024265349 -0.01252399 0.008621144 -0.008819784
000050 41 6e 03 3d bd 09 28 3a 3f 68 56 3d 9e 13 30 bc
       0.03208757 0.00064101425 0.05234551 -0.010746865
000060 02 fd 5b 3d 1a d4 99 3c 70 dd b8 3c 1c 19 85 3a
       0.053708084 0.018777896 0.022566527 0.0010154578
000070 70 1d de bb 89 80 a2 3c 16 92 0e bc d2 0d c0 3a
       -0.0067784116 0.019836681 -0.008701822 0.0014652556

actor_direction.2.weight f4 [16, 32]
000000 ad 61 8f be 8e c3 ef bd 51 06 80 bd f3 79 4a 3d
       -0.28004208 -0.11707221 -0.06251205 0.049432706
000010 9d d3 7a be 4a f4 b8 bd 85 80 b3 be 2d 95 d5 3d
       -0.24494787 -0.090309694 -0.3505899 0.10428844
000020 68 68 ad 3d 88 43 99 be 28 fd 48 3e 4a 6b 34 3e
       0.084671795 -0.29934335 0.19627821 0.17619053
000030 46 5f 27 3e 7e e4 a4 3e 7e 87 65 3e 08 0b 15 be
       0.16344938 0.32205576 0.22414967 -0.1455499
000040 dd 19 ad be a2 10 ae be 56 a7 cf bd 19 96 6a be
       -0.33808795 -0.33997065 -0.10139339 -0.2290882
000050 77 3c a3 be d6 d1 20 3c a1 36 4c bd db 48 43 be
       -0.3188207 0.009815654 -0.049856786 -0.19070761
000060 df b4 66 bd 92 87 df bc cc 81 93 3e ad b5 70 3e
       -0.056324836 -0.027286325 0.28809965 0.23506804
000070 24 3c db 3d 2f d5 18 be 73 72 84 be b7 99 ad 3d
       0.1070483 -0.14925073 -0.25868568 0.084765844
000080 e4 16 54 3e 97 cb 38 3e 50 5b 14 be 3e 84 45 be
       0.20711857 0.18046413 -0.14487958 -0.19288728
000090 0d 9c 46 3e 2d 4a 87 3e 87 99 83 bd 4c f9 37 be
       0.19395466 0.2642378 -0.064257674 -0.17966193
0000a0 cd 41 98 3e 40 1c bb 3d cd 06 6c 3e f6 b5 7b be
       0.29737702 0.09136248 0.2304947 -0.24581131
0000b0 a1 ca 9e be 87 d8 1c 3e 14 5e c6 bd d6 a6 67 be
       -0.3101397 0.15316974 -0.09685913 -0.22622237
0000c0 c7 58 33 be 39 e0 83 3e 93 3a b1 3e 96 ef 8b 3d
       -0.17514335 0.25757006 0.34615 0.06832807
0000d0 77 38 a7 bd b3 ea 0e be 27 a7 84 3e 61 05 3d bd
       -0.08165067 -0.13956718 0.25908777 -0.046147708
0000e0 39 2d 8f 3e 58 b5 6f be 08 58 ca bd e1 37 aa be
       0.2796419 -0.23409021 -0.09880072 -0.33245757
0000f0 b7 f8 83 be 37 23 8c 3e 58 d0 bd bd 69 4e 9e 3e
       -0.25775692 0.27370617 -0.09268254 0.30919197
000100 26 ef 8b be 29 35 6e be 24 63 c1 bd 06 5d 77 3e
       -0.27330893 -0.23262466 -0.09442738 0.2415658
000110 57 e8 bb be cb 54 09 be 22 08 0b 3d 36 c5 96 3e
       -0.367007 -0.13411252 0.033943303 0.29447335
000120 dd ff 83 be 2d 37 8c bd 11 de 8e 3e 97 62 6a bd
       -0.25781146 -0.068464614 0.27903798 -0.05722293
000130 6a 95 f0 bc a9 a1 15 be f1 9f a9 be 79 42 96 be
       -0.029368121 -0.1461245 -0.33129838 -0.2934759
000140 53 40 88 3e 49 70 a6 be 84 13 b9 3e 90 d1 80 3d
       0.26611575 -0.32507542 0.36147702 0.06289971
000150 bf 60 84 3e 0a 48 20 be 18 ce c7 3d 58 20 b2 3e
       0.2585506 -0.1565248 0.09756106 0.347903
000160 95 c7 35 3e 73 ac 2b 3e 54 2b bc 3e 47 cf 70 3e
       0.17751916 0.16765003 0.36751807 0.2351657
000170 91 85 bf bc 8d b6 8a be e6 ea 1f 3e b0 84 74 be
       -0.02337912 -0.270924 0.1561695 -0.23878741
000180 14 72 b4 be 43 66 8f be 67 76 19 be f4 03 db bd
       -0.35243285 -0.28007707 -0.14986573 -0.106941134
000190 45 f0 95 be b1 99 a5 be 3f 69 9c 3e 2a cc 29 3e
       -0.29284874 -0.3234382 0.30549046 0.16581789
0001a0 32 03 ab 3e 37 a1 3b 3e b5 26 c3 3d 08 25 63 bd
       0.33400875 0.18323217 0.09528867 -0.055455238
0001b0 15 c5 45 be d9 26 69 be fd 90 9d 3e aa 52 74 3e
       -0.19313462 -0.22768725 0.3077468 0.23859659
0001c0 c1 b8 1f 3e 27 71 96 bd 1a 59 8a bb 4b b7 9c be
       0.15597822 -0.07345801 -0.0042220475 -0.3060859
0001d0 f0 bd 4f be cc b5 ad be b2 27 e5 bd 2a fc a9 3e
       -0.20287299 -0.33927763 -0.11189212 0.33200198
0001e0 9f a6 2f 3e 1d 31 60 3e 15 7e c2 be 8e b3 3a 3e
       0.17153405 0.21893735 -0.37986818 0.18232557
0001f0 65 a8 a0 be 70 85 92 be 92 89 60 be bf 53 8c 3e
       -0.31378475 -0.2861743 -0.21927479 0.27407643
000200 12 78 83 bd 7b ff 11 bc 22 42 fe bd 15 53 00 be
       -0.06419386 -0.008911009 -0.124149576 -0.12531693
000210 d0 80 5a 3e 24 fc 2c be 97 7d 5c 3e 72 93 b2 bd
       0.213382 -0.16893059 0.21532284 -0.08719529
000220 f9 88 54 be 0d 16 6d 3d 24 ac 23 be ee 1c a7 be
       -0.20755376 0.057882357 -0.15983635 -0.3263926
000230 86 93 58 3e 67 cc 87 bd 8c 64 8a 3d dd 11 a8 3e
       0.21150026 -0.066307835 0.06757459 0.3282613
000240 bd 0e 99 bd 69 52 09 bd bd 38 be bd 17 f7 07 3e
       -0.07473514 -0.033525858 -0.09288166 0.13277851
000250 47 7a 96 3e 2f f3 97 3d 2c 34 4c 3e 79 9a 95 be
       0.29390165 0.074194305 0.19941777 -0.29219416
000260 3f 50 68 bd fa 9d 90 be 4c fb aa bd 5b db f6 bd
       -0.056717154 -0.28245527 -0.08348712 -0.120535575
000270 e0 e9 01 bd 8b 4d 13 3d 40 34 14 3d 03 da b3 bd
       -0.03171718 0.035962623 0.036182642 -0.08781817
000280 09 f6 89 3e e6 89 91 3e 88 d6 ac be 30 bc 81 3c
       0.26945522 0.2842552 -0.33757424 0.015836805
000290 a2 ed 2d be f1 0c 5d be 88 d2 90 3e 09 26 44 be
       -0.16985181 -0.21586968 0.28285623 -0.19155134
0002a0 ec 0b 57 3e b9 5d 8e be 5b 3c 80 bd 0d 86 d9 3d
       0.21000642 -0.2780588 -0.06261512 0.10621271
0002b0 9a 0b 14 3d 1a 53 9b be b6 ea 87 ba 7a 96 f4 3d
       0.036143877 -0.3033684 -0.0010369632 0.119427636
0002c0 05 db 19 3e d0 a4 18 be b9 52 64 be 46 0b ae be
       0.15024956 -0.14906621 -0.22297181 -0.33992976
0002d0 83 44 cd bb 14 5a 58 3e b8 f3 a8 be 53 11 87 bd
       -0.0062642707 0.21128112 -0.32998443 -0.06595101
0002e0 65 45 88 be ed 85 4b 3e af cb 7c 3e 73 45 ea bd
       -0.26615444 0.19875307 0.24687074 -0.11439028
0002f0 a0 2c 1d 3e dd 0f a8 be b4 84 95 be 31 7e b7 3e
       0.15349054 -0.32824603 -0.29202807 0.35838464
000300 2f 67 9c be 17 04 0a be e1 ce a6 3e 74 dc a1 3e
       -0.30547473 -0.13478123 0.3257971 0.31613505
000310 4f 43 9d 3d 3f 04 21 be 3d 35 99 be ef 64 8f bc
       0.07678854 -0.15724276 -0.2992343 -0.017504184
000320 5d ae 5a be c1 d8 12 3e 40 f8 8a be 30 99 96 be
       -0.21355577 0.14340498 -0.27142525 -0.29413748
000330 bc e4 4f bc 1a f0 8a 3d 4b 4f 39 3e dc bd aa be
       -0.012688812 0.06784077 0.18096654 -0.33347976
000340 ac 2f c3 bd 88 24 af 3e f8 9f a6 be 9d 43 51 be
       -0.09530577 0.3420756 -0.3254392 -0.20435949
000350 47 7e 3e be bc 81 73 3c 7d ab f8 bd 55 40 3e 3e
       -0.18602858 0.014862474 -0.12142084 0.18579228
000360 4a 61 97 3e 9e e2 93 be 3b ac 92 3e 00 0b 84 bc
       0.29566413 -0.28883833 0.28647026 -0.016118526
000370 49 1a b9 bd 5f 09 29 3c 07 16 d7 bd fa 21 68 bd
       -0.090382166 0.010317176 -0.10502248 -0.056673028
000380 54 10 ae bd 9e c7 7c bd 06 dc 8c be 6d 09 92 3d
       -0.08499208 -0.061713807 -0.27511615 0.07130704
000390 ae 94 19 be 5b 70 03 3e 45 28 20 3d b3 09 c6 bd
       -0.14998123 0.12835829 0.039100904 -0.09669819
0003a0 0c b7 05 be 87 29 ab be 0e 88 a1 3e e5 dd b2 be
       -0.13058108 -0.3343012 0.31549114 -0.34934917
0003b0 a0 ab 92 be 1c 47 1d be 0c cc 9c be 15 5f b4 be
       -0.28646564 -0.15359157 -0.30624425 -0.35228792
0003c0 d1 0d 1b 3d d9 02 1f bd 73 83 b7 3e dd b9 2f 3e
       0.037854973 -0.038821075 0.35842475 0.17160745
0003d0 fa e6 5d be e7 a5 24 3e e3 24 46 3e ed 52 9a 3c
       -0.21670142 0.16078912 0.19350009 0.01883837
0003e0 ef 8a 88 3e b4 68 06 bd 99 da cc 3d 83 b3 04 be
       0.26668498 -0.032814696 0.10002632 -0.12959103
0003f0 b2 0e f3 bd c9 90 02 be 94 67 bb 3e fb e3 67 3e
       -0.11868037 -0.12750544 0.3660246 0.22645561

actor_direction.2.bias f4 [16]
000000 b4 19 f5 bb b2 36 90 3c d8 bc 5b 3c 03 ee 1f bc
       -0.0074798707 0.017604206 0.013411723 -0.009761336
000010 e2 d4 5b 3c 7f b6 d3 3c 06 57 ae 3c 11 b1 d2 3c
       0.013417454 0.025843857 0.02128173 0.025719197
000020 75 66 b8 3c 29 95 d8 3c 90 7e dc bb fb 22 49 39
       0.022509793 0.026438313 -0.0067289546 0.00019181885
000030 78 8a be 3c 39 b3 9c 3c 67 20 f9 3c c8 b6 03 3d
       0.023259386 0.019128429 0.030410958 0.032156736

actor_direction.4.weight f4 [3, 16]
000000 c0 39 e5 bd d2 0e fd be 0c 23 c9 bb bf 84 75 bd
       -0.111926556 -0.4942537 -0.006138211 -0.05994105
000010 76 0c 99 3d 73 2b 17 bf f8 6c a0 bc 27 c3 70 be
       0.0747308 -0.59050673 -0.01958321 -0.23511945
000020 f5 c4 0e 3f fc 5d 91 3c d3 82 56 bd 5c 40 9d 3b
       0.5576928 0.01774501 -0.052370857 0.004798932
000030 67 3c dc be 05 f1 ac be 51 4e 63 bd 3d 9c dd 3e
       -0.43014833 -0.33777633 -0.05549461 0.43283263
000040 79 0b 7f be 1a e6 4a 3e cb 18 0d bf 52 c3 58 3e
       -0.2490672 0.1981434 -0.55115956 0.21168259
000050 f0 e8 13 3f e7 6a e6 be f5 3b d8 3d 2b 24 40 be
       0.5777731 -0.45003435 0.10558311 -0.18763797
000060 0c 6e 05 3f 33 4e f9 be cf 84 da be 74 63 65 bd
       0.52121043 -0.48692474 -0.4267945 -0.05600305
000070 1e 68 ab be eb 33 d5 be 0d 82 03 3f 96 13 d3 be
       -0.33477873 -0.41641173 0.51370317 -0.4122588
000080 67 86 d8 be d4 24 c9 be fa 33 64 bc 06 86 cc 3b
       -0.4229004 -0.3928591 -0.013928408 0.006241563
000090 12 21 ce 3c 77 2e 55 be fc dd 95 3e 3a fb 82 3e
       0.025162254 -0.20818506 0.29270923 0.25582296
0000a0 e4 71 19 3e 03 ea c4 3e 9d da 92 3e 03 3a 0f 3f
       0.14984852 0.38459787 0.28682414 0.55947894
0000b0 f4 5a e5 be fa cc 37 3e dc ce f2 be c0 65 af bd
       -0.44795954 0.17949286 -0.47423446 -0.08564329

actor_direction.4.bias f4 [3]
000000 68 c5 f8 3c da 64 89 bb 17 ab 85 bc
       0.030367568 -0.0041929306 -0.016316934

critic.0.weight f4 [32, 64]
000000 f0 a6 b7 bc 30 7a be bd 95 ca 29 3e b4 8e 99 3d
       -0.02241847 -0.09300649 0.16581185 0.074979216
000010 f7 16 65 bd 2d 81 f8 3d 72 9f 03 be 3c 99 37 3d
       -0.055930104 0.12134013 -0.12853792 0.04482387
000020 64 1b 76 3e 2f fe fd 3c 74 57 e0 bd bc bb 83 3e
       0.24033886 0.031004993 -0.1095418 0.25729167
000030 80 7b f6 3d 87 9a ed 3d 66 2b 65 be 3c 44 78 3d
       0.120352745 0.116017394 -0.22379836 0.06061195
000040 55 64 6c bd 4e 26 29 be db f8 f2 bd fd 69 00 3e
       -0.05771287 -0.16518518 -0.11863872 0.12540431
000050 3e bc 72 3e df e6 fb bd 26 e6 16 3e 52 52 42 bd
       0.23704621 -0.122998945 0.14736232 -0.047441788
000060 ea 6f 4b 3e 86 8a 1b 3e bf d9 25 bb dd 0c 10 be
       0.1986691 0.15189561 -0.0025306789 -0.14067407
000070 48 9b ae bd 5a a5 42 3e 0d 11 28 3e cb 92 1d 3e
       -0.08525711 0.19008389 0.16412754 0.15388028
000080 08 ad 02 3e f6 d9 9e 3d fb f7 d8 bd 16 32 dd bd
       0.12761319 0.077564165 -0.105941735 -0.10800569
000090 52 2d d7 bc 4c 21 27 3e ba a0 f9 bd a8 f0 20 be
       -0.026266728 0.16321295 -0.12188859 -0.15716803
0000a0 0e c1 15 3e c3 4f 98 3e 7f 60 c8 3d e0 c9 02 3e
       0.14624426 0.29748353 0.0978403 0.12772322
0000b0 47 4f f4 3d 36 a4 4d bd 19 9b 04 be 8b ad b6 3e
       0.119291835 -0.050205432 -0.1294979 0.35679278
0000c0 11 f2 a5 3e f5 6b a3 3e ea 90 29 3e 3a e2 c7 3d
       0.32411245 0.31918302 0.16559187 0.09759946
0000d0 65 f3 5e bd 5b 25 9f 3d 22 94 1b 3e 3b 91 7c 3e
       -0.054431338 0.07770797 0.15193227 0.24664776
0000e0 8d 3a 47 be d5 9c 6a bd e8 db 89 3e 7f d8 71 3e
       -0.19455929 -0.057278473 0.26925588 0.23617743
0000f0 07 ea 7b 3c f9 b3 4b 3e 47 c9 1a be 13 db 44 3e
       0.015375621 0.19892873 -0.15115844 0.19224195
000100 6b 67 49 3e 7c f9 e9 3a 91 7a 74 3e ab 18 87 bc
       0.19668357 0.0017850841 0.2387488 -0.016491255
000110 71 83 87 3e 3e 0f fe 3d f6 b7 49 3e 9a d0 33 be
       0.2646747 0.12405251 0.19699082 -0.17560044
000120 f0 9a 1a be d2 20 82 be 15 c3 0b 3e 08 eb 1c 3e
       -0.15098166 -0.25415665 0.13648637 0.15324032
000130 be 39 66 be 5f c6 1e 3e d9 4d 76 bd 14 40 5a 3e
       -0.22482964 0.1550536 -0.060132835 0.21313506
000140 ea 1d 6f be a2 37 7a 3d e6 71 3b 3d 79 4a 63 3d
       -0.23351255 0.06108821 0.04576292 0.055490945
000150 96 ce 48 3d 85 70 40 3d 04 20 31 bb 1d 9b c3 3d
       0.04902514 0.046982307 -0.002702714 0.0955107
000160 07 a8 e6 3d 4b 01 96 3d 03 5c 39 be 10 d0 03 3c
       0.112625174 0.07324465 -0.18101506 0.008045211
000170 79 e4 30 3d bd c6 9d bd 59 30 79 3d 5c 64 f5 bd
       0.04318664 -0.07703922 0.060837124 -0.11982033
000180 ca b8 23 3e 50 25 05 be 6a 52 7d 3e 70 78 9f bd
       0.1598846 -0.13002515 0.2473847 -0.077866435
000190 4d 2a 1b 3d 0a fc 3d be 50 7e 54 3c 3f 3f 36 be
       0.037882138 -0.18553177 0.012969568 -0.17797564
0001a0 d0 45 4a bd b9 c5 fb 3b 96 f7 67 3e b8 ba 0c be
       -0.049382985 0.0076834825 0.2265304 -0.13743103
0001b0 41 de c1 3c 24 22 38 3e 32 1b 30 be 49 e2 57 3e
       0.02366555 0.17981774 -0.17197874 0.21082415
0001c0 21 a7 1a be dd 37 fe 3d d2 43 6a be 51 a1 39 be
       -0.15102817 0.12412999 -0.22877434 -0.18127944
0001d0 85 ee f4 bd 26 29 5a be a3 ad 3a be 84 36 30 3e
       -0.119595565 -0.2130476 -0.182303 0.17208296
0001e0 cc 84 50 3e 7a bd c0 bd 93 3c 9f 3c 97 c2 56 be
       0.20363158 -0.0941114 0.019438064 -0.20972668
0001f0 53 5a db bd 06 34 38 3e e0 a6 8d 3d 94 82 14 3c
       -0.10710587 0.17988595 0.069165945 0.009064335
000200 02 f2 9a 3d 80 95 0f be 9f 1e 1a 3d 42 25 be bd
       0.075656906 -0.14021873 0.03762686 -0.0928445
000210 46 cf ea 3c c4 2e 95 bc b6 ec c7 bd cf 57 44 bd
       0.028663289 -0.018210776 -0.09761946 -0.047935303
000220 04 d7 95 bc 7a da af bc b6 72 ec 3b 17 98 05 3e
       -0.018291004 -0.021466482 0.007215823 0.13046299
000230 76 4d 8e 3e 70 aa db 3d e0 89 45 bd 96 2c 2e be
       0.27793473 0.10725868 -0.04822719 -0.17009196
000240 d8 cc 8c 3d 0c 9c 05 3e a9 d4 b8 bd 5c 5d 04 be
       0.06875008 0.13047808 -0.09024937 -0.12926239
000250 7f 45 00 be 1f 64 10 be f1 8e 3d 3d bb bd 6d be
       -0.1252651 -0.14100693 0.046278898 -0.23216908
000260 6f 76 d1 3d da 0d 49 be bb 6b dd 3d dd 94 55 be
       0.102276675 -0.1963419 0.108115636 -0.20857568
000270 9e 38 de bd 9f 3d 44 3d 6c 7e 97 3c aa 04 2f 3e
       -0.108506426 0.04791033 0.0184929 0.17091623
000280 d1 b2 0d be c8 db dd 3d 99 85 12 be a3 55 9e 3d
       -0.13837744 0.108329356 -0.14308776 0.07731178
000290 b1 8a 3a 3e 1e 82 92 be 98 43 39 be 5e 63 87 be
       0.18216969 -0.28614897 -0.18092191 -0.26443
0002a0 0b 84 bd bd f7 1f 01 bb 79 c3 45 3d 4d 57 21 3d
       -0.09253701 -0.001970289 0.04828212 0.039389897
0002b0 18 34 2b bb 02 05 93 3e 34 87 0b bd 8e 10 4d be
       -0.002612358 0.28714758 -0.034064487 -0.20025846
0002c0 1c 82 7d bc c0 60 41 3e a4 c6 05 3e 36 d3 f4 3d
       -0.015472915 0.18884563 0.13064057 0.11954348
0002d0 3b 79 43 3e 2f 9c 54 be 62 60 2a 3e 15 1a 07 3e
       0.19089215 -0.20762704 0.1663833 0.13193543
0002e0 76 85 62 3e 25 1a 54 3e 14 73 ef 3d 71 99 88 3d
       0.22121224 0.20713098 0.11691871 0.066698916
0002f0 b6 8f 23 bd 34 4b 81 3e 81 9c 8f bd d7 34 2c bc
       -0.039931975 0.25252688 -0.070122726 -0.010510645
000300 ba 07 4d 3e 07 43 a0 bc 57 26 38 3e 26 a5 29 be
       0.20022479 -0.019563211 0.17983375 -0.16566905
000310 63 c8 ce 3d fe ce 01 be 0e 8e 0d 3d 7a c2 39 be
       0.100968145 -0.12676618 0.034559302 -0.18140593
000320 cc fc 52 3e 78 6d 84 3c c9 13 79 3e ab c5 09 3e
       0.20604247 0.01616548 0.24323954 0.1345431
000330 db 64 57 3e b8 b9 0e be 07 a7 ac bd 46 68 41 3c
       0.21034567 -0.13938034 -0.084302954 0.011804646
000340 ff 0b 3f be b2 00 46 3c 47 15 1d 3e c5 85 2f 3e
       -0.1865692 0.012085127 0.15340148 0.17140873
000350 80 ab f6 3d 15 23 de bd 59 46 fc 3d 92 94 61 be
       0.1204443 -0.10846535 0.12318105 -0.22029331
000360 d5 dd 48 3e db 49 cf 3c 89 40 d8 bd 78 9e c6 3d
       0.19615872 0.025303772 -0.10559184 0.09698194
000370 dd 1d a4 bb 5f a7 73 3e bf c6 b9 bd ae 70 e6 bd
       -0.005008443 0.23794316 -0.09071111 -0.11251961
000380 d7 1c 2c 3e d5 3e 89 bc b9 e7 01 3d a7 b3 6a be
       0.16807877 -0.016753593 0.03171513 -0.22920094
000390 21 4a a7 3b 56 44 87 bd b2 47 e4 3d b4 45 cc bd
       0.0051052724 -0.06604831 0.11146487 -0.09974232
0003a0 13 21 65 3e a2 a2 18 3e 3c 22 a5 3c 6f e1 11 be
       0.22375898 0.1490579 0.020157926 -0.14246152
0003b0 6d 4c 58 3e e6 10 29 bd 67 0a 70 3e 6c 37 0c 3d
       0.21122904 -0.04127588 0.23441468 0.034232542
0003c0 5a 43 4f 3e 8f dc bd 3d 6f cf d3 bd 75 d1 85 be
       0.20240536 0.09270584 -0.10342299 -0.26136366
0003d0 df d0 a7 bd 69 1f 3d 3d fe 09 81 3d ec f1 3a 3e
       -0.08194136 0.046172533 0.06300734 0.18256348
0003e0 75 58 c1 bd 95 16 45 3e e9 a5 1e 3e d5 92 57 be
       -0.094407 0.19246896 0.15492977 -0.21052106
0003f0 fc cc af bc da 3c e2 3c 5e b0 f0 bd 5f 92 a1 3e
       -0.021460049 0.027616907 -0.11752389 0.31556985

critic.0.bias f4 [32]
000000 01 10 e8 3d 5e 6d 83 3d d3 41 a4 3c a0 12 ce 3d
       0.113311775 0.064173445 0.020050919 0.10062146
000010 bf 45 8a 3d a1 b7 06 3e a7 aa 6e 3d b2 40 6c bb
       0.06751584 0.13155986 0.058268216 -0.0036049304
000020 be 2b 34 3d df e2 f6 3d 3c ab 45 bc 3b 72 bb 3d
       0.04398703 0.12054991 -0.012064751 0.09152647
000030 08 5f d0 3d 15 ec 6b 3d c5 2c e3 3d 3b 05 84 3d
       0.10174376 0.057598192 0.110925235 0.0644631
000040 4f b9 27 3d 47 94 04 3d 1a 8d a0 bc d1 fd 32 bd
       0.04094821 0.03236797 -0.019598532 -0.04369909
000050 0f 2f d8 3d 02 5d f8 3d c7 74 8a 3d ef e5 a0 3d
       0.10555851 0.12127115 0.06760555 0.07856356
000060 b9 cd 65 3d 9a cc 70 3d 35 32 f5 3d a1 d8 96 3d
       0.056104396 0.058788873 0.11972467 0.073655374
000070 f1 6f c9 3c 47 a0 85 3d 00 64 b7 3d 3b d6 0c 3c
       0.02458951 0.06524711 0.0895462 0.008595998
